results/RollerAgent/RollerAgent.onnx (onnx, 75401 bytes, 8 tensors)

action_model._continuous_distribution.log_sigma f4 [1, 2]
-0.02266701 -0.040595997
00000000: 2ab0 b9bc fd47 26bd

action_model._continuous_distribution.mu.bias f4 [2]
0.009749089 -0.0014032917
00000000: a5ba 1f3c a8ee b7ba

action_model._continuous_distribution.mu.weight f4 [2, 128]
-0.02055954 0.05928556 -0.028195348 0.065445095 -0.067314655 0.014768267 0.035021957 0.009645085
-0.01614816 -0.08182399 0.0008658767 -0.0014529835 0.0031427175 0.021773051 -0.024619605 0.007146059
0.04408791 0.030392902 -0.033786047 -0.00045920527 -0.020605072 -0.014669849 0.04039936 -0.015608116
-0.021154778 -0.0022333593 0.008556401 0.017614987 0.007489563 -0.004867706 0.10723999 0.040272146
-0.012887589 0.042090606 0.0319357 -0.01556415 -0.0016225722 -0.021750573 0.014318868 -0.018733608
-0.02382606 0.011374616 -0.025192771 -0.027903406 -0.011854829 -0.0021768895 -0.00666385 0.06313185
-0.01620215 -0.06681418 0.01741021 -0.051880147 0.00039679036 0.056039147 0.0380032 0.00031200785
0.02105854 -0.0024789816 -0.03767532 0.001568802 0.04339233 -0.012834602 0.010234165 -0.0051408536
0.0034543113 0.00024100025 0.0080718445 0.041465655 -0.010179418 0.04464368 -0.017834002 0.0036995322
0.04823538 0.058969457 -0.019231219 -0.014771601 0.003410684 -0.026768664 -0.025911799 -0.006562171
-0.0518183 0.034418687 0.037492532 0.027896313 -0.025667988 0.015363148 -0.023803772 -0.015040772
0.032429148 -0.038671974 0.0014614835 -0.03618391 -0.015618337 -0.0028434258 0.008689132 -0.010292398
-0.007081717 -0.0095902495 0.037876185 -0.008642109 -0.04298582 -0.027805116 -0.0186862 0.033350218
-0.06262851 0.047709707 -0.0107744355 0.00877549 -0.009163717 -0.014708778 0.034606475 -0.0013310119
-0.03627894 0.044500034 -0.028559214 -0.043841664 -0.061641596 -0.038601737 0.03592845 -0.001199914
-0.025859594 -0.013887371 -0.021409212 0.011537233 0.05888218 0.083832175 0.031875297 0.08458725
0.034539573 0.020562446 0.0140512595 0.03331518 -0.035764564 0.024343524 -0.014147745 0.026158514
0.016223013 0.020534476 0.03208394 -0.03912405 0.004760194 -0.012147411 -0.008275622 0.03334129
-0.0026408941 0.056072846 0.0023531069 0.00017684583 -0.018581437 0.015093604 -0.018401667 0.01776717
0.047948625 0.00843672 0.00533089 0.022724388 -0.042617206 -0.066263236 0.0077693877 0.030844858
-0.01588995 0.106366694 -0.041552912 0.0029893816 -0.04179877 -0.008924775 0.0112661375 -0.0055303006
0.025728654 -0.038670503 -0.009574923 -0.04690667 0.0003374088 0.07575564 0.04564237 -0.050025515
0.0017007439 0.0047715474 -0.0009555917 -0.061597504 -0.03913406 -0.021948082 0.047964152 -0.004670903
0.028909601 0.009650669 -0.035631444 0.01667548 -0.033445273 0.041151278 0.067575015 0.0066844644
0.035156693 0.014918564 0.005779347 -0.04066903 0.05451024 -0.019744162 0.04735208 -0.044408012
-0.019357227 0.024266243 0.05134025 0.02029709 -0.0022985684 -0.03397454 -0.02972613 0.042307343
-0.0018820703 -0.011111747 0.044760406 0.026264478 -0.018563336 0.015440024 -0.01469094 -0.042082857
0.007790598 0.047536034 -0.020150455 0.0012864458 0.004916109 0.021944968 0.03204505 0.023651676
-0.0124653075 0.032342486 0.03729391 0.042443227 0.01936093 -0.0036132715 0.015799532 -0.021896241
-0.04777978 0.018754156 0.04030898 -0.0223646 0.018351095 0.05415881 -0.055451572 0.0035741446
0.0016071214 0.008394715 -0.018860865 -0.016993942 0.048127092 -0.020633452 0.03763245 -0.028709866
-0.039379813 0.030400882 -0.016804269 0.04262182 -0.013268895 -0.023495978 4.9863705e-05 0.01446818
00000000: 7b6c a8bc 6ad5 723d eef9 e6bc 1408 863d
00000010: 44dc 89bd 9af6 713c 2f73 0f3d 6b06 1e3c
00000020: 2549 84bc 5693 a7bd 00fc 623a 0972 beba
00000030: 0df6 4d3b 665d b23c 0eaf c9bc 7d29 ea3b
00000040: 8695 343d 89fa f83c 3d63 0abd 7dc1 f0b9
00000050: f8cb a8bc ce59 70bc cd79 253d 2fb9 7fbc
00000060: c94c adbc 8d5d 12bb 2630 0c3c 4e4d 903c
00000070: 026b f53b 4781 9fbb a4a0 db3d 68f4 243d
00000080: 7726 53bc 3367 2c3d 02cf 023d c700 7fbc
00000090: 7dac d4ba 422e b2bc af99 6a3c 3977 99bc
000000a0: df2e c3bc 995c 3a3c 1261 cebc af95 e4bc
000000b0: c23a 42bc 25aa 0ebb 6d5c dabb 454b 813d
000000c0: 5fba 84bc dfd5 88bd db9f 8e3c 4780 54bd
000000d0: 4d08 d039 4e89 653d 3ea9 1b3d fc94 a339
000000e0: f682 ac3c 6976 22bb 7051 1abd 43a0 cd3a
000000f0: 28bc 313d 3948 52bc 33ad 273c 9b74 a8bb
00000100: ba61 623b 03b5 7c39 c53f 043c e4d7 293d
00000110: 93c7 26bc 4bdc 363d 9d18 92bc da73 723b
00000120: 7692 453d f589 713d ca8a 9dbc 9604 72bc
00000130: c885 5f3b f549 dbbc fb44 d4bc 7b07 d7bb
00000140: 6d3f 54bd 9cfa 0c3d c591 193d cf86 e43c
00000150: ac45 d2bc b7b5 7b3c 2100 c3bc 926d 76bc
00000160: 6dd4 043d 8166 1ebd 408f bf3a 9435 14bd
00000170: 0ee4 7fbc c558 3abb dc5c 0e3c 72a1 28bc
00000180: bf0d e8bb 6c20 1dbc 0f24 1b3d a297 0dbc
00000190: e611 30bd 8ec7 e3bc cd13 99bc 3d9a 083d
000001a0: 6043 80bd 416b 433d 4287 30bc 13c7 0f3c
000001b0: 6a23 16bc 16fd 70bc 85bf 0d3d 5975 aeba
000001c0: 3a99 14bd ab45 363d 03f5 e9bc 5193 33bd
000001d0: e67b 7cbd db1c 1ebd b629 133d 6f46 9dba
000001e0: 80d7 d3bc db87 63bc 5f62 afbc aa06 3d3c
000001f0: 712e 713d 34b0 ab3d ac8f 023d 153c ad3d
00000200: 5e79 0d3d 9372 a83c 4137 663c 8075 083d
00000210: dd7d 12bd 126c c73c f2cb 67bc 614a d63c
00000220: 20e6 843c eb37 a83c 736a 033d 8a40 20bd
00000230: 67fb 9b3b ef05 47bc 7996 07bc e090 083d
00000240: da12 2dbb a4ac 653d 9536 1a3b b16f 3939
00000250: 1938 98bc 2a4b 773c 18bf 96bc 758c 913c
00000260: c765 443d 2b3a 0a3c bfae ae3b 7f28 ba3c
00000270: 618f 2ebd 05b5 87bd 5996 fe3b 5bae fc3c
00000280: a42b 82bc c8d6 d93d 6333 2abd 80e9 433b
00000290: 3035 2bbd 3839 12bc 9b95 383c 8637 b5bb
000002a0: e6c4 d23c f664 1ebd 23e0 1cbc 3521 40bd
000002b0: 3ee6 b039 c625 9b3d 7ef3 3a3d 8ee7 4cbd
000002c0: 7feb de3a a45a 9c3b ac80 7aba aa4d 7cbd
000002d0: 094b 20bd 77cc b3bc 0f76 443d 600e 99bb
000002e0: d4d3 ec3c d71d 1e3c 47f2 11bd 049b 883c
000002f0: e9fd 08bd 3e8e 283d c564 8a3d 5a09 db3b
00000300: 7700 103d fe6c 743c ad60 bd3b 9294 26bd
00000310: 2146 5f3d 82be a1bc 41f4 413d 2de5 35bd
00000320: 0c93 9ebc 00ca c63c 274a 523d 1546 a63c
00000330: 94a3 16bb e328 0bbd 3784 f3bc 774a 2d3d
00000340: cdaf f6ba 0b0e 36bc b056 373d 9a28 d73c
00000350: 2312 98bc 28f8 7c3c 45b2 70bc 135f 2cbd
00000360: 4648 ff3b 25b5 423d 9112 a5bc f59d a83a
00000370: 5017 a13b efc5 b33c ac41 033d 29c1 c13c
00000380: 4a3b 4cbc 8e79 043d 80c1 183d f3d8 2d3d
00000390: d09a 9e3c a3cc 6cbb 056e 813c bf5f b3bc
000003a0: bbb4 43bd 51a2 993c 071b 253d f735 b7bc
000003b0: 0955 963c a1d5 5d3d 3021 63bd 323c 6a3b
000003c0: 0ca6 d23a fd89 093c 1a82 9abc e136 8bbc
000003d0: ea20 453d 7c07 a9bc 7c24 1a3d f430 ebbc
000003e0: ba4c 21bd 450b f93c 1ba9 89bc 3894 2e3d
000003f0: c865 59bc a37a c0bc bf24 5138 f20b 6d3c

action_model._discrete_distribution.branches.0.weight f4 [1, 128]
-0.0017488331 0.0033145759 -0.010161035 -0.010262588 0.022489946 0.016719557 0.008278936 0.007263279
0.009482949 0.0008828607 -0.009564868 0.015865901 -0.0035949522 -0.006786202 0.004573632 0.02113131
0.00087671535 0.00952424 -0.00042845643 -0.004684893 -0.001065677 0.0073662377 -0.004078046 0.004659294
-0.0051422208 -0.0052550007 0.012039429 0.0059186774 -0.0065458897 -0.0050857486 0.007634498 0.0047932635
-0.0053488812 -0.005931395 0.014246273 0.0001810121 0.001901999 -0.007915859 -0.0047547943 0.020221977
0.006931094 0.00072053715 -0.007948339 0.0066957534 0.010683991 -0.0011577158 0.0033464804 -0.0068998295
0.0030263963 0.006089431 -0.0024145397 -0.0079961885 0.0020022672 0.006447531 0.0006146503 -0.010906865
-0.0015346163 -0.0083892485 0.005676438 -0.001663944 -0.00882171 0.001112477 0.0039129704 -0.0053684595
-0.0023507976 0.011520055 -0.0089119915 -0.011606646 -0.011969759 0.0011426121 -0.0063230707 0.010693856
0.00834532 0.016336447 -0.0076467604 -0.009884016 0.0069387862 0.00048056743 -0.0069853985 -0.0064575532
-0.008815459 0.0026572596 -0.010430114 -0.0016891472 0.004702128 -0.006964995 -0.015031323 0.011291133
0.011726557 -0.0022306421 -0.00862587 0.009415987 -0.004976657 -0.005165818 -0.019349793 -0.0023304347
-0.0046872855 0.011578599 0.00623892 -0.0038219213 -0.012125492 0.0030305234 0.00061526353 -0.000293531
-0.014259349 -0.006747428 -0.013842161 0.0043672468 0.016308006 -0.00026637933 -0.006171487 -0.00065325515
0.007189717 -0.008937978 0.020372126 0.003684134 -0.011059943 0.004928728 -0.010670311 -0.009219812
0.0219909 -0.003523303 -0.003465008 0.007935793 -0.0002990481 0.0012638719 0.014895553 -0.00459958
00000000: 1a39 e5ba 5b39 593b 787a 26bc 6a24 28bc
00000010: d63c b83c 74f7 883c 60a4 073c cd00 ee3b
00000020: 5f5e 1b3c c76f 673a f7b5 1cbc 35f9 813c
00000030: 4a99 6bbb ca5e debb 68de 953b 921b ad3c
00000040: 5fd3 653a 8f0b 1c3c 73a2 e0b9 bb83 99bb
00000050: 30ae 8bba 7b60 f13b 21a1 85bb feac 983b
00000060: 1380 a8bb 2432 acbb 0641 453c 77f1 c13b
00000070: e77e d6bb 5aa6 a6bb d02a fa3b cf10 9d3b
00000080: ab45 afbb 265c c2bb 3369 693c 11ce 3d39
00000090: 7f4c f93a 85b1 01bc 1bce 9bbb 8fa8 a53c
000000a0: 3b1e e33b 6ee2 3c3a c039 02bc 0d68 db3b
000000b0: e80b 2f3c 7fbe 97ba a050 5b3b f717 e2bb
000000c0: 8156 463b d989 c73b 413d 1ebb 7202 03bc
000000d0: 7838 033b cf45 d33b 7c20 213a b5b2 32bc
000000e0: 2e25 c9ba 0f73 09bc 6a01 ba3b b218 daba
000000f0: ef88 10bc 89d0 913a 6038 803b e7e9 afbb
00000100: d70f 1abb 9dbe 3c3c 9a03 12bc cd29 3ebc
00000110: cf1c 44bc b3c3 953a c331 cfbb 4835 2f3c
00000120: cfba 083c 03d4 853c ad91 fabb 91f0 21bc
00000130: c25e e33b abf4 fb39 c5e5 e4bb e299 d3bb
00000140: b76e 10bc 6b25 2e3b 12e3 2abc 6066 ddba
00000150: 4f14 9a3b 9d3a e4bb f045 76bc 72fe 383c
00000160: bf20 403c f72f 12bb 8553 0dbc 8345 1a3c
00000170: 3a13 a3bb 0646 a9bb 7583 9ebc 35ba 18bb
00000180: cd97 99bb 2ab4 3d3c db6f cc3b 3379 7abb
00000190: 00aa 46bc bf9b 463b a349 213a 10e5 99b9
000001a0: 0ba0 69bc 8719 ddbb 3bca 62bc 1f1b 8f3b
000001b0: 5e98 853c d4a8 8bb9 2f3a cabb 363f 2bba
000001c0: b897 eb3b 9970 12bc 72e3 a63c 8371 713b
000001d0: c334 35bc 2b81 a13b 87d2 2ebc b20e 17bc
000001e0: 4326 b43c 37e7 66bb 3015 63bb 2105 023c
000001f0: 8ec9 9cb9 81a8 a53a 7a0c 743c 13b8 96bb

network_body._body_endoder.seq_layers.0.bias f4 [128]
-0.0649857 -0.007987828 -0.017141776 -0.013815967 -0.010557734 -0.0039586113 0.018171603 0.00022071158
-0.04983042 -0.019075746 -0.060249258 0.008899658 -0.0059811124 0.025404388 0.045512773 0.0121536385
-0.031595215 -0.015749354 0.00676392 0.005163489 -0.03888912 -0.0006733901 0.04757235 -0.009305571
0.032770846 -0.06650629 -0.0149058 -0.013103693 0.015513064 -0.035708785 -0.02587808 -0.026578994
-0.010447865 -0.0098276185 -0.0054279 -0.011126599 0.022373032 0.021463199 -0.03899075 -0.016709464
-0.04180285 0.013603838 -0.008213971 0.042250518 -0.005565051 -0.017940635 0.020301932 -0.02615915
-0.010887544 -0.038615502 0.034510773 -0.005282581 0.047639288 0.06350987 -0.006532361 -0.03871719
0.0033285394 -0.0011848614 -0.04137531 0.013456479 -0.037864503 0.026316049 0.039899763 -0.016174793
-0.026819687 -0.053491168 -0.021811234 0.022339212 -0.016909406 0.018552998 -0.0084656915 -0.0231008
-0.004636166 0.03614201 0.00026457454 0.015675638 -0.042533726 -0.047949366 -0.008488886 -0.025435142
0.011261403 -0.02280345 0.03547533 -0.003356486 -0.0033988513 -0.0013892513 -0.056129605 8.534912e-05
-0.012971579 0.03365317 -0.054414485 -0.022818344 -0.024779834 -0.030693352 -0.0015076859 -0.021237107
-0.028352747 -0.055572778 0.000615478 -0.0011169635 -0.019861368 0.008437865 -0.0011879792 -0.009131592
0.021156505 -0.026650308 0.014667873 0.029113056 0.016137302 -0.02592854 -0.031141978 -0.03397747
-0.032913826 -0.041323148 0.014211287 -0.033965703 -0.019481093 0.029674688 -0.021798545 0.0072216406
0.015626008 -0.028849542 -0.04304463 -0.031175008 -0.013952472 0.028075645 -0.013909383 0.033701863
00000000: 3917 85bd 61df 02bc e96c 8cbc 5e5c 62bc
00000010: 59fa 2cbc 3db7 81bb 9ddc 943c d06e 6739
00000020: fc1a 4cbd bd44 9cbc edc7 76bd dfcf 113c
00000030: 35fd c3bb dd1c d03c 9a6b 3a3d 0e20 473c
00000040: fc69 01bd ca04 81bc e0a3 dd3b 7c32 a93b
00000050: 334a 1fbd 7286 30ba 39db 423d 6576 18bc
00000060: b93a 063d 7334 88bd 7537 74bc dfb0 56bc
00000070: 822a 7e3c 6043 12bd 44fe d3bc 31bc d9bc
00000080: 862d 2bbc 0504 21bc 86dc b1bb 574c 36bc
00000090: a647 b73c 97d3 af3c c4b4 1fbd 49e2 88bc
000000a0: 7739 2bbd a2e2 5e3c e493 06bc e10e 2d3d
000000b0: 085b b6bb 3df8 92bc 3d50 a63c b74b d6bc
000000c0: ab61 32bc 4a2b 1ebd 2b5b 0d3d 8019 adbb
000000d0: 6a21 433d 7611 823d 6a0d d6bb eb95 1ebd
000000e0: a023 5a3b 5a4d 9bba 2879 29bd 9078 5c3c
000000f0: cf17 1bbd c194 d73c ef6d 233d 0081 84bc
00000100: f6b4 dbbc 8e19 5bbd 79ad b2bc b900 b73c
00000110: 9885 8abc 75fc 973c afb3 0abc e43d bdbc
00000120: fbea 97bb a509 143d 98b6 8a39 326a 803c
00000130: d837 2ebd 8e66 44bd f814 0bbc 5c5d d0bc
00000140: bf81 383c 4dce babc 944e 113d 7ef8 5bbb
00000150: 43bf 5ebb 8a17 b6ba 28e8 65bd 76fd b238
00000160: bf86 54bc e8d7 093d b9e1 5ebd 89ed babc
00000170: 14ff cabc a070 fbbc 8b9d c5ba 71f9 adbc
00000180: 0544 e8bc 48a0 63bd 0858 213a 1367 92ba
00000190: 4fb4 a2bc f93e 0a3c f8b5 9bba ac9c 15bc
000001a0: 6850 ad3c bf51 dabc 8551 703c 817e ee3c
000001b0: 6032 843c 1768 d4bc 761d ffbc f62b 0bbd
000001c0: a6d0 06bd 7642 29bd 75d6 683c 9f1f 0bbd
000001d0: d096 9fbc 5518 f33c dd92 b2bc 83a3 ec3b
000001e0: 1d02 803c e055 ecbc 914f 30bd bb62 ffbc
000001f0: e998 64bc e5fe e53c 2ee4 63bc f70a 0a3d

network_body._body_endoder.seq_layers.0.weight f4 [128, 8]
-0.17390805 -0.034715652 0.4878172 -0.7773202 -0.503029 -0.19465062 -0.36654434 0.26368332
0.015919618 -0.094025984 -0.022631453 -0.048331436 -0.10138175 0.0784958 -0.1323771 -0.11469142
0.16242318 -0.17811456 0.9169547 0.65194744 0.14601822 0.47940558 0.3784217 -0.4146236
0.32431352 0.03239537 -0.012463908 -0.20902963 -0.11819496 -0.175081 0.32712924 0.17528301
0.26354355 -0.13125755 -0.4190607 0.36492926 -0.31180164 0.68867946 0.1484419 -0.5527482
-0.027245784 -0.08383047 0.21975303 -0.14146315 -0.02534419 -0.5520556 -0.000739758 -0.20527682
0.2504041 0.11811649 0.15474086 0.03171463 -0.26142335 0.07906005 -0.3305423 -0.20640887
0.35390243 -0.12321222 0.4026832 -0.6296303 -0.024721725 0.27011064 0.004184615 0.54709685
0.71741676 0.33314002 0.22227496 0.2015361 -0.11481477 -0.23417455 0.0034859201 -0.1083972
-0.20531341 -0.41871592 -0.059505392 -0.04950501 0.2856338 0.15461469 -0.29527372 -0.10188048
-0.39727795 0.71119124 0.12872782 -0.053745054 0.24307145 0.62898886 -0.7021152 -0.08057833
-0.24566123 0.23894154 -0.009203875 -0.9244444 -0.2908506 0.6308661 -0.09282139 0.017855579
0.035255563 0.23191817 -0.35941488 0.025298094 -0.11446252 -0.7230255 0.12472021 0.19861448
-0.35888317 -0.4919373 -0.31820598 0.2163586 0.34506422 0.48182085 -0.02260873 0.20703915
0.29014632 0.6973839 -0.31760177 -0.5482869 -0.15206856 0.17303702 -0.07385968 0.0020276303
0.34870064 0.24499883 0.81199956 0.144396 0.31360248 0.13437091 -0.80691516 -0.22124302
0.34766516 -0.34407178 0.13445263 0.044639267 0.3774085 -0.23204444 -0.19874859 0.42009407
0.45530578 0.075979225 0.23531803 0.029982492 -0.17401057 -0.1972413 0.52489585 0.2738294
-0.50410146 0.7237838 -0.22887976 0.19619304 0.7374073 -0.03757811 0.90558165 -0.6747259
-0.48922887 0.3781007 -0.089967094 0.2544363 0.06475668 -0.21645379 0.4276701 0.4427826
-0.30968463 0.08000001 -0.4087322 -0.38827223 0.17225912 0.28877532 -0.1692617 -0.03439465
-0.030366112 -0.035665754 0.49905297 0.2644173 0.18508227 -0.3695034 0.005462334 0.7118758
0.22353007 -0.3616028 -0.3708215 -0.25931418 0.7605907 0.049968585 -0.29015255 0.6298403
-0.035302315 0.0581343 -0.034707464 0.14232951 -0.50915104 -0.28879657 0.08626914 -0.071810074
0.3587126 0.36187363 -1.0773968 -0.108640246 0.8073217 0.30091488 -0.74192727 0.5170966
-0.2768156 0.76941514 0.12102759 0.29301596 0.31208724 -0.13871817 0.30043614 0.2934201
-0.17177863 0.070442095 0.10349639 -0.043072127 -0.082918875 -0.084827416 0.30280834 0.20080924
0.20915243 -0.40357292 -0.2873977 -0.089968495 0.119050466 0.10641369 -0.5910979 -0.47684005
0.42294544 0.4417648 -0.21614733 -0.29707655 -0.14506866 -0.036150824 0.4488122 -0.29248068
-1.2636757 0.19117148 0.3663096 0.23062187 0.4050533 0.12779659 -0.23840779 0.08367698
-0.34017885 0.70111114 0.23123404 -0.59425306 0.2720517 0.5239058 0.088982865 -0.011019956
-0.27024183 -0.6689395 0.4552395 -0.031110728 -0.16963404 0.12526947 0.18364258 -0.19798909
00000000: f414 32be 0032 0ebd 2dc3 f93e 75fe 46bf
00000010: 82c6 00bf 7e52 47be b3ab bbbe 8001 873e
00000020: dc69 823c b290 c0bd 9965 b9bc 2ff7 45bd
00000030: 3ca1 cfbd 68c2 a03d dd8d 07be 56e3 eabd
00000040: 4352 263e aa63 36be 8bbd 6a3f 07e6 263f
00000050: cd85 153e a674 f53e 7dc0 c13e 8b49 d4be
00000060: 6c0c a63e 02b1 043d 6b35 4cbc dd0b 56be
00000070: 3310 f2bd 6f48 33be 7c7d a73e 647d 333e
00000080: 2eef 863e 6168 06be 208f d6be 02d8 ba3e
00000090: 77a4 9fbe 4c4d 303f 2701 183e e880 0dbf
000000a0: 8d32 dfbc 4faf abbd f006 613e b7db 10be
000000b0: 9e9e cfbc 8453 0dbf 52ec 41ba 1634 52be
000000c0: f734 803e 0fe7 f13d 6374 1e3e 33e7 013d
000000d0: 48d9 85be 3cea a13d d73c a9be d95c 53be
000000e0: b332 b53e b056 fcbd 7e2c ce3e 742f 21bf
000000f0: 3785 cabc f14b 8a3e 181f 893b 8a0e 0c3f
00000100: a0a8 373f 5491 aa3e 0c9c 633e 7b5f 4e3e
00000110: 0224 ebbd 74cb 6fbe 0974 643b 5aff ddbd
00000120: ae3d 52be ef61 d6be edbb 73bd c4c5 4abd
00000130: 983e 923e 5053 1e3e 1e2e 97be b7a6 d0bd
00000140: 0468 cbbe a110 363f 3ad1 033e c623 5cbd
00000150: b9e7 783e 6a05 213f d2bd 33bf 4006 a5bd
00000160: 9e8e 7bbe 17ad 743e dacb 16bc 63a8 6cbf
00000170: 5fea 94be 7180 213f 2419 bebd dd45 923c
00000180: 2368 103d f57b 6d3e 3a05 b8be f33d cf3c
00000190: 536b eabd 3318 39bf 4f6d ff3d 9861 4b3e
000001a0: 89bf b7be 35df fbbe e5eb a2be 1c8d 5d3e
000001b0: 42ac b03e 39b1 f63e f135 b9bc 1202 543e
000001c0: 0f8e 943e c087 323f b39c a2be 885c 0cbf
000001d0: dcb7 1bbe 9e30 313e be43 97bd fee1 043b
000001e0: e488 b23e f9e0 7a3e 34df 4f3f 8cdc 133e
000001f0: 8190 a03e 8798 093e fe91 4ebf 888d 62be
00000200: 2b01 b23e 2d2a b0be f3ad 093e aad7 363d
00000210: b03b c13e 0f9d 6dbe c084 4bbe 9216 d73e
00000220: d71d e93e ff9a 9b3d 36f7 703e d89d f53c
00000230: d42f 32be a0f9 49be 935f 063f 5e33 8c3e
00000240: cb0c 01bf e549 393f 755f 6abe d4e6 483e
00000250: bac6 3c3f 81eb 19bd 33d4 673f d6ba 2cbf
00000260: 357c fabe 6a96 c13e ab40 b8bd 7a45 823e
00000270: 269f 843d 10a6 5dbe 93f7 da3e 67b4 e23e
00000280: fc8e 9ebe 0cd7 a33d 5945 d1be 9ecb c6be
00000290: b264 303e 5cda 933e f052 2dbe 68e1 0cbd
000002a0: 5ac2 f8bc 4116 12bd df83 ff3e b461 873e
000002b0: 3586 3d3e 8d2f bdbe 61fd b23b 7e3d 363f
000002c0: 11e5 643e 0124 b9be 51dc bdbe d4c4 84be
000002d0: 12b6 423f dcab 4c3d e08e 94be 373d 213f
000002e0: 2999 10bd 3b1e 6e3d 6a29 0ebd d4be 113e
000002f0: b957 02bf 25dd 93be e0ad b03d 2911 93bd
00000300: 2ea9 b73e 8047 b93e 23e8 89bf c77e debd
00000310: a3ac 4e3f 8411 9a3e f2ee 3dbf 7160 043f
00000320: c6ba 8dbe 64f8 443f 50dd f73d 3006 963e
00000330: e6c9 9f3e 230c 0ebe c4d2 993e 293b 963e
00000340: bde6 2fbe f243 903d eaf5 d33d 666c 30bd
00000350: 5fd1 a9bd ffb9 adbd b209 9b3e f0a0 4d3e
00000360: 0e2c 563e 1ca1 cebe cb25 93be 6741 b8bd
00000370: bbd0 f33d 6cef d93d 3152 17bf 6124 f4be
00000380: 4e8c d83e ff2e e23e ba55 5dbe 6b1a 98be
00000390: e18c 14be e312 14bd b6ca e53e 07c0 95be
000003a0: 20c0 a1bf 75c2 433e ef8c bb3e 2428 6c3e
000003b0: 2563 cf3e 1cdd 023e 2c21 74be d65e ab3d
000003c0: ec2b aebe 057c 333f 9ec8 6c3e f820 18bf
000003d0: 5c4a 8b3e b11e 063f a63c b63d 0c8d 34bc
000003e0: 235d 8abe 9e3f 2bbf 2715 e93e eddb febc
000003f0: 8cb4 2dbe a446 003e cd0c 3c3e a7bd 4abe

network_body._body_endoder.seq_layers.2.bias f4 [128]
-0.005756489 0.03354833 -0.03163526 0.014457002 0.0113809975 -0.0019707468 -0.0039981804 -0.0095793
-0.017297566 0.02288557 -0.008102227 -0.018561846 -0.025884502 -0.00031636423 -0.024926547 0.0025477011
0.029410029 0.015740827 -0.038892422 -0.0524987 -0.009524569 -0.032847278 0.0086214505 -0.014535695
-0.006663664 -0.034832057 -0.033770636 -0.023092968 -0.0065862024 0.022833927 0.039173175 0.00015131166
-0.024884172 0.048991445 0.031845506 -0.017390162 -0.007868471 -0.00338678 -0.017418053 -0.015337946
0.021318093 0.019148001 -0.025884062 0.01260079 -0.053896897 0.03160941 0.00039559798 0.066439554
-0.018952345 0.041908074 -0.018374162 0.028365744 0.0046907966 0.03210787 0.03090545 -0.0049440064
0.024418542 -0.026156427 0.0074851527 -0.013699539 0.005874872 0.010786141 0.015027918 -0.051425084
-0.010386857 -0.007476605 -0.006465836 0.021194994 0.008345062 0.025273044 -0.013975295 0.023326732
0.0011847349 0.025424747 0.012679385 -0.013613358 -0.04018322 -0.007906911 -0.007611152 4.0105864e-05
-0.012047415 0.0077018314 0.017837245 0.025335269 0.0039246595 -0.026857527 0.0035782787 -0.012812018
0.0036561592 0.02515009 -0.03473646 -0.00859148 -0.039066665 -0.029263096 0.029082334 0.0033867178
-0.037677098 0.000507128 0.03250524 0.0018167365 0.015617479 -0.00942822 -0.021408807 0.0037071733
-0.017248755 0.016397022 -0.0024752966 -0.009833466 -0.015905349 0.022467563 0.010715896 -0.04528527
-0.0054995897 0.008352581 0.0105896285 0.009696664 0.027904091 -0.004913016 -0.00027414394 -0.011004603
0.011448458 -0.018812336 -0.020328466 0.0017969557 0.0020523453 0.01621916 0.004052756 0.043362442
00000000: eea0 bcbb f969 093d f993 01bd 10dd 6c3c
00000010: 5d77 3a3c a527 01bb 2b03 83bb 7ff2 1cbc
00000020: a0b3 8dbc 857a bb3c 34bf 04bc 030f 98bc
00000030: bc0b d4bc b0dd a5b9 c232 ccbc 55f7 263b
00000040: 4ded f03c e8f2 803c a94d 1fbd e008 57bd
00000050: f00c 1cbc de8a 06bd fc40 0d3c 2027 6ebc
00000060: dd5a dabb 0fac 0ebd 1453 0abd 772d bdbc
00000070: 12d1 d7bb 370e bb3c 0d74 203d 6aa9 1e39
00000080: e4d9 cbbc 41ab 483d 6f70 023d d075 8ebc
00000090: c2ea 00bc bdf4 5dbb 4eb0 8ebc 024c 7bbc
000000a0: 48a3 ae3c 45dc 9c3c d00a d4bc 8b73 4e3c
000000b0: fec2 5cbd de78 013d 4368 cf39 7611 883d
000000c0: f341 9bbc cda7 2b3d 6985 96bc 475f e83c
000000d0: 41b5 993b 8b83 033d 6d2d fd3c 5501 a2bb
000000e0: 6509 c83c 0146 d6bc 0346 f53b 0874 60bc
000000f0: 0082 c03b 5bb8 303c a837 763c 1ca3 52bd
00000100: a32d 2abc 4ffe f4bb 5ddf d3bb 20a1 ad3c
00000110: bab9 083c 6a09 cf3c a3f8 64bc b417 bf3c
00000120: 1b49 9b3a 8f47 d03c 32bd 4f3c 900a 5fbc
00000130: 2997 24bd fd8b 01bc f866 f9bb 5837 2838
00000140: 8562 45bc a55f fc3b 6a1f 923c e98b cf3c
00000150: 6e9a 803b 5104 dcbc 8e81 6a3b 80e9 51bc
00000160: 2c9c 6f3b 9007 ce3c d147 0ebd 47c3 0cbc
00000170: 5e04 20bd 29b9 efbc 133e ee3c b2f3 5d3b
00000180: 4d53 1abd c9f0 043a 3724 053d 901f ee3a
00000190: 74e0 7f3c d278 1abc 8661 afbc 0cf4 723b
000001a0: 434d 8dbc 0c53 863c 9638 22bb 8c1c 21bc
000001b0: ef4b 82bc e50d b83c ba91 2f3c 0c7d 39bd
000001c0: e735 b4bb 44d9 083c 1f80 2d3c c2de 1e3c
000001d0: 1f97 e43c 5efd a0bb faba 8fb9 a64c 34bc
000001e0: 5092 3b3c 541c 9abc e287 a6bc d487 eb3a
000001f0: a480 063b 0bde 843c fbcc 843b d19c 313d

network_body._body_endoder.seq_layers.2.weight f4 [128, 128]
-0.0044270377 0.016643444 0.1384214 0.033893336 -0.039570794 -0.032192282 -0.011758859 -0.024204666
0.01247814 -0.06610252 0.065728344 -0.0051605757 0.08775176 0.1491373 0.029274119 0.042488974
0.16314818 -0.087304816 -0.032685272 -0.008803659 -0.06872806 0.05761991 -0.087936305 -0.00069962733
-0.09138498 -0.033218227 -0.048292093 -0.037877277 -0.06756117 -0.050506655 -0.16011472 0.116317585
0.15259093 -0.06782738 0.16747384 0.034135606 0.07817339 0.07376226 0.017645296 0.025007103
-0.09481603 -0.08892398 0.028500048 -0.08452345 0.0014581804 -0.07962887 0.0013223046 -0.04897857
0.10629439 0.089971796 -0.12048791 -0.060719818 -0.024312891 0.038015842 0.026282309 0.04217699
-0.12441662 0.09476718 0.0020198654 0.041731875 -0.060015313 -0.055820826 0.06492798 0.10748433
-0.04704428 -0.021510778 -0.13157117 0.1248523 -0.044325314 -0.011714057 -0.03743277 -0.050082486
-0.10656322 -0.15784296 -0.07987145 0.065415636 -0.011084502 -0.024144836 0.075950705 0.042944513
0.020033333 -0.030947616 -0.07793647 0.104430504 0.05119177 -0.11080286 0.15864238 0.108346276
0.17694314 0.029484142 0.07356521 -0.0018238702 -0.10436892 -0.16655432 0.06282552 -0.12430598
-0.1420231 -0.030167041 0.18410137 -0.096603215 0.090017825 -0.11215164 -0.15137938 0.06125694
-0.07986 -0.030886877 0.028369356 0.09503834 0.12714384 0.06612554 0.0895489 0.155166
-0.07942256 0.1828168 0.0027192596 0.014246473 0.0042643184 0.090089396 -0.027592242 -0.11805505
0.0059610098 -0.049954295 -0.1459525 -0.10155176 0.005545774 0.10770744 0.0037771345 -0.032436207
0.14856404 -0.097854376 -0.09751346 0.047265068 -0.078724235 -0.080707565 0.051924035 0.088781774
-0.0025706424 0.040831305 0.11751155 -0.12234706 0.045952234 -0.1295455 -0.15520507 0.087160446
0.2154634 0.08503246 -0.0028700766 -0.047294922 -0.051479787 0.017323073 0.023886915 -0.0014727501
-0.04884853 -0.079701014 -0.005343218 0.032111216 0.18354176 -0.14885691 -0.08170527 0.071957946
0.11930666 0.05825428 0.0052409125 0.017293632 -0.045495566 -0.006400997 -0.17661327 0.18563905
0.004117643 0.0595795 -0.08810058 0.033789143 0.02298906 -0.06293469 -0.105070435 -0.074484654
0.024862863 -0.09528588 0.17565429 -0.06746194 0.09338214 -0.030891556 -0.21986492 -0.10256401
-0.12502716 -0.05694648 0.02996193 -0.029926397 0.0070402278 8.5704436e-05 -0.0781291 -0.10168042
-0.11836114 0.01599149 -0.14984134 0.00045091048 0.059937447 0.04180079 0.020506592 -0.03891932
-0.01759146 -0.048852075 -0.010871612 -0.052057594 -0.038368445 -0.09718107 0.010209957 -0.12060446
-0.052711282 0.048247524 0.08930338 0.102273084 -0.09228306 -0.18197505 -0.008328972 0.09963434
-0.004128379 0.030321049 -0.087410115 0.13014685 -0.00081751135 -0.05609228 0.12942584 -0.064607255
-0.06892612 -0.023828533 -0.08284108 -0.11789188 -0.0069745914 -0.0021107504 0.08322757 -0.035386663
0.07721264 0.09545785 -0.1508152 0.059190705 -0.049174618 0.12528904 -0.0068454286 -0.0019915947
-0.14094184 -0.021243406 0.035859767 -0.060102504 -0.024835907 -0.11010856 -0.12732893 0.120064884
-0.08320218 -0.19998306 0.0068486463 0.045502093 0.046865653 0.18824112 0.015145353 -0.12712428
00000000: af10 91bb d557 883c 57be 0d3e bdd3 0a3d
00000010: fc14 22bd 0edc 03bd 3ba8 40bc dd48 c6bc
00000020: 1d71 4c3c c260 87bd 959c 863d 0c1a a9bb
00000030: 32b7 b33d 73b7 183e 47d0 ef3c eb08 2e3d
00000040: 5110 273e decc b2bd fee0 05bd 393d 10bc
00000050: 4cc1 8cbd db02 6c3d f317 b4bd 3267 37ba
00000060: 0c28 bbbd d60f 08bd eecd 45bd 3425 1bbd
00000070: 835d 8abd 11e0 4ebd 1df5 23be ea37 ee3d
00000080: cc40 1c3e 15e9 8abd 437e 2b3e c7d1 0b3d
00000090: 5f19 a03d ab10 973d de8c 903c b2db cc3c
000000a0: e82e c2bd c71d b6bd ef78 e93c a11a adbd
000000b0: 6a20 bf3a 7614 a3bd 2e51 ad3a c19d 48bd
000000c0: e0b0 d93d 2243 b83d 5ec2 f6bd 58b5 78bd
000000d0: d42b c7bc 80b6 1b3d ff4d d73c c8c1 2c3d
000000e0: 24ce febd 4c15 c23d b85f 043b 0bef 2a3d
000000f0: 9ed2 75bd 61a4 64bd f6f8 843d bf20 dc3d
00000100: 81b1 40bd 5f37 b0bc 98ba 06be 90b2 ff3d
00000110: 768e 35bd 51ec 3fbc 1b53 19bd 4b23 4dbd
00000120: d13d dabd 96a1 21be a593 a3bd a2f8 853d
00000130: c59b 35bc 64cb c5bc 0b8c 9b3d 96e6 2f3d
00000140: f21c a43c db85 fdbc 289d 9fbd a9df d53d
00000150: 76ae 513d 9cec e2bd 2673 223e a7e4 dd3d
00000160: 9530 353e ba88 f13c 5ba9 963d ee0e efba
00000170: 5fbf d5bd 378d 2abe abaa 803d 2294 febd
00000180: 816e 11be df20 f7bc 1285 3c3e e8d7 c5bd
00000190: 445b b83d c2af e5bd 3203 1bbe 8fe8 7a3d
000001a0: a48d a3bd 7a06 fdbc da66 e83c 76a3 c23d
000001b0: ff31 023e d46c 873d 6a65 b73d d6e3 1e3e
000001c0: 4ca8 a2bd 5434 3b3e 9b35 323b 0a6a 693c
000001d0: b2bb 8b3b ca80 b83d 2009 e2bc d9c6 f1bd
000001e0: 9354 c33b e09c 4cbd 9274 15be 5ffa cfbd
000001f0: 53b9 b53b b895 dc3d cd89 773b d4db 04bd
00000200: 2c21 183e e067 c8bd 23b5 c7bd 0499 413d
00000210: 2c3a a1bd 024a a5bd 4cae 543d 38d3 b53d
00000220: 3978 28bb ba3e 273d e5a9 f03d 1891 fabd
00000230: 6938 3c3d 93a7 04be 14ee 1ebe 2d81 b23d
00000240: 70a2 5c3e 8025 ae3d e517 3cbb 52b8 41bd
00000250: 78dc 52bd 1ee9 8d3c 7eae c33c 4b09 c1ba
00000260: 6515 48bd 493a a3bd 2916 afbb 0d87 033d
00000270: 5ff2 3b3e f26d 18be 1855 a7bd b05e 933d
00000280: 0d57 f43d 0a9c 6e3d f6bb ab3b 60ab 8d3c
00000290: 8f59 3abd 74bf d1bb 1cda 34be 2a18 3e3e
000002a0: 4bed 863b a209 743d 146e b4bd 7c66 0a3d
000002b0: 8e53 bc3c e7e3 80bd 2b2f d7bd 698b 98bd
000002c0: 34ad cb3c 3e25 c3bd b8de 333e 7c29 8abd
000002d0: 233f bf3d 4a10 fdbc 4524 61be 140d d2bd
000002e0: 1f07 00be b640 69bd b972 f53c 3428 f5bc
000002f0: b6b1 e63b 38bc b338 2602 a0bd d33d d0bd
00000300: 5367 f2bd 9600 833c 0270 19be 2e68 ec39
00000310: f880 753d 4e37 2b3d 71fd a73c dd69 1fbd
00000320: f71b 90bc 1d19 48bd d81e 32bc 583a 55bd
00000330: 3b28 1dbd de06 c7bd aa47 273c 79ff f6bd
00000340: c9e7 57bd 329f 453d b1e4 b63d 8d74 d13d
00000350: e7fe bcbd ab57 3abe 3e76 08bc 170d cc3d
00000360: 5a47 87bb d963 f83c 1304 b3bd 3745 053e
00000370: 424e 56ba 05c1 65bd 3588 043e cf50 84bd
00000380: 2329 8dbd 0e34 c3bc 96a8 a9bd 4c71 f1bd
00000390: 1d8b e4bb 8454 0abb 3773 aa3d 9bf1 10bd
000003a0: a921 9e3d 687f c33d 4d6f 1abe f471 723d
000003b0: 536b 49bd c54b 003e 9e4f e0bb 6a85 02bb
000003c0: 0f53 10be a706 aebc b1e1 123d 0b2e 76bd
000003d0: ac74 cbbc 9980 e1bd 8462 02be 94e4 f53d
000003e0: e865 aabd 5cc8 4cbe 9c6a e03b 6760 3a3d
000003f0: 33f6 3f3d 48c2 403e 3724 783c de2c 02be
