ML-Agent_EconomicModel/results/Economic-2/Economic/Economic-62048.onnx (onnx, 545607 bytes, 12 tensors)

73 f4 [8]
0	0x3cbfb64a	0.023402352
1	0x3cbfb64a	0.023402352
2	0x3e58a3fd	0.21156307
3	0x41a9384a	21.152485
4	0x3e04383d	0.12912078
5	0x3b838c28	0.0040145107
6	0x3b838c28	0.0040145107
7	0x3b838c28	0.0040145107

action_model._continuous_distribution.log_sigma f4 [1, 5]
0	0x3bd54290	0.006508179
1	0x3c47d8ec	0.012197714
2	0x3c297ab9	0.010344201
3	0x3b915163	0.004434751
4	0x3c685890	0.014181271

action_model._continuous_distribution.mu.bias f4 [5]
0	0x39f0b03f	0.0004590768
1	0xbbb7b0be	-0.005605786
2	0xbb800e17	-0.0039079296
3	0xbb85e142	-0.0040856907
4	0x3a9a683f	0.0011780335

action_model._continuous_distribution.mu.weight f4 [5, 256]
0	0x3be7ed96	0.007077883
1	0x3bdf1d1f	0.0068088914
2	0xbc17c782	-0.009263875
3	0x3c1ab208	0.00944186
4	0x3c585785	0.01320446
5	0xbbba6c4e	-0.0056891805
6	0xbc152ea4	-0.009105358
7	0x3cc170f7	0.023613436
8	0x3bc1db93	0.005916068
9	0x3c605ef9	0.013694518
10	0x3b1a834a	0.002357679
11	0x393fe4e1	0.00018300443
12	0xbb9acfda	-0.004724485
13	0xbcb98bd3	-0.022649681
14	0x3c52a9c8	0.012857862
15	0xbbb0ab77	-0.005391534
16	0x3c5e27b6	0.0135592725
17	0xbbbc9833	-0.0057554482
18	0xbccdacae	-0.025106754
19	0xbc8ae718	-0.016955897
20	0xbbfe4c12	-0.007760533
21	0xbafdf56f	-0.0019375513
22	0x3c3edde1	0.01164958
23	0x39db984a	0.000418844
24	0x3c5eb739	0.013593488
25	0xbb456f5a	-0.0030126185
26	0x3c120d0d	0.008914244
27	0x39e5e4f3	0.00043848864
28	0x3b2550d6	0.0025225184
29	0xbc9823e1	-0.018571796
30	0x3c55749e	0.013028292
31	0xba677bb5	-0.00088303845
32	0xbc1bba81	-0.009504915
33	0x3a7c191f	0.00096167804
34	0xbc998d38	-0.018744096
35	0xbb737f55	-0.0037154753
36	0x3b847521	0.004042283
37	0xbbf8c50c	-0.007591849
38	0xbbdd22c5	-0.0067485296
39	0xbc9faffd	-0.019493097
40	0xbc3a171c	-0.011358049
41	0x39ab32f7	0.00032653633
42	0xbc76d9a0	-0.015066534
43	0x3b6a1178	0.0035715979
44	0xbb048e0e	-0.0020226273
45	0x3c0f180c	0.008733761
46	0x3aa1fc03	0.001235843
47	0xbc87e516	-0.016588729
48	0x3bb7d9ee	0.005610696
49	0xbb062ee8	-0.0020474736
50	0x3cdb2ef2	0.026755784
51	0xbbbb81f2	-0.005722278
52	0xbc27fa88	-0.010252602
53	0x3c602e7d	0.013682959
54	0xbc6b3c3b	-0.014357622
55	0x3c213883	0.009840134
56	0xbc59b240	-0.013287127
57	0x3c041829	0.008062401
58	0x3c23e737	0.010003856
59	0x39664009	0.00021958364
60	0x3bee6020	0.0072746426
61	0x3c18548f	0.009297504
62	0x3b7a20c3	0.00381665
63	0xbbc06eb7	-0.0058725732
64	0x3ca3608c	0.019943498
65	0x3d09f85d	0.033684123
66	0xbb7e620e	-0.003881577
67	0xbc1d4377	-0.009598604
68	0xbbc8f96d	-0.0061332495
69	0x3cc6727e	0.024224516
70	0xbc05603a	-0.008140618
71	0xbb5f4644	-0.0034068981
72	0x3c98079b	0.018558314
73	0xbcc1fa90	-0.023679048
74	0xbc868e35	-0.016425231
75	0xbcc24ec1	-0.023719193
76	0x3b92eb2b	0.0044836006
77	0x3c7c14b6	0.015385797
78	0x3c32d98e	0.010916127
79	0xb9bfb67e	-0.00036566326
80	0xbcdb6147	-0.026779784
81	0x3bc80d49	0.0061050993
82	0x3c378956	0.011202177
83	0xbc3a8a5b	-0.011385526
84	0xbc75b6e1	-0.014997215
85	0x3c405391	0.011738674
86	0xbaeb8218	-0.0017967848
87	0xbc0bcf68	-0.008533336
88	0xbb0c3ff3	-0.0021400421
89	0x3c1d480a	0.009599695
90	0xbc21e42b	-0.00988106
91	0x3c092d93	0.008372682
92	0x3a97199f	0.0011528021
93	0x3c12cb73	0.008959639
94	0x3b331102	0.002732337
95	0x3b9894c6	0.004656407
96	0x3bf16a37	0.007367398
97	0x3cca3647	0.024684085
98	0xbc845d7c	-0.016157858
99	0x3cb57e57	0.02215497
100	0xbb8afcad	-0.004241547
101	0x3c90bdfb	0.017668715
102	0xbd0e5921	-0.03475297
103	0x3c212de6	0.009837603
104	0x3b5537e7	0.003253454
105	0xbaa943cb	-0.0012913881
106	0x3c5c3f12	0.0134427715
107	0x3cc64eea	0.024207551
108	0xbc138713	-0.009004372
109	0x3beba7e3	0.0071916445
110	0xbb66735b	-0.0035163972
111	0xbb875a36	-0.004130627
112	0x3c0aba21	0.008467228
113	0xbc593ed2	-0.013259606
114	0x3ba89de5	0.0051457756
115	0xbcd29cbe	-0.025709506
116	0x3c86de6e	0.016463485
117	0x3c7226f7	0.014779798
118	0x3b8f2a76	0.0043690754
119	0x3ba3e134	0.0050012115
120	0x3ce1c245	0.027558455
121	0xbbe449f8	-0.0069668256
122	0xbc4ba78c	-0.012430083
123	0xbb2837d9	-0.0025668053
124	0xbb414024	-0.0029487694
125	0xba32f4fd	-0.0006826667
126	0xbca3d0db	-0.019997051
127	0xbc90fb25	-0.01769788
128	0x3b380b30	0.002808284
129	0xbb9bff20	-0.004760638
130	0x3a4404b7	0.0007477509
131	0x3c62295e	0.013803808
132	0x3ceb81f2	0.028748486
133	0xbbc1b9ca	-0.0059120404
134	0x3c9b6f79	0.018974053
135	0xbc418591	-0.01181163
136	0x3bd3c69d	0.0064628855
137	0x3ca6daed	0.020368064
138	0x3cd48385	0.02594162
139	0xbcdee080	-0.02720666
140	0x3be0e00b	0.0068626455
141	0x3c2fcb05	0.010729556
142	0xbca042be	-0.019563075
143	0x3c2b4269	0.010452845
144	0xbbbcd233	-0.0057623624
145	0x3c384efa	0.011249298
146	0xbc868366	-0.016420078
147	0xbc0863c1	-0.008324564
148	0xbcae9fa2	-0.021316353
149	0xbcfce2bd	-0.030869836
150	0xba931fa4	-0.001122464
151	0x3c721e15	0.01477768
152	0x3c5ae6ce	0.013360692
153	0x3c8214e6	0.015879106
154	0xbc8522a6	-0.016251873
155	0x3c00d3ea	0.007863024
156	0x3bfb1146	0.0076619713
157	0xbc3c3de3	-0.011489364
158	0x3b064f2d	0.002049397
159	0x3c3e2056	0.011604389
160	0xbc225626	-0.009908235
161	0x3bf758a5	0.007548409
162	0xbc4e6b55	-0.012598832
163	0xbc40d672	-0.011769878
164	0xbb024170	-0.001987543
165	0x3ba3f69c	0.0050037634
166	0x3c223af1	0.009901748
167	0xbc08e22d	-0.008354706
168	0x3c7c27ca	0.015390346
169	0xbb93b949	-0.0045081717
170	0xbc15abe5	-0.009135221
171	0x39c97c0b	0.00038430127
172	0xbc6aa9d2	-0.014322715
173	0xbc41bece	-0.011825277
174	0xbb1ebdb5	-0.002422196
175	0x396333de	0.00021667729
176	0x3cae9a85	0.021313915
177	0xbc18ed44	-0.009333912
178	0x3b439428	0.0029842947
179	0x3c48ed8a	0.012263665
180	0x3c3f960a	0.011693487
181	0x3c6a751e	0.0143101495
182	0x3c4159a3	0.011801156
183	0xbc1bf9cc	-0.009520005
184	0xbba5fbc3	-0.0050654127
185	0x3cfda6bc	0.030963294
186	0xbc9fe42b	-0.019517979
187	0xbb498865	-0.0030751463
188	0xbc03aa54	-0.008036215
189	0x3b9a2fca	0.004705404
190	0x3c02f849	0.007993766
191	0x3c7ba672	0.015359508
192	0x3cd83c25	0.026395867
193	0x3c0e1c3b	0.008673723
194	0x3ca124c5	0.019670853
195	0xbc784da2	-0.015155228
196	0x3a94ad8f	0.0011343228
197	0xbbe8753d	-0.007094054
198	0xbc5f2092	-0.013618605
199	0x3c14a057	0.009071431
200	0xbc445f2e	-0.011985583
201	0x3c8360ce	0.016037371
202	0xbb734420	-0.0037119463
203	0xbb8d71d2	-0.004316547
204	0x3c03595f	0.008016913
205	0xbc0cbaf1	-0.008589492
206	0xbbefb3c8	-0.0073151328
207	0x3cb7c1a0	0.022431195
208	0x3b78a797	0.0037941688
209	0xbb893640	-0.0041873753
210	0x3c91569b	0.017741492
211	0x3b22d656	0.0024846992
212	0x3bcf83d9	0.006332856
213	0x3cb0f0d4	0.02159921
214	0xbc805047	-0.01566328
215	0xbb4b667f	-0.0031036434
216	0xba80bca4	-0.0009821844
217	0xbbc293a8	-0.005938012
218	0xbbc0cd87	-0.005883876
219	0x3c8b0af0	0.016972989
220	0xbc06571a	-0.008199478
221	0x3c792dca	0.015208671
222	0xbbd0cd62	-0.00637214
223	0xbc0268a5	-0.0079595195
224	0x3c3f32fe	0.011669872
225	0xbb74672e	-0.0037292945
226	0x3bd46fe5	0.0064830654
227	0xba9726c3	-0.0011531938
228	0xbade40c1	-0.0016956554
229	0x389a2ba5	7.351422e-05
230	0x3c1ac73c	0.009446915
231	0x3c340309	0.010987052
232	0x3c408edd	0.011752811
233	0xbbced62d	-0.006312153
234	0x3c691589	0.014226326
235	0xbb985ab5	-0.004649485
236	0x39a6967d	0.0003177411
237	0xba223a71	-0.0006188518
238	0x3b21ec52	0.0024707508
239	0xba3ee2a3	-0.00072816963
240	0xb9a1f178	-0.0003088822
241	0x3c65f2bb	0.014034922
242	0x3c588131	0.013214395
243	0xbb43246e	-0.0029776352
244	0x3c8b4812	0.01700214
245	0x3c74efca	0.014949748
246	0x3b8ded43	0.0043312623
247	0x3b5e0355	0.0033876498
248	0xbc21d279	-0.009876841
249	0xbbb5e3ae	-0.005550823
250	0x3c76df8e	0.015067948
251	0xbc30a2f5	-0.0107810395
252	0xbb91a7b8	-0.0044450425
253	0xba8cb69a	-0.0010735572
254	0xbc33adce	-0.010966731
255	0x3c56fa61	0.013121218

action_model._discrete_distribution.branches.0.weight f4 [1, 256]
0	0xbb73d2ba	-0.003720446
1	0xbb5a0b4b	-0.0033270891
2	0x3bc28576	0.00593632
3	0x3a3c31d8	0.0007179058
4	0xbc2cd023	-0.010547671
5	0xbbee6caa	-0.0072761374
6	0xbc4faca2	-0.012675436
7	0x3bb4212f	0.00549712
8	0xbae8d690	-0.001776414
9	0x3b40dd7a	0.0029428885
10	0xbbc963af	-0.0061459164
11	0x3c2897f3	0.010290134
12	0x3c07fccb	0.008300017
13	0x3b7e2983	0.0038782067
14	0x3c195320	0.009358197
15	0x3b006373	0.0019590526
16	0x3aaa4aa9	0.0012992221
17	0xba1dfa32	-0.0006026357
18	0x3be3e67b	0.0069549656
19	0xb9a27b55	-0.00030990937
20	0xbbad9eda	-0.0052984776
21	0xbbaf133f	-0.0053428705
22	0xbc84da97	-0.016217513
23	0x3be2079a	0.006897879
24	0xbb9f622f	-0.0048639993
25	0xbbfdc4d5	-0.0077444115
26	0xbb7e8f48	-0.0038842726
27	0x3bc07d7e	0.005874335
28	0xbbddb43f	-0.006765872
29	0x39348c3f	0.00017218383
30	0xbb551c82	-0.0032518213
31	0xbc0e0c3b	-0.008669908
32	0x3c4d5f12	0.012534874
33	0x3c282767	0.0102633005
34	0x3bdaef9b	0.006681395
35	0xba0873da	-0.00052052515
36	0x3bac128f	0.005251236
37	0xbb42e051	-0.0029735754
38	0x3b3e80eb	0.002906854
39	0xbc0ead79	-0.008708351
40	0x3a96d005	0.0011506086
41	0xbb76db8d	-0.0037667484
42	0x3c1e01bb	0.009643967
43	0x3ba9c85f	0.005181357
44	0xbb474fc9	-0.0030412546
45	0x3b452dcb	0.003008711
46	0x3bb031a2	0.0053770104
47	0xbbe398f3	-0.006945723
48	0x3c337986	0.010954266
49	0xbad30c23	-0.001610164
50	0x3c2642b9	0.010147744
51	0xb884a913	-6.325743e-05
52	0xbbc0943b	-0.0058770454
53	0x3b8f184c	0.00436691
54	0x3b825267	0.0039771083
55	0xbb4029b0	-0.0029321723
56	0xbb829e46	-0.003986153
57	0xbc578008	-0.013153084
58	0x3a63fc8d	0.0008696996
59	0x3bcfb42a	0.006338616
60	0xbad55f55	-0.0016279022
61	0xbba3cb1b	-0.0049985773
62	0x3bc06ca2	0.005872325
63	0x3b958c11	0.0045638164
64	0xbc0dcf5b	-0.008655394
65	0x3a8ff3a3	0.0010982644
66	0xbc3ad207	-0.0114026135
67	0x3af05abd	0.0018337589
68	0x3bcbce00	0.0062196255
69	0x39c785e3	0.0003805599
70	0x3b8cf357	0.0043014693
71	0xbb6a25ed	-0.0035728172
72	0x3c070e1d	0.008243111
73	0xb9eda0df	-0.0004532402
74	0x3bc53b8e	0.0060190624
75	0xbb234337	-0.002491189
76	0xbb1999ad	-0.0023437545
77	0xbbc1f81c	-0.0059194695
78	0xbb545605	-0.0032399904
79	0xbbf709b2	-0.0075389976
80	0x3a64683a	0.0008713041
81	0x3bbc49d5	0.005746106
82	0xbc0bbe42	-0.008529248
83	0xbb2b4af8	-0.0026137214
84	0x3b19d271	0.002347138
85	0x3c837479	0.01604675
86	0x3b93bd99	0.004508686
87	0x3b9aacfb	0.004720328
88	0xbbe2a0b3	-0.0069161295
89	0xbb85be3f	-0.004081517
90	0x3bfe5f82	0.0077628503
91	0x3c6a0423	0.014283213
92	0x3be6fe0b	0.0070493273
93	0x3b1a7e4b	0.0023573812
94	0x3b875500	0.004130006
95	0x3ad32dd0	0.0016111676
96	0x3b40792f	0.0029369106
97	0x3b285ec2	0.0025691246
98	0xbc6eac6a	-0.014567474
99	0x3c3bccb0	0.0114623755
100	0xbc57a9b3	-0.013163018
101	0x3b1c5221	0.0023852664
102	0x3b823353	0.0039734035
103	0x3c607dfd	0.013701913
104	0x3bb0b0fa	0.005392191
105	0xbc232dc3	-0.009959641
106	0xbb994948	-0.0046779253
107	0x3b544145	0.0032387536
108	0x3be80fb0	0.007081948
109	0x3b345d03	0.002752126
110	0xb7b26a50	-2.126876e-05
111	0x3ba707e3	0.0050973757
112	0x3b65a7e3	0.0035042695
113	0xbc049b43	-0.008093658
114	0xbaa4dd30	-0.0012578126
115	0xbc509a8a	-0.0127321575
116	0x3c08b5da	0.008344138
117	0xbbc615cd	-0.0060450793
118	0xbbe1f178	-0.0068952404
119	0x3c06f18c	0.0082363
120	0x3c109887	0.008825428
121	0xba6dc687	-0.00090704154
122	0x3acf889b	0.0015833558
123	0x393e9a7a	0.00018177359
124	0x3b42f310	0.0029746927
125	0xbc404da7	-0.011737264
126	0x3bd50bab	0.006501635
127	0x3bdebe43	0.0067975833
128	0x3b7a7d18	0.0038221534
129	0xbbfa79d2	-0.0076439166
130	0xba81e1b2	-0.0009909181
131	0xbb589ccd	-0.0033052445
132	0xbb92393f	-0.0044623907
133	0x3a9c02a7	0.0011902646
134	0x3c012e53	0.00788458
135	0xbbbe483f	-0.0058069522
136	0x3c2694cc	0.010167312
137	0xbc0935a2	-0.008374603
138	0x3c14cfde	0.0090827625
139	0xbc132b98	-0.0089825615
140	0xb9b308db	-0.00034148138
141	0x3a40433a	0.0007334236
142	0x3b96737b	0.004591403
143	0xbb23c1b2	-0.0024987278
144	0xbc207daa	-0.009795586
145	0xbc062201	-0.008186818
146	0x3a3c3da0	0.00071808137
147	0xbb3a1c05	-0.0028398049
148	0xbb5f7b60	-0.0034100637
149	0xbb78255b	-0.0037864062
150	0xbbddf033	-0.0067730187
151	0xbbbc8e4d	-0.0057542683
152	0xba41ff8b	-0.00074004446
153	0x3a8141af	0.0009861494
154	0xba0aeb9f	-0.00052993925
155	0xbb0b086b	-0.0021214734
156	0x3c8c160b	0.017100355
157	0xbb019664	-0.0019773478
158	0x3a833d1f	0.0010012722
159	0xbab3670b	-0.0013687325
160	0xbb20964b	-0.0024503644
161	0x3b5e6ad3	0.0033938184
162	0xbc3d5343	-0.011555496
163	0xb7f75def	-2.9488436e-05
164	0xbc2a7d67	-0.010405875
165	0xbc1c9545	-0.009557073
166	0xbc15cc46	-0.009142941
167	0x3bffe680	0.00780946
168	0xbbac5ef9	-0.005260345
169	0xbb137811	-0.0022501985
170	0x3bcaf8a2	0.00619419
171	0xbbb7417b	-0.0055925227
172	0x3c0c8248	0.008575983
173	0xbc09362f	-0.008374735
174	0x3bc8a042	0.00612262
175	0xbc02aaac	-0.007975262
176	0x3baa3550	0.0051943436
177	0xb9cc273f	-0.00038939153
178	0x3a9a602e	0.0011777931
179	0xbc217834	-0.009855319
180	0xbbe5572a	-0.006998916
181	0x3c51af48	0.012798138
182	0x39a79a74	0.000319678
183	0x3c4a3376	0.012341371
184	0xbb1058cf	-0.002202559
185	0x3c3ec877	0.011644474
186	0x3b9aa773	0.0047196685
187	0xbc2d3633	-0.010572004
188	0x3b922c3a	0.0044608386
189	0x3bb913d0	0.005648114
190	0x3b98bfb2	0.0046615237
191	0xbb970590	-0.0046088174
192	0x3af0c1c0	0.0018368289
193	0xbbea2ad7	-0.00714622
194	0xbaecab08	-0.0018056342
195	0x3c10cd52	0.008838015
196	0x3b02a4b7	0.0019934603
197	0xbb08642a	-0.0020811656
198	0xbc40953b	-0.011754329
199	0xbc72a19f	-0.014809041
200	0xba4cc2d9	-0.0007811017
201	0xbb3cf32e	-0.002883147
202	0xbb045e52	-0.002019782
203	0x38fbe5bf	0.00012011406
204	0xbc14a390	-0.009072199
205	0x3ac5964d	0.00150747
206	0xbbeb2193	-0.007175633
207	0xbc56f545	-0.01312
208	0x3c16603b	0.009178217
209	0x3c8994ee	0.016794648
210	0xbc1961a3	-0.009361657
211	0xbbeb8200	-0.007187128
212	0xbb1490d9	-0.0022669344
213	0x3c53c12d	0.012924475
214	0x3ba20b57	0.0049451995
215	0xbbdc6f37	-0.006727125
216	0xbbeaafbd	-0.007162063
217	0xbb62761d	-0.0034555264
218	0x3b7bfec0	0.0038451403
219	0x3c218db2	0.009860443
220	0x3bb0c100	0.005394101
221	0x3c02c123	0.007980618
222	0x3bd0d63d	0.0063731954
223	0x3b09405f	0.002094291
224	0xbc3995dd	-0.011327234
225	0x3c5d16cb	0.013494204
226	0xbc57df00	-0.013175726
227	0x3b80941b	0.0039239055
228	0x3c2f661a	0.010705495
229	0x39cc6cdf	0.00038991027
230	0x3ba8ecb3	0.00515517
231	0x3be55355	0.0069984593
232	0x3abd6fcd	0.0014452875
233	0x3b89136c	0.0041832235
234	0xb98a25ef	-0.00026349674
235	0x3b794f07	0.0038041489
236	0xbb72808a	-0.0037002885
237	0x3c11b093	0.008892196
238	0x3b060a33	0.0020452857
239	0xbbeb077a	-0.007172522
240	0xbb08c33f	-0.002086833
241	0x3a8b4537	0.0010625486
242	0xbc194a57	-0.009356103
243	0xb9942e91	-0.00028263454
244	0xb9babcd7	-0.0003561738
245	0xba5cacea	-0.00084181
246	0x3aa2b2b3	0.0012412876
247	0xbb662d5a	-0.0035122246
248	0x3bb02119	0.0053750393
249	0xbbf2f457	-0.0074143815
250	0xbaef3527	-0.0018250094
251	0x3b53031a	0.0032197894
252	0x3a943034	0.001130587
253	0x3b1db892	0.0024066311
254	0x3a59451b	0.00082881906
255	0x3bdf9d22	0.0068241516

network_body._body_endoder.seq_layers.0.bias f4 [256]
0	0xbb0c8dac	-0.0021446748
1	0x3ae451a8	0.0017419355
2	0xbb7c1732	-0.0038465974
3	0xb790a4da	-1.7242903e-05
4	0x3b9f42f7	0.0048602778
5	0xbad9f4bb	-0.0016628721
6	0xba33d3ca	-0.0006859867
7	0x3aa89472	0.0012861623
8	0xbae983bb	-0.0017815748
9	0x3b39fce2	0.002837949
10	0x3bf05e3d	0.007335453
11	0x3b2afef2	0.00260919
12	0x3b824ec5	0.003976675
13	0xbb2e2868	-0.0026574377
14	0xbad73aee	-0.0016420761
15	0x3b91e6e5	0.0044525736
16	0xbb12f8b9	-0.0022426082
17	0xbae30beb	-0.0017322277
18	0x3bbb1230	0.005708955
19	0xba1be6b5	-0.0005947159
20	0x3bc172cf	0.005903579
21	0x3aa5664b	0.0012618987
22	0xbb746987	-0.0037294345
23	0xba53323e	-0.0008056498
24	0xbaa77d50	-0.0012778435
25	0xbbe66d1d	-0.0070320503
26	0xbaf17d01	-0.0018424095
27	0xbb6c9a00	-0.0036102533
28	0x3a28c7e0	0.0006438475
29	0x3b1c7296	0.002387201
30	0xbb4122d3	-0.002947022
31	0xbb8da12c	-0.0043221917
32	0xbbdcb96d	-0.0067359717
33	0xb8793872	-5.9418795e-05
34	0xbac7061f	-0.0015184319
35	0x39ad4f2c	0.0003305612
36	0xbb0db895	-0.0021624912
37	0x3af3c0a3	0.0018596839
38	0xbb97a868	-0.00462823
39	0xbac6d32b	-0.0015169134
40	0xbabe6ec0	-0.0014528856
41	0x3bc6bbd1	0.00606487
42	0xb932ec18	-0.00017063355
43	0x3b9b6790	0.00474257
44	0x3a304713	0.0006724458
45	0xb8932f15	-7.018276e-05
46	0x3abe1d48	0.0014504576
47	0xbb639bb7	-0.0034730264
48	0x39bea347	0.00036361275
49	0x3aabd32d	0.00131092
50	0xbb3fc105	-0.0029259336
51	0xba8f440b	-0.0010930313
52	0x3c00c393	0.0078591285
53	0x3bd149d1	0.0063869734
54	0x3bc7b15d	0.0060941414
55	0x3ba0cd6b	0.0049073
56	0x3b8b9887	0.004260126
57	0x3c27808a	0.010223517
58	0x3b1c1cbb	0.0023820836
59	0x3ba261a6	0.0049554883
60	0x3b843fb7	0.0040359157
61	0x3a89704f	0.0010485741
62	0x3a07fa56	0.0005187144
63	0x3bc46819	0.0059938547
64	0x3c05d6f6	0.008168926
65	0x3a27c792	0.0006400283
66	0x3ab697c0	0.0013930723
67	0xb9b2e50c	-0.0003412146
68	0x3b5c5600	0.0033620596
69	0x3a37a251	0.0007005083
70	0xbb2c1c7a	-0.002626209
71	0xbbcd19ac	-0.006259164
72	0x3b43c8e6	0.0029874383
73	0xbac77cef	-0.0015219728
74	0x3c1339e7	0.008985973
75	0xb9f63622	-0.00046961108
76	0xbb9c464e	-0.004769123
77	0xbaf4db1d	-0.0018681024
78	0xbb5534e7	-0.0032532753
79	0xbbedd20c	-0.0072577056
80	0xba8dc688	-0.0010816613
81	0xba865ae0	-0.0010250472
82	0xbb04a503	-0.0020239956
83	0x3ade423c	0.0016956995
84	0x3c1df5c3	0.009641114
85	0x39d92637	0.00041417938
86	0x38413ccc	4.6071407e-05
87	0x3be86778	0.0070924126
88	0xbaf2e18e	-0.0018530355
89	0xbb9110dc	-0.0044270586
90	0x3b046ccd	0.0020206452
91	0x399dcf8b	0.00030100005
92	0x3b29e253	0.0025922253
93	0xbbf09d43	-0.007342966
94	0xbab50d6a	-0.0013813202
95	0xbb6031a1	-0.0034209269
96	0xb9afe9af	-0.0003355271
97	0xba485710	-0.0007642368
98	0xbb21ab00	-0.0024668574
99	0x3bfe8658	0.00776748
100	0x3af2845a	0.0018502579
101	0xbb92584e	-0.004466093
102	0x3b21c9a6	0.0024686842
103	0xbb2c36db	-0.0026277814
104	0xb9834747	-0.00025039373
105	0xba950c7a	-0.0011371516
106	0x3a65774a	0.0008753432
107	0xba3bc49f	-0.0007162783
108	0xbb3a1740	-0.0028395206
109	0xbaa5e08a	-0.0012655419
110	0x3a0b7e67	0.00053212646
111	0xbb6bd526	-0.00359852
112	0x3aedc188	0.0018139342
113	0xbb9f4d28	-0.0048614927
114	0x3b84361c	0.0040347707
115	0xbbb95cb2	-0.005656802
116	0x3b826d92	0.003980347
117	0xb8a2ac28	-7.7568286e-05
118	0xbb8514cc	-0.004061317
119	0xbaa4ba7f	-0.0012567787
120	0x3a7e18ca	0.0009693025
121	0x3c0d57f1	0.008626924
122	0xbadc07cb	-0.001678699
123	0xbafdd84f	-0.0019366833
124	0x3c16f471	0.009213553
125	0x3ad77342	0.0016437548
126	0x3ad86779	0.001651033
127	0x3a51693a	0.0007988397
128	0xbb3831e4	-0.002810591
129	0xba843c9e	-0.0010088866
130	0xba1d7ea1	-0.0006007944
131	0xb9e159b2	-0.00042982172
132	0x3b3361df	0.0027371568
133	0x3ae78360	0.0017663054
134	0xbb8dbba3	-0.0043253466
135	0x3c09390d	0.008375418
136	0xba225759	-0.00061928254
137	0xbb05e6fc	-0.0020431867
138	0xbb74e994	-0.0037370669
139	0xbac72c72	-0.0015195741
140	0xbb833ddd	-0.0040051774
141	0x3a93b4f1	0.0011269135
142	0xbb8709e1	-0.0041210507
143	0xbaa47e4f	-0.001254985
144	0xb980519b	-0.00024474863
145	0x388858ce	6.5015265e-05
146	0xbb41ef05	-0.002959193
147	0xbab5c146	-0.0013866804
148	0xbaf54af4	-0.0018714354
149	0xbae14f3f	-0.0017189755
150	0x3ad5fd80	0.0016326159
151	0xbbc73b59	-0.006080073
152	0xbaa42723	-0.0012523871
153	0x39922731	0.0002787649
154	0x38d3a2f8	0.00010091619
155	0xbbb3270e	-0.005467302
156	0x3aa68ee0	0.0012707375
157	0x3b9bb95e	0.004752322
158	0x3b13654c	0.0022490798
159	0xbb6d733f	-0.0036232022
160	0x3867b56f	5.5243665e-05
161	0xbb6f4c0f	-0.003651384
162	0x3ad7790d	0.0016439274
163	0x3ad5a560	0.0016299896
164	0xba896deb	-0.0010485029
165	0xba8605a7	-0.0010225073
166	0x3b63acab	0.003474037
167	0xbbb3fe9b	-0.005492998
168	0x3b3f4fcc	0.002919185
169	0x3b8455bf	0.004038542
170	0xbb61c015	-0.0034446765
171	0x3b89c80f	0.004204757
172	0x39f809c4	0.00047309522
173	0xbbbdaf37	-0.0057887095
174	0x3be20133	0.0068971156
175	0xbbb836f8	-0.005621787
176	0x3b81a262	0.003956125
177	0xbaa985d7	-0.0012933564
178	0xbb9be90e	-0.004758007
179	0x3c1ba2a8	0.0094992295
180	0x3bb1c1e8	0.0054247268
181	0x3b2fbf19	0.0026816784
182	0xbb3258ca	-0.0027213567
183	0xb917f3d2	-0.00014491312
184	0x3b1d589a	0.002400911
185	0x3aac4866	0.0013144135
186	0x3acaa1e9	0.001545963
187	0x3a96de8e	0.0011510418
188	0xba85cd00	-0.001020819
189	0x38cceee4	9.771975e-05
190	0xbb3dfef0	-0.0028991066
191	0x396e191d	0.00022706804
192	0xba575c57	-0.0008215359
193	0xbb7ff389	-0.003905507
194	0xbb7e8c9f	-0.003884114
195	0x3a73434e	0.00092797435
196	0x3b35e35f	0.0027753932
197	0xb8cf84ed	-9.8952885e-05
198	0x39b9d7b1	0.00035446652
199	0x3ae509a9	0.0017474192
200	0xba3f6b9c	-0.0007302107
201	0xbb949215	-0.004534016
202	0xbb1906bd	-0.0023349964
203	0x3a7eee2e	0.00097248226
204	0xbb1e416d	-0.0024147884
205	0x3ad43b0f	0.0016191917
206	0xbaa4caf5	-0.0012572693
207	0x3b82a5b6	0.0039870394
208	0xbbdd85ef	-0.006760351
209	0xbc1bd67f	-0.009511589
210	0xbbd700a4	-0.0065613557
211	0x3b025caf	0.001989167
212	0xba2a8b16	-0.0006505711
213	0x3b02255f	0.00198587
214	0xbaef7943	-0.0018270392
215	0x3b79566b	0.0038045894
216	0xbb910613	-0.004425773
217	0x3aa4064b	0.0012514082
218	0x3b9fa4d7	0.0048719454
219	0xbb2d744f	-0.002646703
220	0x3b066c65	0.0020511386
221	0xbb24b206	-0.0025130524
222	0x3b9d5593	0.004801461
223	0x3c05c5d7	0.0081648445
224	0x3b2e9859	0.00266411
225	0xbb503f26	-0.003177592
226	0x3bc10b9e	0.0058912775
227	0x3adb3368	0.0016723694
228	0x3bb964ad	0.0056577534
229	0xb8f50c01	-0.00011684746
230	0xbaaba01a	-0.0013093979
231	0xbb3bbc0b	-0.0028646018
232	0x3bba9dfd	0.005695103
233	0xbb34e836	-0.0027604229
234	0x3bb09f7b	0.0053901053
235	0x3ae99ac7	0.0017822617
236	0xbb6e6457	-0.0036375725
237	0x3a8d3b50	0.0010775123
238	0xbb50ca72	-0.0031858948
239	0x3b9df0ba	0.0048199566
240	0x3b7b435f	0.0038339717
241	0xba146dce	-0.0005662114
242	0x3be99091	0.0071278294
243	0xba21686f	-0.00061572244
244	0xbba77a44	-0.0051110107
245	0x3ba043e4	0.0048909057
246	0x3aa72863	0.0012753125
247	0x3b3f7ccd	0.0029218674
248	0xbb9c4ffb	-0.0047702766
249	0x3bd99f80	0.0066413283
250	0x3a3a9328	0.0007117265
251	0x3b1558fe	0.002278864
252	0xbb824310	-0.0039752796
253	0x3c131c28	0.008978881
254	0x3ac018b6	0.0014655802
255	0xbbb09154	-0.005388418

network_body._body_endoder.seq_layers.0.weight f4 [256, 8]
0	0x3e3b9ffc	0.18322748
1	0x3ecda96a	0.40168315
2	0x3e541075	0.20709403
3	0xbe060a1e	-0.13089797
4	0xbcd6f6f5	-0.026240805
5	0xbf64f198	-0.8943114
6	0x3f0ab362	0.54179966
7	0xbe5d332a	-0.21601549
8	0x3dec3998	0.11534423
9	0xbde2ce05	-0.11074451
10	0x3d33cca5	0.043896336
11	0xbc6d8cfd	-0.014498946
12	0xbdc0b381	-0.09409238
13	0x3e24c383	0.16090207
14	0xbe07bcbe	-0.13255593
15	0xbe51214f	-0.20422862
16	0x3ec34634	0.38139498
17	0xbef21496	-0.4728133
18	0xbec047de	-0.3755483
19	0xbed1b540	-0.40958595
20	0x3e250b12	0.16117504
21	0xbed6eefe	-0.41979212
22	0x3f144b49	0.57927376
23	0x3c1e03bb	0.009644444
24	0x3e825c5d	0.25461093
25	0x3da962f6	0.082708284
26	0xbe4571a4	-0.19281632
27	0x3f1ee940	0.6207466
28	0x3ece37d5	0.4027697
29	0xbe3fbfec	-0.18725556
30	0x3e6fa469	0.23402561
31	0x3ea2ec28	0.31820798
32	0xbea63b38	-0.32467055
33	0x3ed03706	0.4066698
34	0x3f3f548d	0.7473839
35	0x3dd0117d	0.101595856
36	0xbe2df9b8	-0.16989791
37	0x3de6fa17	0.112781696
38	0x3f361540	0.71126175
39	0xbe3c547b	-0.18391602
40	0xbe278aa2	-0.16361478
41	0xbe90362c	-0.2816633
42	0xbf5207b2	-0.8204299
43	0x3dbf2723	0.093336366
44	0xbe448f29	-0.19195236
45	0xbf619288	-0.88114214
46	0x3e180702	0.14846423
47	0x3e65b025	0.22430475
48	0x3b97be63	0.00463085
49	0xbe6e9802	-0.23300174
50	0xbb9de69c	-0.0048187505
51	0xbeebc058	-0.46045184
52	0xbeb4b826	-0.35296744
53	0x3d4a3d02	0.049374588
54	0xbe6cd272	-0.23127154
55	0x3dfca2a4	0.12335709
56	0xbe4bff1c	-0.19921535
57	0xbe0bf378	-0.13667095
58	0x3e05c989	0.13065161
59	0xbd0997cc	-0.03359203
60	0x3db59715	0.08866707
61	0xbe197a19	-0.14987983
62	0x3eca2035	0.39477697
63	0xbeed597e	-0.4635734
64	0xbbfd3646	-0.007727417
65	0x3f0d7a4f	0.55264753
66	0xbbd960db	-0.0066338605
67	0x3f0a330c	0.5398414
68	0x3e89e853	0.26935062
69	0x3e3a7bb8	0.18211257
70	0x3e120dc0	0.14263058
71	0xbea5a297	-0.3235061
72	0xbea2b814	-0.31781065
73	0xbe85b70b	-0.26116213
74	0xbe3b954d	-0.18318672
75	0xbd59b295	-0.053148825
76	0xbf26de56	-0.6518301
77	0x3e65d3ad	0.22444029
78	0xbed2fa95	-0.41206804
79	0xbe668274	-0.22510701
80	0x3f15cbe8	0.5851426
81	0x3e230a13	0.15921812
82	0x3ea37308	0.319237
83	0x3db4dcff	0.08831214
84	0x3db2e4e0	0.08735061
85	0x3d6b64f4	0.057469323
86	0xbf171c64	-0.59027696
87	0xbdabfa2d	-0.083973266
88	0x3f01d61e	0.5071734
89	0x3d9592e0	0.07303405
90	0xbd4024d3	-0.04691012
91	0xbe44fa36	-0.19236073
92	0xbef7bc77	-0.48385975
93	0xbf555256	-0.8332876
94	0x3ec3a6a9	0.3821309
95	0xbdc24f5f	-0.09487795
96	0x3ec3921c	0.3819741
97	0x3df57abb	0.119862996
98	0x3ecdf595	0.40226427
99	0xbc84f35b	-0.016229322
100	0x3e629973	0.22128849
101	0xbeef55fa	-0.46745282
102	0xbe67f973	-0.22653751
103	0xbda267b8	-0.07929939
104	0xbf476059	-0.7788139
105	0x3eb1303d	0.34607115
106	0x3de4a22b	0.111637436
107	0x3ea2f38a	0.3182643
108	0xbe194b39	-0.14970101
109	0xbf2b03a0	-0.66802406
110	0xbf07a56d	-0.52986795
111	0x3ecb0537	0.39652416
112	0x3e4eb82e	0.20187446
113	0xbd80bbf8	-0.06285852
114	0xbf90585f	-1.1276969
115	0xbe32b5dc	-0.17452186
116	0x3e821414	0.25405943
117	0x3efa7200	0.489151
118	0xbef2414a	-0.47315437
119	0xbeb37f9b	-0.35058293
120	0xbe80f0f8	-0.25183845
121	0xbe0eff30	-0.13964534
122	0x3f27ab61	0.6549588
123	0x3e553087	0.20819293
124	0x3e12d98b	0.14340799
125	0xbebcbd84	-0.3686334
126	0x3cb51525	0.022104809
127	0xbdec56ca	-0.11539991
128	0x3e20724d	0.15668602
129	0xbe28c282	-0.16480449
130	0x3d9f86fa	0.077894166
131	0x3eb33c1e	0.35006803
132	0x3ed7d62a	0.42155582
133	0x3e49e928	0.19717848
134	0xbd32e1ad	-0.043672252
135	0x3ed6a6e8	0.41924214
136	0xbebd1d0b	-0.3693622
137	0xbedfdf01	-0.43724826
138	0x3c31f0b5	0.010860612
139	0xbe33cd21	-0.17558719
140	0xbf1c2d87	-0.6100697
141	0x3d87fd51	0.06640113
142	0x3ebb5550	0.36588526
143	0xbe8aad95	-0.27085558
144	0xbd119dba	-0.03555081
145	0xbe8d3438	-0.27578902
146	0xbdc9d72b	-0.09855493
147	0x3e822715	0.25420442
148	0xbf316d05	-0.69306976
149	0xb9c182b1	-0.000369092
150	0x3f0b5750	0.54430103
151	0xbcd96ac0	-0.02654016
152	0x3f031043	0.5119669
153	0xbc78ca96	-0.015185019
154	0x3e695d82	0.22789577
155	0x3e1f544c	0.155595
156	0xbebcf5ad	-0.36906186
157	0xbdc3b66a	-0.09556277
158	0xbf291f4e	-0.6606339
159	0x3e8a5724	0.27019608
160	0x3e4bec29	0.19914307
161	0x3d895cf2	0.06707181
162	0x3e5cb7e0	0.21554518
163	0xbf106a9c	-0.56412673
164	0xbe5cf3ba	-0.2157735
165	0xbf39938f	-0.7249078
166	0x3f02f89d	0.51160604
167	0xbe4d1a8d	-0.2002966
168	0xbe38ad08	-0.18034756
169	0xbe5c7e47	-0.21532546
170	0xbda10716	-0.0786268
171	0x3ec44218	0.38331676
172	0xbf24ecff	-0.6442413
173	0xbe97eaeb	-0.29671416
174	0xbceea045	-0.029129157
175	0x3ed4b2aa	0.4154256
176	0xbda8d2bb	-0.08243319
177	0x3f1695c5	0.5882228
178	0xbd8c1472	-0.06839837
179	0x3f10bf51	0.56541926
180	0xbe6f2917	-0.23355518
181	0xbdcbff1f	-0.0996077
182	0xbd588dda	-0.052869655
183	0x3f03e8c9	0.51527077
184	0xba17fa0f	-0.00057974545
185	0xbe21f412	-0.15815762
186	0x3ee34a47	0.44392607
187	0x3e3f4604	0.18679053
188	0xbd855381	-0.06510068
189	0xbdc93152	-0.0982386
190	0x3cc8e7e7	0.024524642
191	0xbec6ef36	-0.38854378
192	0x3e668e68	0.22515261
193	0xbe540575	-0.20705207
194	0x3eefefaf	0.46862552
195	0xbebc7aa8	-0.3681233
196	0x3eb0f560	0.34562206
197	0x3e437f45	0.19091518
198	0xbe17c2e6	-0.14820442
199	0xbc088967	-0.0083335405
200	0xbd980e91	-0.07424653
201	0x3f287deb	0.65817136
202	0xbe631c27	-0.22178708
203	0xbd96621e	-0.07342933
204	0xbc8a27ad	-0.016864622
205	0x3eaa779e	0.33294386
206	0xbebeaaec	-0.37239778
207	0xbeeb043f	-0.45901677
208	0xbe13785c	-0.14401382
209	0x3e4b0837	0.19827352
210	0xbf32b491	-0.6980677
211	0xbc1283fc	-0.0089426
212	0x3d88073a	0.06642003
213	0xbeacaebc	-0.33727062
214	0x3efe90fa	0.49719983
215	0x3eb66b99	0.35628965
216	0xbe3b1327	-0.18269025
217	0xbecc9d89	-0.3996394
218	0xbf22b268	-0.63553476
219	0xbdd74dab	-0.10512861
220	0xbdf90f4a	-0.12161119
221	0xbe0c5893	-0.13705663
222	0x3e8d37b4	0.2758156
223	0x3e185bf6	0.1487883
224	0xbe4faf01	-0.20281602
225	0x3ebdd097	0.37073204
226	0xbd9f39e3	-0.07774713
227	0xbf792be7	-0.97332615
228	0xbf0f5ae7	-0.5599808
229	0xbeb66bed	-0.35629216
230	0x3ef7c561	0.48392776
231	0xbc5683e1	-0.013092966
232	0xbf22170e	-0.6331643
233	0xbcfa7c01	-0.030576708
234	0x3e1d3736	0.15353093
235	0xbd22a214	-0.03970535
236	0xbf250db1	-0.64474016
237	0x3e6eebbf	0.23332117
238	0x3ed955cc	0.4244827
239	0xbec3b1e4	-0.38221657
240	0x3ea5a78d	0.32354394
241	0xbe8ab3a6	-0.27090186
242	0x3d503532	0.05083198
243	0xbe559074	-0.20855886
244	0xbf577255	-0.8415883
245	0x3d9beab7	0.07613128
246	0x3e991090	0.2989545
247	0xbd80e5db	-0.062938415
248	0xbf11256f	-0.56697744
249	0xbeb9b4ea	-0.3627084
250	0x3f1c17da	0.60973895
251	0xbe84f3cb	-0.2596725
252	0xbf05ef0a	-0.5231787
253	0x3e86a909	0.2630084
254	0x3e024e3b	0.12725155
255	0xbe43f064	-0.1913467

network_body._body_endoder.seq_layers.2.bias f4 [256]
0	0xb91f3335	-0.00015182498
1	0xbae338c9	-0.0017335649
2	0xba47d358	-0.000762274
3	0xbb7c0c1b	-0.0038459364
4	0xbbab7ba8	-0.005233247
5	0x39b1fe43	0.0003394951
6	0x3ba15b35	0.004924203
7	0xb95573f6	-0.00020356462
8	0x3b832430	0.0040021166
9	0x3bd61603	0.0065333857
10	0x3a980a60	0.0011599772
11	0x3b48acb8	0.0030620527
12	0xbb7a09e2	-0.0038152863
13	0xbbc77f73	-0.006088191
14	0x3acfc1e2	0.0015850628
15	0xbb60e4bc	-0.0034316024
16	0x3af3e4af	0.0018607582
17	0x3b29c193	0.0025902733
18	0x3adbc05f	0.0016765705
19	0x3b55c841	0.0032620581
20	0x3be36ca3	0.0069404407
21	0xbb4855af	-0.003056865
22	0xbac4e13d	-0.001502074
23	0x3b893ee2	0.0041884044
24	0xbb7448da	-0.0037274868
25	0x3b18d71b	0.0023321572
26	0xbb89f915	-0.004210601
27	0xbbae3ff2	-0.0053176815
28	0xbb8ae9b0	-0.0042392835
29	0xbb8ab099	-0.004232478
30	0x3b455151	0.0030108283
31	0x3b98edd4	0.004667023
32	0xbb41603a	-0.0029506818
33	0x3b52560c	0.0032094745
34	0x3b167dab	0.0022963088
35	0x3a61d1a0	0.00086143054
36	0x3a894e79	0.0010475657
37	0xbbd8bbdd	-0.006614192
38	0x3b92c148	0.0044786073
39	0x39b9a20c	0.00035406684
40	0x3c1848ce	0.009294702
41	0xbbef47c3	-0.007302256
42	0xbb0c6801	-0.0021424296
43	0xbb1aeb3d	-0.0023638748
44	0x3b9106da	0.0044258656
45	0x3acbdda7	0.0015553728
46	0xbb2ae309	-0.0026075265
47	0xbb741b9b	-0.00372479
48	0xbb8f43be	-0.004372089
49	0x3ba07b36	0.0048975004
50	0xba3969e9	-0.0007072972
51	0xbb8eabb4	-0.0043539647
52	0xba8c0266	-0.0010681867
53	0xba4e7d17	-0.0007876916
54	0xbbc07c1d	-0.0058741705
55	0x3b426859	0.0029664247
56	0x3c11b314	0.008892793
57	0x3b87c927	0.0041438523
58	0xbb764377	-0.0037576833
59	0xb67df70a	-3.7843733e-06
60	0x3b135864	0.0022483105
61	0x38903332	6.875991e-05
62	0xbb1f08a8	-0.0024266634
63	0xbb65b784	-0.003505201
64	0xbb78f272	-0.0037986306
65	0xbb6c7d16	-0.00360853
66	0x3b2f1efb	0.0026721347
67	0x393b6ec8	0.00017874979
68	0xbb3910d4	-0.002823879
69	0x39c426fe	0.00037413085
70	0x3b24502a	0.0025072196
71	0xbab3db2b	-0.0013721933
72	0x3a84661c	0.0010101232
73	0xbbad5a9a	-0.0052903416
74	0xbabbcea5	-0.0014328553
75	0x39118954	0.00013879436
76	0xbade91ad	-0.0016980671
77	0x39bf03b9	0.00036433132
78	0x3a556c75	0.00081414665
79	0xba912c9f	-0.001107592
80	0xbb661338	-0.003510667
81	0xbbc3adcd	-0.0059716464
82	0xbb4ba423	-0.0031073175
83	0xb9d4ddd1	-0.00040601057
84	0x3b07c0f3	0.0020714372
85	0xbb3fa8bd	-0.0029244863
86	0x3b8e5ec4	0.004344793
87	0xbba30c46	-0.0049758283
88	0x3b8e24d1	0.004337885
89	0xbb1d2bde	-0.0023982446
90	0x3ae53879	0.0017488144
91	0x3a06e885	0.00051463424
92	0xbb048aa3	-0.0020224235
93	0xbb240132	-0.0025025127
94	0xb8b51d37	-8.636194e-05
95	0xbae6877f	-0.0017587988
96	0x39574ef1	0.00020533406
97	0x3bbbf550	0.0057360306
98	0xbbc21ede	-0.00592409
99	0xbb326471	-0.0027220512
100	0xb9332685	-0.0001708512
101	0x3b0221db	0.0019856605
102	0xbaa9abbe	-0.001294486
103	0xbab63865	-0.0013902305
104	0x3c00254c	0.007821392
105	0xbbb08774	-0.005387241
106	0xba8864d5	-0.0010406027
107	0x3b9cdb9a	0.0047869207
108	0xba2b7552	-0.00065406144
109	0x3ac279e4	0.0014837352
110	0x392df6a9	0.00016590454
111	0xbb2e05f0	-0.0026553832
112	0x3b39be06	0.0028342023
113	0x3adb9ed5	0.001675571
114	0xbb5a6a16	-0.0033327392
115	0xbb4e9e75	-0.0031527553
116	0xbbb81edb	-0.0056189126
117	0xb9d147cb	-0.00039917076
118	0x3a261791	0.0006335909
119	0xbb50ec0e	-0.003187898
120	0x3b408269	0.0029374606
121	0xbba29421	-0.004961506
122	0x3b5847f5	0.0033001874
123	0x3a0f27e0	0.0005460959
124	0x3bb7db40	0.0056108534
125	0x3b083f5a	0.0020789714
126	0x3b371ab9	0.0027939512
127	0x3a2e570a	0.0006650543
128	0xbbefb565	-0.007315325
129	0xb9986af1	-0.00029071377
130	0xbbf99519	-0.007616651
131	0xba75497c	-0.00093569583
132	0xbb6e20c2	-0.0036335443
133	0xbb21fdaf	-0.0024717858
134	0x3b9d7860	0.0048056096
135	0xbb9fb26b	-0.004873564
136	0xbb70ec10	-0.0036761798
137	0x39bcdd99	0.00036023257
138	0xba132724	-0.00056134374
139	0xbad936d2	-0.0016572124
140	0x3b26066f	0.0025333425
141	0x3b882035	0.00415423
142	0xbb4e91d2	-0.003152002
143	0xbb85d11a	-0.0040837647
144	0x3b78a890	0.0037942268
145	0xbb0c4d9a	-0.0021408559
146	0x3b080c41	0.0020759257
147	0x3ac6f8a3	0.0015180301
148	0x3a9368f7	0.0011246492
149	0x3a0d3319	0.0005386337
150	0xbb5b9f96	-0.0033511869
151	0x3b570731	0.0032810683
152	0x3bcd5cd1	0.006267168
153	0xbafaa039	-0.0019121236
154	0xbb1380af	-0.0022507121
155	0xbb0bbd37	-0.0021322498
156	0x3b65f81b	0.003509051
157	0xbadfeeec	-0.0017084754
158	0xbb5fe5b5	-0.0034164016
159	0x3a5cdce7	0.0008425251
160	0x39174466	0.00014425963
161	0x39194d92	0.00014620114
162	0x3b16eab0	0.0023028068
163	0x3a13bb0d	0.0005635478
164	0x3bcd650f	0.0062681506
165	0xbb881625	-0.0041530305
166	0xb9a5493a	-0.0003152581
167	0x3bb7d45f	0.0056100334
168	0xba793eeb	-0.00095079717
169	0xbb9bb8ba	-0.0047522457
170	0xbb982c9a	-0.004643989
171	0x3b93472c	0.0044945683
172	0xbac8995c	-0.0015304494
173	0x3becf1eb	0.0072309873
174	0x3b2489b5	0.0025106494
175	0xb96381b4	-0.00021696725
176	0xba874f3f	-0.00103233
177	0x3c0be549	0.008538553
178	0x3a928142	0.0011177438
179	0xbb0227e6	-0.0019860207
180	0x39d9e023	0.0004155646
181	0x39e0efb0	0.0004290319
182	0xba02510d	-0.0004971184
183	0x3b8f231a	0.004368198
184	0xb856494c	-5.108984e-05
185	0xbc062cee	-0.008189423
186	0x3bb8b371	0.0056366255
187	0x3ba45a85	0.0050156736
188	0x3beef482	0.007292331
189	0x3a313224	0.00067594857
190	0xb9d8ddb5	-0.00041363915
191	0xbac6656d	-0.0015136428
192	0xbb1db136	-0.0024061925
193	0xbaa13c0a	-0.0012301218
194	0xbb113b84	-0.0022160718
195	0x3a93579b	0.0011241318
196	0x3b2cd4be	0.0026371921
197	0xbb5e3b30	-0.003390979
198	0xbaa4adab	-0.0012563964
199	0xbb493e4b	-0.0030707296
200	0xba73cb42	-0.0009300002
201	0xbb50db35	-0.0031868939
202	0xbb8c674c	-0.004284775
203	0x3b775428	0.003773937
204	0x3aba19d8	0.0014198376
205	0x3ad7b9e0	0.0016458593
206	0xbb715a62	-0.0036827554
207	0x3bcbac92	0.0062156403
208	0x3c1b2801	0.009469987
209	0xbad4914f	-0.0016217622
210	0xba65b29d	-0.0008762272
211	0xbb7b58e0	-0.0038352534
212	0x3b460df5	0.0030220721
213	0x3a8c4ab5	0.0010703417
214	0x3b5434e9	0.003238017
215	0xbb95266b	-0.004551699
216	0xbba2262a	-0.004948397
217	0x3ba4f946	0.0050345985
218	0x3baf57cb	0.005351042
219	0x3a8daa06	0.0010808117
220	0xb9543b5e	-0.00020240012
221	0x3ae7e030	0.0017690714
222	0xbb79737e	-0.0038063223
223	0x3b87c406	0.004143241
224	0xba2635a9	-0.00063403934
225	0xbae15892	-0.0017192534
226	0xbae56824	-0.001750235
227	0xb9156a88	-0.00014249433
228	0x3b29aa6a	0.0025888928
229	0xbbb55c5f	-0.005534693
230	0x3a83a55b	0.0010043787
231	0x39d0901c	0.0003978022
232	0x3b62bcab	0.0034597318
233	0x3b2f73db	0.0026771936
234	0xbaabd80c	-0.0013110652
235	0xbb2a88db	-0.0026021514
236	0xbbbc6d74	-0.0057503525
237	0x3b4aad5c	0.0030926084
238	0xbb71923a	-0.003686084
239	0x3b2c062a	0.0026248791
240	0xbb70423b	-0.003666057
241	0xb8320e50	-4.2451837e-05
242	0xbb0aab7f	-0.0021159349
243	0xbb49a0e5	-0.0030766067
244	0xba041616	-0.00050386915
245	0xbb796cd2	-0.0038059247
246	0xbadedd75	-0.0017003255
247	0x3b6b3729	0.0035891032
248	0x3a7672a9	0.0009401241
249	0xb9ee4e3f	-0.00045453195
250	0x3a7b8fa8	0.00095962966
251	0xbb2e07e6	-0.0026555
252	0x39c92aa6	0.00038369483
253	0xbb02354d	-0.0019868196
254	0xb86675f3	-5.4946122e-05
255	0x3a5ece10	0.00084993336

network_body._body_endoder.seq_layers.2.weight f4 [256, 256]
0	0x3d16f236	0.036852084
1	0x3dabd9fc	0.083911866
2	0xbd3d4273	-0.04620595
3	0xbd374cd4	-0.044751003
4	0xbae32e88	-0.0017332593
5	0xbc4ad985	-0.012380962
6	0xbdaee0e2	-0.08538987
7	0x3d3c5e9f	0.045988675
8	0xbd2af1ec	-0.04173462
9	0x3c394a6d	0.011309248
10	0xbd884071	-0.06652916
11	0x3cde1b41	0.027112605
12	0xbc7a81c6	-0.015289729
13	0x3ce532c5	0.02797831
14	0x3c8a54ac	0.016886078
15	0x3cb8b0c4	0.022545226
16	0x3da919be	0.08256863
17	0xbd748581	-0.05969763
18	0xbc5bedd7	-0.013423405
19	0x3db51106	0.088411376
20	0x3e195170	0.14972472
21	0xbd660dc9	-0.05616549
22	0x3ca384aa	0.01996072
23	0xbd215f79	-0.03939769
24	0xbddded01	-0.108362205
25	0x3da8f58c	0.08249959
26	0xbb389a37	-0.002816809
27	0x3cf62583	0.030047184
28	0xbcb71201	-0.022347452
29	0xbdbd43a7	-0.09241419
30	0xbd8ab8d0	-0.067735314
31	0xbd17d6c1	-0.03707004
32	0xbdf02dcf	-0.11727487
33	0x3d1f2b57	0.03885969
34	0x3c214dd2	0.009845214
35	0x3d28bc6f	0.04119533
36	0xbcfbbf0a	-0.030730743
37	0xbd0e90c1	-0.034806017
38	0x3c69bc3c	0.01426607
39	0x3dfcf22e	0.123508796
40	0xbd2ec275	-0.042665917
41	0x3be6aa42	0.0070393393
42	0x3d5d67c4	0.054054037
43	0xbc96cc65	-0.01840801
44	0x3dcf3a1e	0.10118507
45	0x3d7f9e2d	0.062406708
46	0xbd86e778	-0.06587118
47	0xbd2b2503	-0.041783344
48	0x3d9df96e	0.077135906
49	0xbc5b90c8	-0.013401218
50	0xbdff8918	-0.124773204
51	0xbb113395	-0.002215599
52	0xbcb82d04	-0.022482403
53	0x3c7f89dd	0.015596834
54	0x3cc1ff57	0.023681326
55	0x3d8c5658	0.06852406
56	0x3ddb23c9	0.10700185
57	0xbd25eb44	-0.04050757
58	0xbd31d1eb	-0.043413084
59	0x3dd9b58e	0.10630332
60	0x3adedf27	0.001700376
61	0x3d784881	0.06061602
62	0x3daab16b	0.08334621
63	0x3ae88bea	0.0017741893
64	0x3deabc87	0.1146174
65	0x3d39233b	0.045199614
66	0x3c658afe	0.014010189
67	0xb9eaad60	-0.00044761132
68	0xbddae168	-0.10687524
69	0x3ad45ebb	0.0016202548
70	0x3e222c7f	0.15837286
71	0xbd37418e	-0.044740252
72	0x3d0f0dab	0.034925144
73	0xbcd6c826	-0.026218485
74	0x3db8bd48	0.090204775
75	0xbd907e48	-0.07055336
76	0x3d640798	0.055671304
77	0xbd7b886b	-0.061409395
78	0xbdb6dfc2	-0.08929397
79	0x3de11cae	0.10991798
80	0xbd209ed7	-0.03921398
81	0xbdb753c1	-0.08951522
82	0xbd9c1713	-0.076215886
83	0xbd28e62d	-0.041235138
84	0xbc978751	-0.018497141
85	0xbdc12b23	-0.09432056
86	0xbd8640b7	-0.06555312
87	0x3c42a557	0.01188024
88	0x3b7e469f	0.0038799418
89	0xbd8ce386	-0.06879334
90	0x3dcc776c	0.099837154
91	0x3e017938	0.12643898
92	0x3d2dc247	0.042421605
93	0xbdc5b15b	-0.096529685
94	0xbc0e817a	-0.008697862
95	0xbdab114f	-0.08352911
96	0xbd922f46	-0.07137923
97	0xbc7e17a8	-0.01550857
98	0x3d2f0b16	0.04273518
99	0xba1bf62d	-0.0005949464
100	0xbbca870e	-0.0061806506
101	0x3d1d333b	0.038378935
102	0xbcc32d46	-0.023825299
103	0xbd369e64	-0.044584647
104	0xbc16e04a	-0.009208748
105	0x3cec9013	0.028877294
106	0x3d81c781	0.063368805
107	0x3dae7851	0.08519042
108	0xbdab586a	-0.08366473
109	0xbc2cb97d	-0.010542271
110	0x3c4bbb16	0.0124347415
111	0x3d09ec06	0.033672355
112	0xbbf24774	-0.007393772
113	0x3d259ba7	0.040431645
114	0x3c3bf343	0.011471572
115	0x3cd3b9c3	0.025845414
116	0x3ca9b997	0.020718379
117	0x3d42cf08	0.04756072
118	0x3ccde288	0.025132433
119	0xbd8f4e66	-0.06997375
120	0xbbd7c086	-0.00658423
121	0xbdb07e12	-0.08617796
122	0x3c090406	0.008362776
123	0xbcad4272	-0.021149848
124	0x3cafcc6e	0.021459784
125	0x3d8d0aa2	0.06886794
126	0xbd129ce6	-0.03579416
127	0x3dde2b50	0.10848105
128	0x3d6e2928	0.05814472
129	0x3ce8bd84	0.02841068
130	0x3d19a255	0.037508328
131	0xbe2dcad6	-0.16971907
132	0xbb4e9b73	-0.003152576
133	0xbd048c45	-0.032360334
134	0xbcb8ee03	-0.02257443
135	0xbd55fd8d	-0.052243758
136	0x3c723121	0.014782221
137	0xbcf1423e	-0.029450532
138	0x3d8b03d2	0.06787838
139	0x3cad6171	0.021164628
140	0xbd82d7a5	-0.06388787
141	0xbdd171d9	-0.10226793
142	0x3d6193b7	0.055072512
143	0xbd2a9d61	-0.041653994
144	0x3b160fca	0.0022897595
145	0x3c238c29	0.009982147
146	0x3dc260ce	0.0949112
147	0x3d534583	0.051579963
148	0x3c0898d0	0.008337215
149	0xbc114d29	-0.008868494
150	0x3c94f469	0.01818295
151	0xbe100d7b	-0.14067642
152	0x3c3628ef	0.011118158
153	0x3ac76932	0.0015213846
154	0x3c34424a	0.011002133
155	0xbd60b7a7	-0.054862645
156	0x3c88d8a1	0.01670486
157	0x3c91f729	0.01781805
158	0xbd543100	-0.051804543
159	0x3d7f876e	0.062385015
160	0x3c059bd5	0.008154829
161	0x3d7fc382	0.06244231
162	0xbd80e89a	-0.06294365
163	0xbd375b11	-0.044764582
164	0x3d8f4c3b	0.06996962
165	0x3dcbe0b9	0.09954972
166	0x3d64f204	0.055894867
167	0x3d79aeec	0.060957834
168	0xbadfdd28	-0.001707946
169	0xbd4d3646	-0.050100587
170	0xbc96b9bd	-0.018399114
171	0xbcc62952	-0.024189625
172	0x3be86785	0.0070924186
173	0xbd54b7b4	-0.051933005
174	0x3d6c5d7a	0.057706334
175	0xbd480996	-0.048837267
176	0x3d498eb9	0.049208377
177	0x3e278e58	0.16362894
178	0x3e1af825	0.15133722
179	0x3ddcf1a0	0.10788274
180	0xbdb71a6c	-0.089405864
181	0x3e034b3e	0.12821671
182	0x3ab3f6fc	0.0013730223
183	0x3e1866f6	0.14883026
184	0x3c4816ff	0.012212514
185	0x3da758f6	0.08171265
186	0x3d497cfa	0.049191453
187	0x3d943f5c	0.07238647
188	0xbc01dc14	-0.007926006
189	0xbcb71d1f	-0.022352753
190	0x3d867242	0.06564762
191	0xbd34f5ff	-0.044179913
192	0x3d30eba5	0.043193478
193	0x3d690b77	0.0568957
194	0xbd7f0476	-0.062260114
195	0xbc8ac366	-0.016938876
196	0xbd2bf938	-0.04198572
197	0x3e468080	0.19384956
198	0x3c3f2690	0.011666909
199	0x3d001362	0.031268485
200	0x3de3d07c	0.111237496
201	0xbdaadba6	-0.08342676
202	0xbe00fde0	-0.12596846
203	0x3dcaca84	0.09901908
204	0xbcd9b433	-0.026575183
205	0xbd46ba29	-0.04851738
206	0xbbe2783a	-0.006911305
207	0xbc5e7a3a	-0.013578946
208	0xbce35b0b	-0.027753374
209	0x3c8773b6	0.016534667
210	0x3d8730cf	0.066011064
211	0x3de4a03b	0.11163374
212	0x3d42c495	0.047550756
213	0x3d56a8e4	0.05240716
214	0x3dd6784b	0.10472163
215	0x3c999efe	0.018752571
216	0xbc97767c	-0.018489115
217	0xbd070c64	-0.0329708
218	0xba9f9a3f	-0.0012176706
219	0x3e01348f	0.12617706
220	0xbd732eb5	-0.059370715
221	0x3d711b66	0.05886402
222	0x3d12947b	0.035786133
223	0xbdd260d7	-0.10272377
224	0x3cc67780	0.024226904
225	0xbd0272d1	-0.03184778
226	0xbd3ed16d	-0.046586443
227	0x3d3cd27a	0.046099164
228	0x3c74a615	0.014932175
229	0x3c6ded8a	0.014521966
230	0xbc291df5	-0.010322084
231	0x3d93963f	0.072063915
232	0x3d1b8867	0.03797188
233	0x3d0d4a08	0.03449443
234	0xbdc67634	-0.09690514
235	0x3da869a9	0.08223278
236	0x3cd2dacf	0.025739102
237	0x3ccadcc7	0.024763478
238	0x3d8402df	0.0644586
239	0x3d46d83d	0.048546065
240	0xbc9d0a92	-0.01917008
241	0x3bbd7ad0	0.0057824627
242	0x3d88f04e	0.066864595
243	0xbcd233f2	-0.025659535
244	0xbe02cc25	-0.12773187
245	0x3d06db99	0.03292427
246	0x3de62267	0.112370305
247	0x3c6137a9	0.013746181
248	0x3cb5ae58	0.02217786
249	0x3ce80080	0.02832055
250	0x3d3a6378	0.045505017
251	0x3d3b2dc8	0.045697957
252	0x3d331004	0.043716446
253	0xbc47997f	-0.012182592
254	0xbdb6bba8	-0.08922511
255	0xbdc1eb2c	-0.094686836

network_body._body_endoder.seq_layers.4.bias f4 [256]
0	0xbb73831f	-0.0037157012
1	0xbbd5522b	-0.0065100393
2	0x3bcf45f2	0.006325477
3	0xbb03c041	-0.0020103606
4	0xba946616	-0.0011321928
5	0x3a8d3762	0.0010773952
6	0xbba19928	-0.0049315877
7	0xbb6a1270	-0.0035716556
8	0xbb56b1f4	-0.0032759877
9	0x3ae0cf1a	0.0017151565
10	0xbb89787f	-0.0041952725
11	0xbbf03eb7	-0.007331695
12	0xbb3452db	-0.0027515206
13	0x38e0c9f9	0.00010718773
14	0x3ab15e0b	0.0013532055
15	0x3ba27af5	0.0049585053
16	0xba447a51	-0.0007495033
17	0xbb071c8a	-0.0020616376
18	0x3b06ce07	0.002056958
19	0x399bfcfd	0.00029752395
20	0xbb8a4eb0	-0.004220806
21	0x3bcd7beb	0.0062708757
22	0x3a731789	0.00092732214
23	0xbbe3f3b9	-0.0069565442
24	0x3ba0fb93	0.0049128025
25	0x3b40c197	0.0029412264
26	0xba265b0c	-0.00063459645
27	0xbb270e26	-0.002549061
28	0x39c4243a	0.00037411024
29	0xba8a3857	-0.0010545355
30	0xba83114a	-0.0009999659
31	0x3b2deb68	0.0026538018
32	0x3a876dad	0.0010332369
33	0xbacefc49	-0.001579174
34	0xba6653a0	-0.0008786265
35	0xbbbb25ec	-0.0057113077
36	0xbbfe83d3	-0.0077671795
37	0xbb1be8c9	-0.0023789874
38	0xbb6873fe	-0.0035469527
39	0xba569923	-0.00081862713
40	0x3b33da0c	0.0027443198
41	0xbb69844e	-0.0035631838
42	0xbb147934	-0.002265525
43	0xbae5b135	-0.0017524125
44	0xbb788d7f	-0.0037926135
45	0x3be5a665	0.007008361
46	0x3b92fb4e	0.0044855243
47	0x3bbc20d8	0.00574122
48	0xbaea285d	-0.0017864812
49	0x3b82e2a7	0.003994304
50	0x3b2e2c09	0.002657654
51	0xbb85d998	-0.004084777
52	0xbb8c1551	-0.004275002
53	0x393aed84	0.00017826824
54	0xbbb248f7	-0.005440827
55	0x3bae4ebf	0.005319446
56	0xbb2c8681	-0.0026325288
57	0xbba70396	-0.005096863
58	0x3a67b79e	0.0008839312
59	0xbb8f36d6	-0.0043705506
60	0xbb4f9ec3	-0.0031680323
61	0x3b1828ac	0.0023217602
62	0x3b5aff43	0.0033416308
63	0x3b8cd392	0.004297682
64	0x3b16c4da	0.0023005516
65	0xb7b6e179	-2.1801085e-05
66	0x3b497bbc	0.0030743917
67	0x3b4c278c	0.0031151501
68	0xbc02ccf8	-0.007983439
69	0x3aa33ffd	0.0012454983
70	0x3b13523c	0.0022479435
71	0xbba9a8df	-0.0051776017
72	0x3bb02671	0.0053756763
73	0xba0bf730	-0.0005339263
74	0x3b20544d	0.002446431
75	0x3ae54b52	0.0017493761
76	0xbb8619cc	-0.0040924307
77	0xbb88fbba	-0.004180399
78	0xbb3234a9	-0.0027192032
79	0x3bd7b4d3	0.006582835
80	0xb99e903b	-0.00030243568
81	0x3b72e21d	0.0037061044
82	0xbb35b6bd	-0.0027727329
83	0xbb915539	-0.004435208
84	0x3babd664	0.005244063
85	0xbb6c8eaa	-0.0036095777
86	0xbbe8a615	-0.0070998766
87	0x3b969abe	0.0045960834
88	0x3b68dad0	0.0035530813
89	0xbbb905c2	-0.0056464383
90	0xba3fc0dd	-0.00073148106
91	0x3b90a9eb	0.004414787
92	0x3bae7096	0.00532348
93	0xbb028b00	-0.0019919276
94	0x3b05adfd	0.0020397895
95	0x39c9c3f6	0.0003848371
96	0x3b6335e9	0.0034669584
97	0xba0b4471	-0.0005312628
98	0xbb55958c	-0.0032590358
99	0x3b2ed0f6	0.0026674843
100	0x3aa34758	0.0012457175
101	0xba0a506a	-0.0005276265
102	0x3b3eb1f8	0.0029097777
103	0xba68bcb7	-0.00088782184
104	0xbb9fc6a7	-0.004875976
105	0x3ad9427a	0.0016575598
106	0xb91eb48c	-0.00015135313
107	0xbab9eb12	-0.0014184436
108	0x3bcfbe91	0.006339856
109	0x3b8e7c68	0.0043483265
110	0xba86198b	-0.0010231001
111	0x3a3f1bdc	0.0007290223
112	0x3aeb8951	0.0017970001
113	0x3b3022d2	0.0026876223
114	0xba3cbd0a	-0.00071998
115	0xbaa154a8	-0.0012308555
116	0xbb9cd0c8	-0.004785631
117	0xbb5d74c0	-0.0033791512
118	0xbb14d5cf	-0.0022710448
119	0x3b834992	0.004006573
120	0xba24d16d	-0.00062873104
121	0x3b231a73	0.002488759
122	0xbb956767	-0.0045594457
123	0xbbd758e3	-0.0065718754
124	0xbad44c10	-0.0016196985
125	0xbaeb478d	-0.0017950401
126	0xba88207f	-0.0010385661
127	0x3a5e7ad8	0.0008486933
128	0xbb641321	-0.003480144
129	0xbb07626e	-0.0020658034
130	0x3b9e1470	0.0048242137
131	0x3bb40e48	0.0054948665
132	0xbb0ed1b4	-0.0021792473
133	0xbace3294	-0.0015731626
134	0xbb4e62b7	-0.0031491944
135	0x3b5edeea	0.003400738
136	0x3b11b237	0.0022231468
137	0xb99c0c1b	-0.00029763658
138	0xbba7f8d2	-0.0051260972
139	0x3a367bc5	0.0006961192
140	0xbb189cae	-0.0023286748
141	0xbb890fb9	-0.0041827825
142	0xba86de12	-0.0010289571
143	0xbb29226c	-0.002580787
144	0x3ba4918d	0.005022234
145	0xba5300fb	-0.00080491573
146	0xb9fd6d45	-0.00048337333
147	0x3b3bb100	0.0028639436
148	0xbb5d8703	-0.0033802397
149	0x39b95a34	0.00035353156
150	0x3b3ae248	0.0028516222
151	0xbaa48821	-0.0012552777
152	0xba43681d	-0.0007454174
153	0x3b5c59c4	0.003362284
154	0x3b7808f8	0.0037847143
155	0x3b5c0ecc	0.0033578156
156	0x3aab50a6	0.00130703
157	0xba25fc37	-0.00063318334
158	0xbb09ea09	-0.0021044037
159	0xbb9581e9	-0.0045626056
160	0xbbdf7ff7	-0.0068206745
161	0x3b2e5efd	0.002660691
162	0x3b5f18f7	0.003404198
163	0xbb9ef94d	-0.0048514963
164	0x3b88b5bd	0.0041720555
165	0x38c30f6a	9.301196e-05
166	0xbbb2f1dc	-0.005460961
167	0x39e663ac	0.0004394328
168	0x3b8e8a11	0.004349955
169	0x3ac84759	0.0015280052
170	0x3adbdb25	0.0016773684
171	0x3a84171d	0.0010077689
172	0x3a1c8188	0.00059702294
173	0x3b450687	0.0030063705
174	0xbbd5489c	-0.0065089
175	0xbbdfef9d	-0.006833984
176	0x39bab829	0.00035613895
177	0x3c0f0348	0.00872881
178	0x3b1b16d5	0.0023664732
179	0x3a94c4b3	0.0011350125
180	0x3b4ee3c6	0.003156887
181	0x39a4b62b	0.00031416243
182	0x3bc52bfe	0.006017207
183	0x3bc4d3a7	0.0060066762
184	0x397d6518	0.0002416562
185	0xbb5345bf	-0.0032237617
186	0xbb8dd21e	-0.0043280264
187	0xbaa7d036	-0.001280314
188	0xba7d157e	-0.00096543867
189	0x3ab3d118	0.0013718931
190	0xbbf09deb	-0.007343044
191	0x3b236998	0.0024934765
192	0x3a7e069f	0.00096903177
193	0x3b44f3ec	0.0030052615
194	0x3ad98a9e	0.0016597097
195	0xbb58fae4	-0.0033108527
196	0xbc19b6f3	-0.009381997
197	0xbb923c97	-0.0044627893
198	0x3aa8243c	0.0012828181
199	0x3b0336dd	0.0020021715
200	0xb901aa9f	-0.0001236596
201	0xba8755fa	-0.0010325306
202	0xbb17f96c	-0.0023189439
203	0xba5617c2	-0.00081669923
204	0x3b868296	0.0041049225
205	0x3b66cf68	0.0035218839
206	0xb8a8e0ff	-8.052773e-05
207	0x3b37ab0f	0.0028025543
208	0xbaf1475e	-0.001840811
209	0x399adf4c	0.00029539538
210	0xbb4c51b9	-0.003117664
211	0x3b742a17	0.0037256533
212	0x3b869d5c	0.004108114
213	0x3b8a3040	0.0042171776
214	0x3b6e21ab	0.0036335986
215	0xbb882958	-0.004155319
216	0x397111c2	0.00022990166
217	0xbbc38b27	-0.005967516
218	0xba345d13	-0.0006880324
219	0xbb5c9589	-0.0033658466
220	0x3b8c80d6	0.0042878194
221	0xbace9de7	-0.0015763611
222	0xbb9ae572	-0.004727059
223	0xba599dd1	-0.00083014095
224	0x3b1b2f5c	0.0023679351
225	0xbbbb68a9	-0.0057192636
226	0xbb4e3812	-0.0031466526
227	0x3b88c603	0.0041739955
228	0x3adfece7	0.0017084152
229	0xbb455223	-0.0030108772
230	0xbba0d624	-0.00490834
231	0xb9e5c3ab	-0.00043824068
232	0xba1a0d81	-0.0005876646
233	0xbafb3bab	-0.0019167563
234	0x3bba88cc	0.005692577
235	0x37d473c3	2.5326275e-05
236	0x3ba7b23d	0.005117683
237	0x3bb533d6	0.005529861
238	0xbbc08a1d	-0.0058758394
239	0x3acc2f90	0.001557814
240	0xbb894adf	-0.0041898335
241	0xbb76d1d9	-0.00376617
242	0xbb031b81	-0.0020005407
243	0xbc06f120	-0.0082362
244	0xb9ce2b31	-0.00039323562
245	0xbbc02061	-0.005863235
246	0xbb4944a8	-0.0030711088
247	0x3ba9386c	0.0051641967
248	0x3b9783ee	0.0046238815
249	0xbba57c05	-0.0050501847
250	0x3b5486e9	0.0032429046
251	0xbad80c3f	-0.0016483142
252	0x3a277a64	0.0006388782
253	0x3b07bbbc	0.0020711264
254	0xba45fe4b	-0.0007552846
255	0xbb0b6c03	-0.0021274097
