results/RollerAgent/RollerAgent/checkpoint.pt (torch, 449039 bytes, 39 tensors)

network_body._body_endoder.seq_layers.0.weight f4 [128, 8]
00000000: f414 32be 0032 0ebd 2dc3 f93e 75fe 46bf
00000010: 82c6 00bf 7e52 47be b3ab bbbe 8001 873e
00000020: dc69 823c b290 c0bd 9965 b9bc 2ff7 45bd
00000030: 3ca1 cfbd 68c2 a03d dd8d 07be 56e3 eabd
00000040: 4352 263e aa63 36be 8bbd 6a3f 07e6 263f
00000050: cd85 153e a674 f53e 7dc0 c13e 8b49 d4be
00000060: 6c0c a63e 02b1 043d 6b35 4cbc dd0b 56be
00000070: 3310 f2bd 6f48 33be 7c7d a73e 647d 333e
00000080: 2eef 863e 6168 06be 208f d6be 02d8 ba3e
00000090: 77a4 9fbe 4c4d 303f 2701 183e e880 0dbf
000000a0: 8d32 dfbc 4faf abbd f006 613e b7db 10be
000000b0: 9e9e cfbc 8453 0dbf 52ec 41ba 1634 52be
000000c0: f734 803e 0fe7 f13d 6374 1e3e 33e7 013d
000000d0: 48d9 85be 3cea a13d d73c a9be d95c 53be
000000e0: b332 b53e b056 fcbd 7e2c ce3e 742f 21bf
000000f0: 3785 cabc f14b 8a3e 181f 893b 8a0e 0c3f
00000100: a0a8 373f 5491 aa3e 0c9c 633e 7b5f 4e3e
00000110: 0224 ebbd 74cb 6fbe 0974 643b 5aff ddbd
00000120: ae3d 52be ef61 d6be edbb 73bd c4c5 4abd
00000130: 983e 923e 5053 1e3e 1e2e 97be b7a6 d0bd
00000140: 0468 cbbe a110 363f 3ad1 033e c623 5cbd
00000150: b9e7 783e 6a05 213f d2bd 33bf 4006 a5bd
00000160: 9e8e 7bbe 17ad 743e dacb 16bc 63a8 6cbf
00000170: 5fea 94be 7180 213f 2419 bebd dd45 923c
00000180: 2368 103d f57b 6d3e 3a05 b8be f33d cf3c
00000190: 536b eabd 3318 39bf 4f6d ff3d 9861 4b3e
000001a0: 89bf b7be 35df fbbe e5eb a2be 1c8d 5d3e
000001b0: 42ac b03e 39b1 f63e f135 b9bc 1202 543e
000001c0: 0f8e 943e c087 323f b39c a2be 885c 0cbf
000001d0: dcb7 1bbe 9e30 313e be43 97bd fee1 043b
000001e0: e488 b23e f9e0 7a3e 34df 4f3f 8cdc 133e
000001f0: 8190 a03e 8798 093e fe91 4ebf 888d 62be
00000200: 2b01 b23e 2d2a b0be f3ad 093e aad7 363d
00000210: b03b c13e 0f9d 6dbe c084 4bbe 9216 d73e
00000220: d71d e93e ff9a 9b3d 36f7 703e d89d f53c
00000230: d42f 32be a0f9 49be 935f 063f 5e33 8c3e
00000240: cb0c 01bf e549 393f 755f 6abe d4e6 483e
00000250: bac6 3c3f 81eb 19bd 33d4 673f d6ba 2cbf
00000260: 357c fabe 6a96 c13e ab40 b8bd 7a45 823e
00000270: 269f 843d 10a6 5dbe 93f7 da3e 67b4 e23e
00000280: fc8e 9ebe 0cd7 a33d 5945 d1be 9ecb c6be
00000290: b264 303e 5cda 933e f052 2dbe 68e1 0cbd
000002a0: 5ac2 f8bc 4116 12bd df83 ff3e b461 873e
000002b0: 3586 3d3e 8d2f bdbe 61fd b23b 7e3d 363f
000002c0: 11e5 643e 0124 b9be 51dc bdbe d4c4 84be
000002d0: 12b6 423f dcab 4c3d e08e 94be 373d 213f
000002e0: 2999 10bd 3b1e 6e3d 6a29 0ebd d4be 113e
000002f0: b957 02bf 25dd 93be e0ad b03d 2911 93bd
00000300: 2ea9 b73e 8047 b93e 23e8 89bf c77e debd
00000310: a3ac 4e3f 8411 9a3e f2ee 3dbf 7160 043f
00000320: c6ba 8dbe 64f8 443f 50dd f73d 3006 963e
00000330: e6c9 9f3e 230c 0ebe c4d2 993e 293b 963e
00000340: bde6 2fbe f243 903d eaf5 d33d 666c 30bd
00000350: 5fd1 a9bd ffb9 adbd b209 9b3e f0a0 4d3e
00000360: 0e2c 563e 1ca1 cebe cb25 93be 6741 b8bd
00000370: bbd0 f33d 6cef d93d 3152 17bf 6124 f4be
00000380: 4e8c d83e ff2e e23e ba55 5dbe 6b1a 98be
00000390: e18c 14be e312 14bd b6ca e53e 07c0 95be
000003a0: 20c0 a1bf 75c2 433e ef8c bb3e 2428 6c3e
000003b0: 2563 cf3e 1cdd 023e 2c21 74be d65e ab3d
000003c0: ec2b aebe 057c 333f 9ec8 6c3e f820 18bf
000003d0: 5c4a 8b3e b11e 063f a63c b63d 0c8d 34bc
000003e0: 235d 8abe 9e3f 2bbf 2715 e93e eddb febc
000003f0: 8cb4 2dbe a446 003e cd0c 3c3e a7bd 4abe
-0.17390805 -0.034715652 0.4878172 -0.7773202 -0.503029 -0.19465062 -0.36654434 0.26368332
0.015919618 -0.094025984 -0.022631453 -0.048331436 -0.10138175 0.0784958 -0.1323771 -0.11469142
0.16242318 -0.17811456 0.9169547 0.65194744 0.14601822 0.47940558 0.3784217 -0.4146236
0.32431352 0.03239537 -0.012463908 -0.20902963 -0.11819496 -0.175081 0.32712924 0.17528301
0.26354355 -0.13125755 -0.4190607 0.36492926 -0.31180164 0.68867946 0.1484419 -0.5527482
-0.027245784 -0.08383047 0.21975303 -0.14146315 -0.02534419 -0.5520556 -0.000739758 -0.20527682
0.2504041 0.11811649 0.15474086 0.03171463 -0.26142335 0.07906005 -0.3305423 -0.20640887
0.35390243 -0.12321222 0.4026832 -0.6296303 -0.024721725 0.27011064 0.004184615 0.54709685
0.71741676 0.33314002 0.22227496 0.2015361 -0.11481477 -0.23417455 0.0034859201 -0.1083972
-0.20531341 -0.41871592 -0.059505392 -0.04950501 0.2856338 0.15461469 -0.29527372 -0.10188048
-0.39727795 0.71119124 0.12872782 -0.053745054 0.24307145 0.62898886 -0.7021152 -0.08057833
-0.24566123 0.23894154 -0.009203875 -0.9244444 -0.2908506 0.6308661 -0.09282139 0.017855579
0.035255563 0.23191817 -0.35941488 0.025298094 -0.11446252 -0.7230255 0.12472021 0.19861448
-0.35888317 -0.4919373 -0.31820598 0.2163586 0.34506422 0.48182085 -0.02260873 0.20703915
0.29014632 0.6973839 -0.31760177 -0.5482869 -0.15206856 0.17303702 -0.07385968 0.0020276303
0.34870064 0.24499883 0.81199956 0.144396 0.31360248 0.13437091 -0.80691516 -0.22124302
0.34766516 -0.34407178 0.13445263 0.044639267 0.3774085 -0.23204444 -0.19874859 0.42009407
0.45530578 0.075979225 0.23531803 0.029982492 -0.17401057 -0.1972413 0.52489585 0.2738294
-0.50410146 0.7237838 -0.22887976 0.19619304 0.7374073 -0.03757811 0.90558165 -0.6747259
-0.48922887 0.3781007 -0.089967094 0.2544363 0.06475668 -0.21645379 0.4276701 0.4427826
-0.30968463 0.08000001 -0.4087322 -0.38827223 0.17225912 0.28877532 -0.1692617 -0.03439465
-0.030366112 -0.035665754 0.49905297 0.2644173 0.18508227 -0.3695034 0.005462334 0.7118758
0.22353007 -0.3616028 -0.3708215 -0.25931418 0.7605907 0.049968585 -0.29015255 0.6298403
-0.035302315 0.0581343 -0.034707464 0.14232951 -0.50915104 -0.28879657 0.08626914 -0.071810074
0.3587126 0.36187363 -1.0773968 -0.108640246 0.8073217 0.30091488 -0.74192727 0.5170966
-0.2768156 0.76941514 0.12102759 0.29301596 0.31208724 -0.13871817 0.30043614 0.2934201
-0.17177863 0.070442095 0.10349639 -0.043072127 -0.082918875 -0.084827416 0.30280834 0.20080924
0.20915243 -0.40357292 -0.2873977 -0.089968495 0.119050466 0.10641369 -0.5910979 -0.47684005
0.42294544 0.4417648 -0.21614733 -0.29707655 -0.14506866 -0.036150824 0.4488122 -0.29248068
-1.2636757 0.19117148 0.3663096 0.23062187 0.4050533 0.12779659 -0.23840779 0.08367698
-0.34017885 0.70111114 0.23123404 -0.59425306 0.2720517 0.5239058 0.088982865 -0.011019956
-0.27024183 -0.6689395 0.4552395 -0.031110728 -0.16963404 0.12526947 0.18364258 -0.19798909

network_body._body_endoder.seq_layers.0.bias f4 [128]
00000000: 3917 85bd 61df 02bc e96c 8cbc 5e5c 62bc
00000010: 59fa 2cbc 3db7 81bb 9ddc 943c d06e 6739
00000020: fc1a 4cbd bd44 9cbc edc7 76bd dfcf 113c
00000030: 35fd c3bb dd1c d03c 9a6b 3a3d 0e20 473c
00000040: fc69 01bd ca04 81bc e0a3 dd3b 7c32 a93b
00000050: 334a 1fbd 7286 30ba 39db 423d 6576 18bc
00000060: b93a 063d 7334 88bd 7537 74bc dfb0 56bc
00000070: 822a 7e3c 6043 12bd 44fe d3bc 31bc d9bc
00000080: 862d 2bbc 0504 21bc 86dc b1bb 574c 36bc
00000090: a647 b73c 97d3 af3c c4b4 1fbd 49e2 88bc
000000a0: 7739 2bbd a2e2 5e3c e493 06bc e10e 2d3d
000000b0: 085b b6bb 3df8 92bc 3d50 a63c b74b d6bc
000000c0: ab61 32bc 4a2b 1ebd 2b5b 0d3d 8019 adbb
000000d0: 6a21 433d 7611 823d 6a0d d6bb eb95 1ebd
000000e0: a023 5a3b 5a4d 9bba 2879 29bd 9078 5c3c
000000f0: cf17 1bbd c194 d73c ef6d 233d 0081 84bc
00000100: f6b4 dbbc 8e19 5bbd 79ad b2bc b900 b73c
00000110: 9885 8abc 75fc 973c afb3 0abc e43d bdbc
00000120: fbea 97bb a509 143d 98b6 8a39 326a 803c
00000130: d837 2ebd 8e66 44bd f814 0bbc 5c5d d0bc
00000140: bf81 383c 4dce babc 944e 113d 7ef8 5bbb
00000150: 43bf 5ebb 8a17 b6ba 28e8 65bd 76fd b238
00000160: bf86 54bc e8d7 093d b9e1 5ebd 89ed babc
00000170: 14ff cabc a070 fbbc 8b9d c5ba 71f9 adbc
00000180: 0544 e8bc 48a0 63bd 0858 213a 1367 92ba
00000190: 4fb4 a2bc f93e 0a3c f8b5 9bba ac9c 15bc
000001a0: 6850 ad3c bf51 dabc 8551 703c 817e ee3c
000001b0: 6032 843c 1768 d4bc 761d ffbc f62b 0bbd
000001c0: a6d0 06bd 7642 29bd 75d6 683c 9f1f 0bbd
000001d0: d096 9fbc 5518 f33c dd92 b2bc 83a3 ec3b
000001e0: 1d02 803c e055 ecbc 914f 30bd bb62 ffbc
000001f0: e998 64bc e5fe e53c 2ee4 63bc f70a 0a3d
-0.0649857 -0.007987828 -0.017141776 -0.013815967 -0.010557734 -0.0039586113 0.018171603 0.00022071158
-0.04983042 -0.019075746 -0.060249258 0.008899658 -0.0059811124 0.025404388 0.045512773 0.0121536385
-0.031595215 -0.015749354 0.00676392 0.005163489 -0.03888912 -0.0006733901 0.04757235 -0.009305571
0.032770846 -0.06650629 -0.0149058 -0.013103693 0.015513064 -0.035708785 -0.02587808 -0.026578994
-0.010447865 -0.0098276185 -0.0054279 -0.011126599 0.022373032 0.021463199 -0.03899075 -0.016709464
-0.04180285 0.013603838 -0.008213971 0.042250518 -0.005565051 -0.017940635 0.020301932 -0.02615915
-0.010887544 -0.038615502 0.034510773 -0.005282581 0.047639288 0.06350987 -0.006532361 -0.03871719
0.0033285394 -0.0011848614 -0.04137531 0.013456479 -0.037864503 0.026316049 0.039899763 -0.016174793
-0.026819687 -0.053491168 -0.021811234 0.022339212 -0.016909406 0.018552998 -0.0084656915 -0.0231008
-0.004636166 0.03614201 0.00026457454 0.015675638 -0.042533726 -0.047949366 -0.008488886 -0.025435142
0.011261403 -0.02280345 0.03547533 -0.003356486 -0.0033988513 -0.0013892513 -0.056129605 8.534912e-05
-0.012971579 0.03365317 -0.054414485 -0.022818344 -0.024779834 -0.030693352 -0.0015076859 -0.021237107
-0.028352747 -0.055572778 0.000615478 -0.0011169635 -0.019861368 0.008437865 -0.0011879792 -0.009131592
0.021156505 -0.026650308 0.014667873 0.029113056 0.016137302 -0.02592854 -0.031141978 -0.03397747
-0.032913826 -0.041323148 0.014211287 -0.033965703 -0.019481093 0.029674688 -0.021798545 0.0072216406
0.015626008 -0.028849542 -0.04304463 -0.031175008 -0.013952472 0.028075645 -0.013909383 0.033701863

network_body._body_endoder.seq_layers.2.weight f4 [128, 128]
00000000: af10 91bb d557 883c 57be 0d3e bdd3 0a3d
00000010: fc14 22bd 0edc 03bd 3ba8 40bc dd48 c6bc
00000020: 1d71 4c3c c260 87bd 959c 863d 0c1a a9bb
00000030: 32b7 b33d 73b7 183e 47d0 ef3c eb08 2e3d
00000040: 5110 273e decc b2bd fee0 05bd 393d 10bc
00000050: 4cc1 8cbd db02 6c3d f317 b4bd 3267 37ba
00000060: 0c28 bbbd d60f 08bd eecd 45bd 3425 1bbd
00000070: 835d 8abd 11e0 4ebd 1df5 23be ea37 ee3d
00000080: cc40 1c3e 15e9 8abd 437e 2b3e c7d1 0b3d
00000090: 5f19 a03d ab10 973d de8c 903c b2db cc3c
000000a0: e82e c2bd c71d b6bd ef78 e93c a11a adbd
000000b0: 6a20 bf3a 7614 a3bd 2e51 ad3a c19d 48bd
000000c0: e0b0 d93d 2243 b83d 5ec2 f6bd 58b5 78bd
000000d0: d42b c7bc 80b6 1b3d ff4d d73c c8c1 2c3d
000000e0: 24ce febd 4c15 c23d b85f 043b 0bef 2a3d
000000f0: 9ed2 75bd 61a4 64bd f6f8 843d bf20 dc3d
00000100: 81b1 40bd 5f37 b0bc 98ba 06be 90b2 ff3d
00000110: 768e 35bd 51ec 3fbc 1b53 19bd 4b23 4dbd
00000120: d13d dabd 96a1 21be a593 a3bd a2f8 853d
00000130: c59b 35bc 64cb c5bc 0b8c 9b3d 96e6 2f3d
00000140: f21c a43c db85 fdbc 289d 9fbd a9df d53d
00000150: 76ae 513d 9cec e2bd 2673 223e a7e4 dd3d
00000160: 9530 353e ba88 f13c 5ba9 963d ee0e efba
00000170: 5fbf d5bd 378d 2abe abaa 803d 2294 febd
00000180: 816e 11be df20 f7bc 1285 3c3e e8d7 c5bd
00000190: 445b b83d c2af e5bd 3203 1bbe 8fe8 7a3d
000001a0: a48d a3bd 7a06 fdbc da66 e83c 76a3 c23d
000001b0: ff31 023e d46c 873d 6a65 b73d d6e3 1e3e
000001c0: 4ca8 a2bd 5434 3b3e 9b35 323b 0a6a 693c
000001d0: b2bb 8b3b ca80 b83d 2009 e2bc d9c6 f1bd
000001e0: 9354 c33b e09c 4cbd 9274 15be 5ffa cfbd
000001f0: 53b9 b53b b895 dc3d cd89 773b d4db 04bd
00000200: 2c21 183e e067 c8bd 23b5 c7bd 0499 413d
00000210: 2c3a a1bd 024a a5bd 4cae 543d 38d3 b53d
00000220: 3978 28bb ba3e 273d e5a9 f03d 1891 fabd
00000230: 6938 3c3d 93a7 04be 14ee 1ebe 2d81 b23d
00000240: 70a2 5c3e 8025 ae3d e517 3cbb 52b8 41bd
00000250: 78dc 52bd 1ee9 8d3c 7eae c33c 4b09 c1ba
00000260: 6515 48bd 493a a3bd 2916 afbb 0d87 033d
00000270: 5ff2 3b3e f26d 18be 1855 a7bd b05e 933d
00000280: 0d57 f43d 0a9c 6e3d f6bb ab3b 60ab 8d3c
00000290: 8f59 3abd 74bf d1bb 1cda 34be 2a18 3e3e
000002a0: 4bed 863b a209 743d 146e b4bd 7c66 0a3d
000002b0: 8e53 bc3c e7e3 80bd 2b2f d7bd 698b 98bd
000002c0: 34ad cb3c 3e25 c3bd b8de 333e 7c29 8abd
000002d0: 233f bf3d 4a10 fdbc 4524 61be 140d d2bd
000002e0: 1f07 00be b640 69bd b972 f53c 3428 f5bc
000002f0: b6b1 e63b 38bc b338 2602 a0bd d33d d0bd
00000300: 5367 f2bd 9600 833c 0270 19be 2e68 ec39
00000310: f880 753d 4e37 2b3d 71fd a73c dd69 1fbd
00000320: f71b 90bc 1d19 48bd d81e 32bc 583a 55bd
00000330: 3b28 1dbd de06 c7bd aa47 273c 79ff f6bd
00000340: c9e7 57bd 329f 453d b1e4 b63d 8d74 d13d
00000350: e7fe bcbd ab57 3abe 3e76 08bc 170d cc3d
00000360: 5a47 87bb d963 f83c 1304 b3bd 3745 053e
00000370: 424e 56ba 05c1 65bd 3588 043e cf50 84bd
00000380: 2329 8dbd 0e34 c3bc 96a8 a9bd 4c71 f1bd
00000390: 1d8b e4bb 8454 0abb 3773 aa3d 9bf1 10bd
000003a0: a921 9e3d 687f c33d 4d6f 1abe f471 723d
000003b0: 536b 49bd c54b 003e 9e4f e0bb 6a85 02bb
000003c0: 0f53 10be a706 aebc b1e1 123d 0b2e 76bd
000003d0: ac74 cbbc 9980 e1bd 8462 02be 94e4 f53d
000003e0: e865 aabd 5cc8 4cbe 9c6a e03b 6760 3a3d
000003f0: 33f6 3f3d 48c2 403e 3724 783c de2c 02be
-0.0044270377 0.016643444 0.1384214 0.033893336 -0.039570794 -0.032192282 -0.011758859 -0.024204666
0.01247814 -0.06610252 0.065728344 -0.0051605757 0.08775176 0.1491373 0.029274119 0.042488974
0.16314818 -0.087304816 -0.032685272 -0.008803659 -0.06872806 0.05761991 -0.087936305 -0.00069962733
-0.09138498 -0.033218227 -0.048292093 -0.037877277 -0.06756117 -0.050506655 -0.16011472 0.116317585
0.15259093 -0.06782738 0.16747384 0.034135606 0.07817339 0.07376226 0.017645296 0.025007103
-0.09481603 -0.08892398 0.028500048 -0.08452345 0.0014581804 -0.07962887 0.0013223046 -0.04897857
0.10629439 0.089971796 -0.12048791 -0.060719818 -0.024312891 0.038015842 0.026282309 0.04217699
-0.12441662 0.09476718 0.0020198654 0.041731875 -0.060015313 -0.055820826 0.06492798 0.10748433
-0.04704428 -0.021510778 -0.13157117 0.1248523 -0.044325314 -0.011714057 -0.03743277 -0.050082486
-0.10656322 -0.15784296 -0.07987145 0.065415636 -0.011084502 -0.024144836 0.075950705 0.042944513
0.020033333 -0.030947616 -0.07793647 0.104430504 0.05119177 -0.11080286 0.15864238 0.108346276
0.17694314 0.029484142 0.07356521 -0.0018238702 -0.10436892 -0.16655432 0.06282552 -0.12430598
-0.1420231 -0.030167041 0.18410137 -0.096603215 0.090017825 -0.11215164 -0.15137938 0.06125694
-0.07986 -0.030886877 0.028369356 0.09503834 0.12714384 0.06612554 0.0895489 0.155166
-0.07942256 0.1828168 0.0027192596 0.014246473 0.0042643184 0.090089396 -0.027592242 -0.11805505
0.0059610098 -0.049954295 -0.1459525 -0.10155176 0.005545774 0.10770744 0.0037771345 -0.032436207
0.14856404 -0.097854376 -0.09751346 0.047265068 -0.078724235 -0.080707565 0.051924035 0.088781774
-0.0025706424 0.040831305 0.11751155 -0.12234706 0.045952234 -0.1295455 -0.15520507 0.087160446
0.2154634 0.08503246 -0.0028700766 -0.047294922 -0.051479787 0.017323073 0.023886915 -0.0014727501
-0.04884853 -0.079701014 -0.005343218 0.032111216 0.18354176 -0.14885691 -0.08170527 0.071957946
0.11930666 0.05825428 0.0052409125 0.017293632 -0.045495566 -0.006400997 -0.17661327 0.18563905
0.004117643 0.0595795 -0.08810058 0.033789143 0.02298906 -0.06293469 -0.105070435 -0.074484654
0.024862863 -0.09528588 0.17565429 -0.06746194 0.09338214 -0.030891556 -0.21986492 -0.10256401
-0.12502716 -0.05694648 0.02996193 -0.029926397 0.0070402278 8.5704436e-05 -0.0781291 -0.10168042
-0.11836114 0.01599149 -0.14984134 0.00045091048 0.059937447 0.04180079 0.020506592 -0.03891932
-0.01759146 -0.048852075 -0.010871612 -0.052057594 -0.038368445 -0.09718107 0.010209957 -0.12060446
-0.052711282 0.048247524 0.08930338 0.102273084 -0.09228306 -0.18197505 -0.008328972 0.09963434
-0.004128379 0.030321049 -0.087410115 0.13014685 -0.00081751135 -0.05609228 0.12942584 -0.064607255
-0.06892612 -0.023828533 -0.08284108 -0.11789188 -0.0069745914 -0.0021107504 0.08322757 -0.035386663
0.07721264 0.09545785 -0.1508152 0.059190705 -0.049174618 0.12528904 -0.0068454286 -0.0019915947
-0.14094184 -0.021243406 0.035859767 -0.060102504 -0.024835907 -0.11010856 -0.12732893 0.120064884
-0.08320218 -0.19998306 0.0068486463 0.045502093 0.046865653 0.18824112 0.015145353 -0.12712428

network_body._body_endoder.seq_layers.2.bias f4 [128]
00000000: eea0 bcbb f969 093d f993 01bd 10dd 6c3c
00000010: 5d77 3a3c a527 01bb 2b03 83bb 7ff2 1cbc
00000020: a0b3 8dbc 857a bb3c 34bf 04bc 030f 98bc
00000030: bc0b d4bc b0dd a5b9 c232 ccbc 55f7 263b
00000040: 4ded f03c e8f2 803c a94d 1fbd e008 57bd
00000050: f00c 1cbc de8a 06bd fc40 0d3c 2027 6ebc
00000060: dd5a dabb 0fac 0ebd 1453 0abd 772d bdbc
00000070: 12d1 d7bb 370e bb3c 0d74 203d 6aa9 1e39
00000080: e4d9 cbbc 41ab 483d 6f70 023d d075 8ebc
00000090: c2ea 00bc bdf4 5dbb 4eb0 8ebc 024c 7bbc
000000a0: 48a3 ae3c 45dc 9c3c d00a d4bc 8b73 4e3c
000000b0: fec2 5cbd de78 013d 4368 cf39 7611 883d
000000c0: f341 9bbc cda7 2b3d 6985 96bc 475f e83c
000000d0: 41b5 993b 8b83 033d 6d2d fd3c 5501 a2bb
000000e0: 6509 c83c 0146 d6bc 0346 f53b 0874 60bc
000000f0: 0082 c03b 5bb8 303c a837 763c 1ca3 52bd
00000100: a32d 2abc 4ffe f4bb 5ddf d3bb 20a1 ad3c
00000110: bab9 083c 6a09 cf3c a3f8 64bc b417 bf3c
00000120: 1b49 9b3a 8f47 d03c 32bd 4f3c 900a 5fbc
00000130: 2997 24bd fd8b 01bc f866 f9bb 5837 2838
00000140: 8562 45bc a55f fc3b 6a1f 923c e98b cf3c
00000150: 6e9a 803b 5104 dcbc 8e81 6a3b 80e9 51bc
00000160: 2c9c 6f3b 9007 ce3c d147 0ebd 47c3 0cbc
00000170: 5e04 20bd 29b9 efbc 133e ee3c b2f3 5d3b
00000180: 4d53 1abd c9f0 043a 3724 053d 901f ee3a
00000190: 74e0 7f3c d278 1abc 8661 afbc 0cf4 723b
000001a0: 434d 8dbc 0c53 863c 9638 22bb 8c1c 21bc
000001b0: ef4b 82bc e50d b83c ba91 2f3c 0c7d 39bd
000001c0: e735 b4bb 44d9 083c 1f80 2d3c c2de 1e3c
000001d0: 1f97 e43c 5efd a0bb faba 8fb9 a64c 34bc
000001e0: 5092 3b3c 541c 9abc e287 a6bc d487 eb3a
000001f0: a480 063b 0bde 843c fbcc 843b d19c 313d
-0.005756489 0.03354833 -0.03163526 0.014457002 0.0113809975 -0.0019707468 -0.0039981804 -0.0095793
-0.017297566 0.02288557 -0.008102227 -0.018561846 -0.025884502 -0.00031636423 -0.024926547 0.0025477011
0.029410029 0.015740827 -0.038892422 -0.0524987 -0.009524569 -0.032847278 0.0086214505 -0.014535695
-0.006663664 -0.034832057 -0.033770636 -0.023092968 -0.0065862024 0.022833927 0.039173175 0.00015131166
-0.024884172 0.048991445 0.031845506 -0.017390162 -0.007868471 -0.00338678 -0.017418053 -0.015337946
0.021318093 0.019148001 -0.025884062 0.01260079 -0.053896897 0.03160941 0.00039559798 0.066439554
-0.018952345 0.041908074 -0.018374162 0.028365744 0.0046907966 0.03210787 0.03090545 -0.0049440064
0.024418542 -0.026156427 0.0074851527 -0.013699539 0.005874872 0.010786141 0.015027918 -0.051425084
-0.010386857 -0.007476605 -0.006465836 0.021194994 0.008345062 0.025273044 -0.013975295 0.023326732
0.0011847349 0.025424747 0.012679385 -0.013613358 -0.04018322 -0.007906911 -0.007611152 4.0105864e-05
-0.012047415 0.0077018314 0.017837245 0.025335269 0.0039246595 -0.026857527 0.0035782787 -0.012812018
0.0036561592 0.02515009 -0.03473646 -0.00859148 -0.039066665 -0.029263096 0.029082334 0.0033867178
-0.037677098 0.000507128 0.03250524 0.0018167365 0.015617479 -0.00942822 -0.021408807 0.0037071733
-0.017248755 0.016397022 -0.0024752966 -0.009833466 -0.015905349 0.022467563 0.010715896 -0.04528527
-0.0054995897 0.008352581 0.0105896285 0.009696664 0.027904091 -0.004913016 -0.00027414394 -0.011004603
0.011448458 -0.018812336 -0.020328466 0.0017969557 0.0020523453 0.01621916 0.004052756 0.043362442

action_model._continuous_distribution.log_sigma f4 [1, 2]
00000000: 2ab0 b9bc fd47 26bd
-0.02266701 -0.040595997

action_model._continuous_distribution.mu.weight f4 [2, 128]
00000000: 7b6c a8bc 6ad5 723d eef9 e6bc 1408 863d
00000010: 44dc 89bd 9af6 713c 2f73 0f3d 6b06 1e3c
00000020: 2549 84bc 5693 a7bd 00fc 623a 0972 beba
00000030: 0df6 4d3b 665d b23c 0eaf c9bc 7d29 ea3b
00000040: 8695 343d 89fa f83c 3d63 0abd 7dc1 f0b9
00000050: f8cb a8bc ce59 70bc cd79 253d 2fb9 7fbc
00000060: c94c adbc 8d5d 12bb 2630 0c3c 4e4d 903c
00000070: 026b f53b 4781 9fbb a4a0 db3d 68f4 243d
00000080: 7726 53bc 3367 2c3d 02cf 023d c700 7fbc
00000090: 7dac d4ba 422e b2bc af99 6a3c 3977 99bc
000000a0: df2e c3bc 995c 3a3c 1261 cebc af95 e4bc
000000b0: c23a 42bc 25aa 0ebb 6d5c dabb 454b 813d
000000c0: 5fba 84bc dfd5 88bd db9f 8e3c 4780 54bd
000000d0: 4d08 d039 4e89 653d 3ea9 1b3d fc94 a339
000000e0: f682 ac3c 6976 22bb 7051 1abd 43a0 cd3a
000000f0: 28bc 313d 3948 52bc 33ad 273c 9b74 a8bb
00000100: ba61 623b 03b5 7c39 c53f 043c e4d7 293d
00000110: 93c7 26bc 4bdc 363d 9d18 92bc da73 723b
00000120: 7692 453d f589 713d ca8a 9dbc 9604 72bc
00000130: c885 5f3b f549 dbbc fb44 d4bc 7b07 d7bb
00000140: 6d3f 54bd 9cfa 0c3d c591 193d cf86 e43c
00000150: ac45 d2bc b7b5 7b3c 2100 c3bc 926d 76bc
00000160: 6dd4 043d 8166 1ebd 408f bf3a 9435 14bd
00000170: 0ee4 7fbc c558 3abb dc5c 0e3c 72a1 28bc
00000180: bf0d e8bb 6c20 1dbc 0f24 1b3d a297 0dbc
00000190: e611 30bd 8ec7 e3bc cd13 99bc 3d9a 083d
000001a0: 6043 80bd 416b 433d 4287 30bc 13c7 0f3c
000001b0: 6a23 16bc 16fd 70bc 85bf 0d3d 5975 aeba
000001c0: 3a99 14bd ab45 363d 03f5 e9bc 5193 33bd
000001d0: e67b 7cbd db1c 1ebd b629 133d 6f46 9dba
000001e0: 80d7 d3bc db87 63bc 5f62 afbc aa06 3d3c
000001f0: 712e 713d 34b0 ab3d ac8f 023d 153c ad3d
00000200: 5e79 0d3d 9372 a83c 4137 663c 8075 083d
00000210: dd7d 12bd 126c c73c f2cb 67bc 614a d63c
00000220: 20e6 843c eb37 a83c 736a 033d 8a40 20bd
00000230: 67fb 9b3b ef05 47bc 7996 07bc e090 083d
00000240: da12 2dbb a4ac 653d 9536 1a3b b16f 3939
00000250: 1938 98bc 2a4b 773c 18bf 96bc 758c 913c
00000260: c765 443d 2b3a 0a3c bfae ae3b 7f28 ba3c
00000270: 618f 2ebd 05b5 87bd 5996 fe3b 5bae fc3c
00000280: a42b 82bc c8d6 d93d 6333 2abd 80e9 433b
00000290: 3035 2bbd 3839 12bc 9b95 383c 8637 b5bb
000002a0: e6c4 d23c f664 1ebd 23e0 1cbc 3521 40bd
000002b0: 3ee6 b039 c625 9b3d 7ef3 3a3d 8ee7 4cbd
000002c0: 7feb de3a a45a 9c3b ac80 7aba aa4d 7cbd
000002d0: 094b 20bd 77cc b3bc 0f76 443d 600e 99bb
000002e0: d4d3 ec3c d71d 1e3c 47f2 11bd 049b 883c
000002f0: e9fd 08bd 3e8e 283d c564 8a3d 5a09 db3b
00000300: 7700 103d fe6c 743c ad60 bd3b 9294 26bd
00000310: 2146 5f3d 82be a1bc 41f4 413d 2de5 35bd
00000320: 0c93 9ebc 00ca c63c 274a 523d 1546 a63c
00000330: 94a3 16bb e328 0bbd 3784 f3bc 774a 2d3d
00000340: cdaf f6ba 0b0e 36bc b056 373d 9a28 d73c
00000350: 2312 98bc 28f8 7c3c 45b2 70bc 135f 2cbd
00000360: 4648 ff3b 25b5 423d 9112 a5bc f59d a83a
00000370: 5017 a13b efc5 b33c ac41 033d 29c1 c13c
00000380: 4a3b 4cbc 8e79 043d 80c1 183d f3d8 2d3d
00000390: d09a 9e3c a3cc 6cbb 056e 813c bf5f b3bc
000003a0: bbb4 43bd 51a2 993c 071b 253d f735 b7bc
000003b0: 0955 963c a1d5 5d3d 3021 63bd 323c 6a3b
000003c0: 0ca6 d23a fd89 093c 1a82 9abc e136 8bbc
000003d0: ea20 453d 7c07 a9bc 7c24 1a3d f430 ebbc
000003e0: ba4c 21bd 450b f93c 1ba9 89bc 3894 2e3d
000003f0: c865 59bc a37a c0bc bf24 5138 f20b 6d3c
-0.02055954 0.05928556 -0.028195348 0.065445095 -0.067314655 0.014768267 0.035021957 0.009645085
-0.01614816 -0.08182399 0.0008658767 -0.0014529835 0.0031427175 0.021773051 -0.024619605 0.007146059
0.04408791 0.030392902 -0.033786047 -0.00045920527 -0.020605072 -0.014669849 0.04039936 -0.015608116
-0.021154778 -0.0022333593 0.008556401 0.017614987 0.007489563 -0.004867706 0.10723999 0.040272146
-0.012887589 0.042090606 0.0319357 -0.01556415 -0.0016225722 -0.021750573 0.014318868 -0.018733608
-0.02382606 0.011374616 -0.025192771 -0.027903406 -0.011854829 -0.0021768895 -0.00666385 0.06313185
-0.01620215 -0.06681418 0.01741021 -0.051880147 0.00039679036 0.056039147 0.0380032 0.00031200785
0.02105854 -0.0024789816 -0.03767532 0.001568802 0.04339233 -0.012834602 0.010234165 -0.0051408536
0.0034543113 0.00024100025 0.0080718445 0.041465655 -0.010179418 0.04464368 -0.017834002 0.0036995322
0.04823538 0.058969457 -0.019231219 -0.014771601 0.003410684 -0.026768664 -0.025911799 -0.006562171
-0.0518183 0.034418687 0.037492532 0.027896313 -0.025667988 0.015363148 -0.023803772 -0.015040772
0.032429148 -0.038671974 0.0014614835 -0.03618391 -0.015618337 -0.0028434258 0.008689132 -0.010292398
-0.007081717 -0.0095902495 0.037876185 -0.008642109 -0.04298582 -0.027805116 -0.0186862 0.033350218
-0.06262851 0.047709707 -0.0107744355 0.00877549 -0.009163717 -0.014708778 0.034606475 -0.0013310119
-0.03627894 0.044500034 -0.028559214 -0.043841664 -0.061641596 -0.038601737 0.03592845 -0.001199914
-0.025859594 -0.013887371 -0.021409212 0.011537233 0.05888218 0.083832175 0.031875297 0.08458725
0.034539573 0.020562446 0.0140512595 0.03331518 -0.035764564 0.024343524 -0.014147745 0.026158514
0.016223013 0.020534476 0.03208394 -0.03912405 0.004760194 -0.012147411 -0.008275622 0.03334129
-0.0026408941 0.056072846 0.0023531069 0.00017684583 -0.018581437 0.015093604 -0.018401667 0.01776717
0.047948625 0.00843672 0.00533089 0.022724388 -0.042617206 -0.066263236 0.0077693877 0.030844858
-0.01588995 0.106366694 -0.041552912 0.0029893816 -0.04179877 -0.008924775 0.0112661375 -0.0055303006
0.025728654 -0.038670503 -0.009574923 -0.04690667 0.0003374088 0.07575564 0.04564237 -0.050025515
0.0017007439 0.0047715474 -0.0009555917 -0.061597504 -0.03913406 -0.021948082 0.047964152 -0.004670903
0.028909601 0.009650669 -0.035631444 0.01667548 -0.033445273 0.041151278 0.067575015 0.0066844644
0.035156693 0.014918564 0.005779347 -0.04066903 0.05451024 -0.019744162 0.04735208 -0.044408012
-0.019357227 0.024266243 0.05134025 0.02029709 -0.0022985684 -0.03397454 -0.02972613 0.042307343
-0.0018820703 -0.011111747 0.044760406 0.026264478 -0.018563336 0.015440024 -0.01469094 -0.042082857
0.007790598 0.047536034 -0.020150455 0.0012864458 0.004916109 0.021944968 0.03204505 0.023651676
-0.0124653075 0.032342486 0.03729391 0.042443227 0.01936093 -0.0036132715 0.015799532 -0.021896241
-0.04777978 0.018754156 0.04030898 -0.0223646 0.018351095 0.05415881 -0.055451572 0.0035741446
0.0016071214 0.008394715 -0.018860865 -0.016993942 0.048127092 -0.020633452 0.03763245 -0.028709866
-0.039379813 0.030400882 -0.016804269 0.04262182 -0.013268895 -0.023495978 4.9863705e-05 0.01446818

action_model._continuous_distribution.mu.bias f4 [2]
00000000: a5ba 1f3c a8ee b7ba
0.009749089 -0.0014032917

action_model._discrete_distribution.branches.0.weight f4 [1, 128]
00000000: 1a39 e5ba 5b39 593b 787a 26bc 6a24 28bc
00000010: d63c b83c 74f7 883c 60a4 073c cd00 ee3b
00000020: 5f5e 1b3c c76f 673a f7b5 1cbc 35f9 813c
00000030: 4a99 6bbb ca5e debb 68de 953b 921b ad3c
00000040: 5fd3 653a 8f0b 1c3c 73a2 e0b9 bb83 99bb
00000050: 30ae 8bba 7b60 f13b 21a1 85bb feac 983b
00000060: 1380 a8bb 2432 acbb 0641 453c 77f1 c13b
00000070: e77e d6bb 5aa6 a6bb d02a fa3b cf10 9d3b
00000080: ab45 afbb 265c c2bb 3369 693c 11ce 3d39
00000090: 7f4c f93a 85b1 01bc 1bce 9bbb 8fa8 a53c
000000a0: 3b1e e33b 6ee2 3c3a c039 02bc 0d68 db3b
000000b0: e80b 2f3c 7fbe 97ba a050 5b3b f717 e2bb
000000c0: 8156 463b d989 c73b 413d 1ebb 7202 03bc
000000d0: 7838 033b cf45 d33b 7c20 213a b5b2 32bc
000000e0: 2e25 c9ba 0f73 09bc 6a01 ba3b b218 daba
000000f0: ef88 10bc 89d0 913a 6038 803b e7e9 afbb
00000100: d70f 1abb 9dbe 3c3c 9a03 12bc cd29 3ebc
00000110: cf1c 44bc b3c3 953a c331 cfbb 4835 2f3c
00000120: cfba 083c 03d4 853c ad91 fabb 91f0 21bc
00000130: c25e e33b abf4 fb39 c5e5 e4bb e299 d3bb
00000140: b76e 10bc 6b25 2e3b 12e3 2abc 6066 ddba
00000150: 4f14 9a3b 9d3a e4bb f045 76bc 72fe 383c
00000160: bf20 403c f72f 12bb 8553 0dbc 8345 1a3c
00000170: 3a13 a3bb 0646 a9bb 7583 9ebc 35ba 18bb
00000180: cd97 99bb 2ab4 3d3c db6f cc3b 3379 7abb
00000190: 00aa 46bc bf9b 463b a349 213a 10e5 99b9
000001a0: 0ba0 69bc 8719 ddbb 3bca 62bc 1f1b 8f3b
000001b0: 5e98 853c d4a8 8bb9 2f3a cabb 363f 2bba
000001c0: b897 eb3b 9970 12bc 72e3 a63c 8371 713b
000001d0: c334 35bc 2b81 a13b 87d2 2ebc b20e 17bc
000001e0: 4326 b43c 37e7 66bb 3015 63bb 2105 023c
000001f0: 8ec9 9cb9 81a8 a53a 7a0c 743c 13b8 96bb
-0.0017488331 0.0033145759 -0.010161035 -0.010262588 0.022489946 0.016719557 0.008278936 0.007263279
0.009482949 0.0008828607 -0.009564868 0.015865901 -0.0035949522 -0.006786202 0.004573632 0.02113131
0.00087671535 0.00952424 -0.00042845643 -0.004684893 -0.001065677 0.0073662377 -0.004078046 0.004659294
-0.0051422208 -0.0052550007 0.012039429 0.0059186774 -0.0065458897 -0.0050857486 0.007634498 0.0047932635
-0.0053488812 -0.005931395 0.014246273 0.0001810121 0.001901999 -0.007915859 -0.0047547943 0.020221977
0.006931094 0.00072053715 -0.007948339 0.0066957534 0.010683991 -0.0011577158 0.0033464804 -0.0068998295
0.0030263963 0.006089431 -0.0024145397 -0.0079961885 0.0020022672 0.006447531 0.0006146503 -0.010906865
-0.0015346163 -0.0083892485 0.005676438 -0.001663944 -0.00882171 0.001112477 0.0039129704 -0.0053684595
-0.0023507976 0.011520055 -0.0089119915 -0.011606646 -0.011969759 0.0011426121 -0.0063230707 0.010693856
0.00834532 0.016336447 -0.0076467604 -0.009884016 0.0069387862 0.00048056743 -0.0069853985 -0.0064575532
-0.008815459 0.0026572596 -0.010430114 -0.0016891472 0.004702128 -0.006964995 -0.015031323 0.011291133
0.011726557 -0.0022306421 -0.00862587 0.009415987 -0.004976657 -0.005165818 -0.019349793 -0.0023304347
-0.0046872855 0.011578599 0.00623892 -0.0038219213 -0.012125492 0.0030305234 0.00061526353 -0.000293531
-0.014259349 -0.006747428 -0.013842161 0.0043672468 0.016308006 -0.00026637933 -0.006171487 -0.00065325515
0.007189717 -0.008937978 0.020372126 0.003684134 -0.011059943 0.004928728 -0.010670311 -0.009219812
0.0219909 -0.003523303 -0.003465008 0.007935793 -0.0002990481 0.0012638719 0.014895553 -0.00459958

exp_avg f4 [128, 8]
00000000: c12e 5639 58c6 4eb8 dc6c 81ba 96f6 bbb9
00000010: 0ac9 4eb8 2268 2db8 21e1 03ba 966a 0aba
00000020: 5cd8 64ba af2a e338 f518 55ba 0730 04b9
00000030: 1a22 e338 979a d439 32e3 2eba 55fe 20ba
00000040: 68ff 923a 9c2b e439 484c 803b 06b4 8f3a
00000050: 5c2b e439 cdea 0ab9 dbe3 213b a423 ed3a
00000060: 82ad e039 3d06 4c38 f0ff bdba d170 79ba
00000070: 8b01 4c38 ee04 7db9 794e 49b9 ff09 b8ba
00000080: 46a6 f3b9 c3bd adba 77bf 2a3b be92 143b
00000090: b5b8 adba 6c5a 78ba 361e 1b3a be58 9e3b
000000a0: b46d 5339 2ec0 b738 91e7 74bb 0f4c dbba
000000b0: ac9d b738 8344 c4b8 7f42 85b6 61f7 4ebb
000000c0: 87fd 853a 9b85 a6b8 2e83 43ba fa3e 59ba
000000d0: 5580 a6b8 3951 30ba 6c22 4f3a 3576 38ba
000000e0: 58ec 213a 725b 6db7 2842 f7ba 5295 b5ba
000000f0: 8a55 6db7 19a7 c238 b444 a3ba 78af 10bb
00000100: 49b6 e239 ba6e 0d38 1f3c 5cba 77c5 97ba
00000110: 0c6e 0d38 2524 4bb9 8a85 af39 85de aeba
00000120: 57a1 52ba 8dd5 0d39 35bd 8bb8 287c 1139
00000130: 82dd 0d39 2a54 583a 8b38 81ba 26ab 6739
00000140: b499 3eb9 070b 3539 7d91 f339 edfe 033a
00000150: ad13 3539 0209 163a 2dea 33ba 48b6 9539
00000160: 407d b1b7 f583 4939 332c 14bb 00f2 ed3a
00000170: 768e 4939 ec00 253a ab5c 28bb dabd 9eb9
00000180: 10a6 a637 f56d 1c39 5cc4 60ba ccea 6739
00000190: 5060 1c39 7b6e ebb8 d31d 5839 7471 beb9
000001a0: 5dfa 3eb9 9f82 1939 42e6 563b 4045 c13a
000001b0: 978d 1939 07c8 d239 9109 d438 586d 073b
000001c0: e88d 193a 7e75 b539 62cf 01bb 6d6f bdba
000001d0: 7873 b539 76d1 30b9 82d1 133a fbb7 33bb
000001e0: ce4c e53a f57f 96b9 7ae5 3abb 1d86 d3ba
000001f0: 2f7f 96b9 151c 34ba b496 a63a ebbd d5ba
00000200: 5126 2b39 b0c6 7039 1e95 893a 5df2 0c3a
00000210: 55c6 7039 5540 8138 e9e3 373a dd45 093a
00000220: 32aa acb9 a0f6 4239 6011 b93a bdb2 8d39
00000230: 3ef6 4239 36fb 48b8 0585 7e39 d250 cf38
00000240: 8132 43ba 003d b039 76ac 50ba 7c47 15ba
00000250: 462a b039 57b5 17b9 228f 493a beb8 c0ba
00000260: 141d 043a 252d fd39 d19b c63b bda9 b13a
00000270: 982e fd39 4a3c beb9 d769 383b da34 243b
00000280: 8613 21ba ad0f 8539 a06d 15ba fcec ac38
00000290: fa12 8539 55df 593a d1a7 83ba 8c46 aab9
000002a0: 3364 43ba fe09 e938 8803 863a a4f2 073a
000002b0: 4c09 e938 8208 d8b8 3210 f139 050c f139
000002c0: 538f 5bbb a56c 8ab7 682a 9039 1eea 8cba
000002d0: 8d33 8ab7 0a55 f73a a7c6 5ebb 3887 9bba
000002e0: 1671 1ab9 32df 5939 657b 1139 2a51 263a
000002f0: 2bd1 5939 fbae e9b6 94d3 d339 89ed c039
00000300: 2d6e 80ba d8cc 8cb9 b826 993a 0192 58ba
00000310: cfbc 8cb9 4ac4 5b3a b46a c8ba 435d 0b3a
00000320: 8e42 9d38 58b9 9739 881c ea3a ebb5 3d3a
00000330: 0ab9 9739 c4c2 f338 b519 173a 514d a33a
00000340: 3e31 15b9 3882 cb37 5a86 cd39 bfd6 c338
00000350: cc7d cb37 fa1e a338 9c85 adb9 a31e 0c37
00000360: 3944 ce3a 3886 d1b8 37e0 b5b9 9d39 dfba
00000370: 7245 d1b8 a209 08ba e088 593a 45aa feb9
00000380: cc90 f33a 3e27 0f3a 15b9 2dbb 4519 62bb
00000390: 5126 0f3a 5148 4339 3da6 cf39 964f 97bb
000003a0: d867 ad3a ce86 f137 2a42 213a a644 ce39
000003b0: 9087 f137 834c 11ba bb07 8a3a b7ee b5b6
000003c0: 8342 7eba b0a9 5939 e8b7 8e3a b302 ae3a
000003d0: 90ba 5939 9400 823a 2f51 aeba c2d0 c03a
000003e0: ab7b 67b9 3df2 61b8 232f 24ba 799b fdb9
000003f0: a2f1 61b8 4eca 1b3a d4c0 59ba eadd 26ba
0.00020426048 -4.929895e-05 -0.0009874362 -0.0003585114 -4.930146e-05 -4.1343395e-05 -0.00050308 -0.0005280165
-0.000872975 0.00010832154 -0.0008129024 -0.00012606393 0.000108305554 0.0004055097 -0.0006671428 -0.0006141414
0.0011215033 0.0004352004 0.0039153434 0.0010963685 0.00043519854 -0.00013248176 0.0024702463 0.0018092287
0.00042853883 4.86432e-05 -0.0014495831 -0.0009515407 4.8638827e-05 -0.00024129797 -0.00019198087 -0.0014041065
-0.00046472455 -0.0013255406 0.0026054063 0.0022670473 -0.00132539 -0.0009473923 0.00059172825 0.0048323562
0.00020163396 8.761916e-05 -0.003736947 -0.0016731041 8.755489e-05 -9.3587696e-05 -3.97145e-06 -0.0031580555
0.0010222652 -7.940383e-05 -0.0007458207 -0.00082872773 -7.9394005e-05 -0.00067259703 0.00079015526 -0.0007036657
0.00061768806 -1.4147592e-05 -0.0018864321 -0.0013853705 -1.4146217e-05 9.281765e-05 -0.0012456388 -0.0022077244
0.00043241892 3.372014e-05 -0.0008401293 -0.0011579235 3.371951e-05 -0.00019373054 0.00033478095 -0.0013341462
-0.0008034906 0.00013526362 -6.663279e-05 0.0001387453 0.00013529326 0.00082522875 -0.000985877 0.00022093634
-0.00018177071 0.00017265613 0.0004645697 0.00050352403 0.00017268835 0.0005723388 -0.0006863203 0.00028555305
-2.1158368e-05 0.00019218012 -0.0022609353 0.0018153787 0.00019221925 0.0006294388 -0.002569 -0.0003027756
1.9866071e-05 0.00014918282 -0.00085741817 0.00022117345 0.00014913199 -0.00011226252 0.00020610476 -0.00036324153
-0.0001821308 0.00014639877 0.0032791053 0.001474537 0.00014643963 0.00040203353 0.000101107296 0.002066454
0.00058576325 0.0003461055 -0.0019807448 -0.0014452763 0.0003460904 -0.00016862698 0.0005638824 -0.0027422893
0.0017494203 -0.00028705565 -0.0028518126 -0.0016137991 -0.0002870499 -0.00068706396 0.0012709708 -0.001630721
0.00016322105 0.000229622 0.0010496711 0.0005376691 0.00022962068 6.163182e-05 0.0007014857 0.00052365457
-0.00032933202 0.00018593157 0.0014119558 0.00027026786 0.00018593014 -4.7917674e-05 0.00024272881 9.885583e-05
-0.00074461853 0.00033614784 -0.0007960269 -0.0005694551 0.00033600832 -0.00014468037 0.000768887 -0.0014703495
0.00050397334 0.00048289556 0.006061055 0.0013554614 0.00048290635 -0.00036284543 0.0028139257 0.0025055916
-0.0006144572 0.00025379416 -0.00057002343 8.245741e-05 0.00025381875 0.0008311172 -0.001004452 -0.00032477488
-0.00074535905 0.00011112167 0.0010224441 0.00051859976 0.000111120375 -0.00010301267 0.00045979168 0.00045976057
-0.0033502176 -1.6501474e-05 0.00027497415 -0.0010750925 -1.6474887e-05 0.0018869948 -0.0033992918 -0.001186586
-0.00014728712 0.0002077788 0.00013874246 0.0006344492 0.00020772654 -6.9643115e-06 0.00040402694 0.0003679807
-0.000979846 -0.000268555 0.0011684513 -0.00082615024 -0.00026843554 0.00083834364 -0.0015290589 0.0005316326
7.49874e-05 0.00028939056 0.0017861286 0.0007236886 0.0002893883 0.00011623421 0.00057640235 0.0012458955
-0.00014228091 2.4260124e-05 0.00039200747 9.338324e-05 2.4258065e-05 7.7782155e-05 -0.00033096678 8.351783e-06
0.0015736885 -9.990897e-05 -0.00034690063 -0.001703072 -9.978832e-05 -0.00051894237 0.0008298289 -0.00048573516
0.0018582582 0.00054608646 -0.0026508023 -0.0034499925 0.00054607267 0.00018623589 0.00039605974 -0.0046176417
0.00132298 2.8792212e-05 0.0006151522 0.0003934253 2.8792565e-05 -0.0005542712 0.0010530868 -5.4220104e-06
-0.0009699242 0.00020757946 0.0010888549 0.0013275951 0.00020764233 0.0009918385 -0.0013299341 0.0014710652
-0.00022075947 -5.3869782e-05 -0.00062631274 -0.00048371757 -5.386922e-05 0.00059429265 -0.00083066267 -0.0006365465

exp_avg_sq f4 [128, 8]
00000000: b90c af36 4ecd 8934 5a41 fb36 5766 a836
00000010: d1a3 8834 d2a8 8d36 820d 5d36 f2ff 8b36
00000020: 3350 9836 2ad5 7f34 67d3 d636 f604 bd36
00000030: 282a 7b34 911d 5336 8e29 5636 b38b 7136
00000040: 2766 2539 7ebc d836 bdb5 3339 eae9 5739
00000050: e63c d236 db19 9238 7a5d c138 f8ed 7538
00000060: f7c9 4e38 7a4a cd35 cf74 2738 34f0 3438
00000070: ccaf c935 d49d 9337 688c 1338 9422 5d37
00000080: 2ef9 d339 8aed 6b37 368f c539 2de3 013a
00000090: 464a 6537 8938 3539 9e0c 5f39 b8f0 2d39
000000a0: 47cf c438 0606 8136 7be0 ec38 ccbe b038
000000b0: b083 7e36 3305 8138 8ab0 9138 2a88 6b38
000000c0: 5636 1037 eaf5 b934 8c59 0437 7797 3f37
000000d0: 9419 b634 6592 a736 b93a a036 7c80 e836
000000e0: 9b7b f538 62b8 9736 7caf 0939 86f5 a638
000000f0: 3d3a 9736 0c89 6e38 3911 ae38 a2fb 6638
00000100: 4d35 f937 3e55 8235 1803 c537 387f 9b37
00000110: 83f0 8135 99d3 8b37 b97d c137 cd24 2f37
00000120: f9e4 9a37 5f4d 7735 e58d b537 9d71 7337
00000130: c8ee 7535 3ff2 7037 5a9b a737 00b9 4a37
00000140: e1d9 a936 e7bb 9234 55ea 0137 b7d5 d936
00000150: 4aec 9034 aff8 8a36 d220 6e36 524f dd36
00000160: bdd4 d638 cfc3 9d36 1fbb ef38 a457 b538
00000170: e494 9c36 506f a338 aa74 8c38 65ad 9f38
00000180: 18fa e637 068a 8d35 e857 d737 60f3 e137
00000190: cf10 8b35 5a00 a737 07dd a537 1cac 6737
000001a0: d9e0 0d38 9cd9 fe35 04d4 8038 87c8 3538
000001b0: fdbc fb35 6684 2138 edee d237 a5db c737
000001c0: e73f 8338 3dea 5236 6560 b238 942e 4238
000001d0: 8bba 5136 c805 6538 e8b1 5f38 75cb 3938
000001e0: 681f 2239 6200 cf36 4dde 4a39 ca78 6039
000001f0: 9e5b ca36 8968 7938 40cb ba38 97e7 8338
00000200: 785f 5037 fb98 1a35 6c6e 5337 2c85 6337
00000210: 8c64 1735 95f1 3937 18e3 2837 8db3 d936
00000220: 162e e237 8b1d 9735 7e9f ff37 3235 fc37
00000230: 9dd5 9535 ee41 5337 cef2 9d37 35ed 3d37
00000240: 6c37 3238 26ed 1136 725c 8338 b19d 7138
00000250: 03fa 1036 8b19 ee37 3723 fb37 4995 4438
00000260: f6d5 0939 1089 c036 7285 3139 0113 2e39
00000270: 02c2 bc36 c516 9d38 8f6d 0a39 5324 7238
00000280: aa60 4737 014e 0935 456b 7237 d681 1437
00000290: 078a 0835 6811 1837 4d9d ea36 aaee d136
000002a0: 4f36 d737 3e0d 9135 d678 d237 3fd5 bc37
000002b0: 6d5b 9035 5b69 7a37 61e4 9137 937f 6d37
000002c0: 915b 2c39 d5c9 0b37 be57 6f39 d63b 0239
000002d0: 9d89 0b37 ea32 1039 e21d 0f39 2a93 cf38
000002e0: e660 0f38 4537 a035 07be e437 3d27 f037
000002f0: 8662 9e35 5581 6b37 9cc8 cc37 b1d9 6437
00000300: d54b ab38 694e 8736 9f02 dc38 81ef c138
00000310: ab7e 8636 2554 a238 b7e8 9438 12cc 5338
00000320: 415e 1b38 3c44 c335 f0f6 1838 a799 3738
00000330: 7e62 bd35 7c35 9137 7550 0838 47a4 4b37
00000340: 9a4c b037 7fd0 6f35 8cd9 db37 104a 0738
00000350: 9e82 6a35 cdf5 1a37 c763 8537 9259 0337
00000360: fbed 9f38 7fa0 7136 7ed3 9a38 e0aa b938
00000370: d3df 6f36 cbd1 8638 a739 6738 3a4c a538
00000380: f5b9 be38 1052 6f36 cf58 9f38 533b 9638
00000390: 08ca 6d36 b843 6d38 6304 8f38 fd31 6738
000003a0: 5050 1b38 60a3 2136 382f 5e38 3c93 8438
000003b0: 4652 2036 d400 e237 f1de f737 70ab 0038
000003c0: 3e57 ea37 7326 c435 8e41 1d38 a503 db37
000003d0: 1ff2 c235 ca51 9337 6c88 bd37 4987 ba37
000003e0: a108 1037 436d f034 4699 6b37 162e 5237
000003f0: 3e06 ea34 3f44 fa36 81b1 f336 a7af bf36
5.2168875e-06 2.5667617e-07 7.487991e-06 5.018704e-06 2.5451166e-07 4.2217807e-06 3.2939429e-06 4.1723188e-06
4.5392894e-06 2.3826274e-07 6.4023075e-06 5.6332165e-06 2.3391533e-07 3.145866e-06 3.1912673e-06 3.5993114e-06
0.00015773681 6.459245e-06 0.00017138473 0.00020591138 6.265577e-06 6.9666385e-05 9.2203685e-05 5.8634178e-05
4.930232e-05 1.5295366e-06 3.992469e-05 4.313905e-05 1.5026831e-06 1.759726e-05 3.5178295e-05 1.3180677e-05
0.0004043071 1.4062398e-05 0.00037681469 0.00049548113 1.3666757e-05 0.00017282566 0.00021271638 0.0001658824
9.384617e-05 3.845201e-06 0.0001129517 8.427873e-05 3.7925602e-06 6.152168e-05 6.947022e-05 5.615518e-05
8.59572e-06 3.463786e-07 7.888662e-06 1.1419753e-05 3.3918752e-07 4.9940304e-06 4.775208e-06 6.9290963e-06
0.00011705534 4.5216157e-06 0.00013130711 7.961229e-05 4.5069305e-06 5.6871257e-05 8.3001745e-05 5.5070625e-05
2.9707933e-05 9.710564e-07 2.348567e-05 1.853668e-05 9.681247e-07 1.6668624e-05 2.3065937e-05 1.0439381e-05
1.8464854e-05 9.212726e-07 2.1642956e-05 1.4510381e-05 9.1617085e-07 1.4361517e-05 1.9980293e-05 1.2083212e-05
5.061957e-06 2.7331336e-07 7.743559e-06 6.4919836e-06 2.6994013e-07 4.141671e-06 3.5483868e-06 6.5955473e-06
0.00010243941 4.7017597e-06 0.00011431262 8.647077e-05 4.6664954e-06 7.793179e-05 6.6974506e-05 7.614008e-05
2.7534596e-05 1.0545489e-06 2.5670932e-05 2.693542e-05 1.0361199e-06 1.9908115e-05 1.9772457e-05 1.3808745e-05
3.3826425e-05 1.8987807e-06 6.1430066e-05 4.334052e-05 1.875596e-06 3.8508697e-05 2.514521e-05 2.3824929e-05
6.2584695e-05 3.1428783e-06 8.505656e-05 4.6296584e-05 3.125201e-06 5.460324e-05 5.333303e-05 4.429692e-05
0.00015461224 6.1691253e-06 0.00019347035 0.00021407302 6.0307348e-06 5.9463582e-05 8.9070294e-05 6.289704e-05
1.2419994e-05 5.7592086e-07 1.260229e-05 1.3561261e-05 5.63982e-07 1.1083107e-05 1.0066455e-05 6.4880064e-06
2.696276e-05 1.1258975e-06 3.0472638e-05 3.0065512e-05 1.1163535e-06 1.25919305e-05 1.8828923e-05 1.1320507e-05
4.2490123e-05 2.1744722e-06 6.263786e-05 5.760574e-05 2.1603198e-06 2.8383705e-05 2.993793e-05 4.6869074e-05
0.00013145045 5.738002e-06 0.00016929748 0.00016601013 5.625422e-06 7.4905845e-05 0.0001320152 5.7731126e-05
1.1883831e-05 5.114999e-07 1.44493e-05 8.851717e-06 5.0864804e-07 9.063959e-06 6.9920557e-06 6.2564695e-06
2.5655287e-05 1.0807196e-06 2.509022e-05 2.2510647e-05 1.0755444e-06 1.4925691e-05 1.7391694e-05 1.4156004e-05
0.0001643731 8.332038e-06 0.00022825503 0.00012420057 8.317086e-06 0.00013751877 0.00013648675 9.8979406e-05
3.41841e-05 1.1937015e-06 2.7268206e-05 2.8628501e-05 1.1800591e-06 1.4037204e-05 2.4412111e-05 1.3640544e-05
8.16804e-05 4.0324417e-06 0.00010490906 9.247568e-05 4.0082573e-06 7.740435e-05 7.1005365e-05 5.0496375e-05
3.704266e-05 1.4548491e-06 3.6469602e-05 4.37737e-05 1.4110262e-06 1.7310253e-05 3.249986e-05 1.2137992e-05
2.1016505e-05 8.933784e-07 2.6208138e-05 3.2255484e-05 8.7361866e-07 9.236345e-06 1.5901298e-05 7.829063e-06
7.626038e-05 3.600522e-06 7.382686e-05 8.8533154e-05 3.5744058e-06 6.428695e-05 5.5128385e-05 7.8820114e-05
9.094543e-05 3.5661542e-06 7.598253e-05 7.1636074e-05 3.543335e-06 5.656827e-05 6.8195885e-05 5.5121247e-05
3.7029677e-05 2.4085966e-06 5.29729e-05 6.321675e-05 2.3889747e-06 2.6941685e-05 2.954851e-05 3.067724e-05
2.7935599e-05 1.4614328e-06 3.749277e-05 2.6108532e-05 1.4524593e-06 1.7561852e-05 2.2594082e-05 2.2235925e-05
8.585078e-06 4.4782982e-07 1.4042778e-05 1.2527706e-05 4.3590438e-07 7.4585255e-06 7.2626285e-06 5.712692e-06

exp_avg f4 [128]
00000000: 1699 ceb8 9227 6339 6538 643a a51e cc38
00000010: f5c2 2dbb 5b18 3839 5b9c 26b9 3071 f0b7
00000020: a092 8d38 d8de 8d39 d903 b539 7b75 c939
00000030: e36f 9c39 356e 9939 5c7d 353a ee6b 16ba
00000040: ecd1 f039 28f5 c239 9939 303a cd35 7d3a
00000050: 3410 053a d8f2 6839 835a 0ab8 dfd6 d939
00000060: c1cb 0cba d4bd 173a 6718 4b38 e948 51b9
00000070: 1a1f 8f3a 5153 7138 4bb7 d939 7dde e1b8
00000080: 6a22 1c38 ecce ccb9 4b61 c03a 8a25 72ba
00000090: 90b1 b4b8 280d b539 bc49 153a 403c ffb9
000000a0: f25a b339 7073 9739 4f18 393a 7c91 13ba
000000b0: bf8f c339 3596 f738 0b55 a53a 197a 5138
000000c0: bf05 8eb8 384d dc39 c7c6 3dba 4f71 52ba
000000d0: 5e64 e13a ffd2 8bba 56b9 4eba 2551 7234
000000e0: 696b 6bba f43a 053a 01ae b1b9 2df6 cab9
000000f0: 98d8 0e3a 67f0 ba3a 4b28 9339 73c2 76b9
00000100: f2b0 343a 8ee3 5839 a87e cbb8 705d 1339
00000110: ff87 d8b6 78a8 ceb8 71dd 2b3a 5378 e43a
00000120: 8a7a 05b8 73fa f9ba 5260 4139 7f57 e139
00000130: b430 d6b9 93c6 9e3a 67a1 db39 e55c adb9
00000140: 5c58 bfb9 eb32 4c3a 40cc 4cba 85d1 13ba
00000150: 9430 723a 12c8 10bb c246 7339 5b31 2fba
00000160: bc47 123a 9e07 5cba 91e6 76b9 08a8 4aba
00000170: cd8b 5438 9fbc 803a 0ec8 6c39 78aa 0737
00000180: aa53 7ab8 d9aa c2b9 5d2e d439 48b8 6937
00000190: 8db3 b7b7 56d3 03b7 73ff adb8 c120 94b9
000001a0: 0030 5339 78f9 4239 17fa ceb8 164a 17ba
000001b0: dd67 653a ac43 9b3a 7f5e 3a39 edce dc39
000001c0: 2bb5 2037 2f61 9e37 d963 90b9 69e0 d239
000001d0: b7c9 1eba df66 3aba afa0 0b3a 47a4 5db9
000001e0: b0ab fab9 9c30 f338 fb92 63b8 2e8a 453a
000001f0: ea9c bfb9 326e 153a a839 1eba 3ca1 9aba
-9.85136e-05 0.00021663148 0.0008705913 9.733186e-05 -0.0026513909 0.0001755668 -0.0001588924 -2.8662937e-05
6.750715e-05 0.00027059647 0.00034525877 0.00038425237 0.00029838 0.00029264545 0.0006923282 -0.00057381287
0.0004593277 0.0003718522 0.000672245 0.0009659201 0.0005075962 0.0002221571 -3.298606e-05 0.00041549557
-0.0005370938 0.00057884795 4.8421698e-05 -0.00019958954 0.0010919303 5.7536472e-05 0.0004152603 -0.00010770278
3.722535e-05 -0.0003906408 0.0014677433 -0.0009237161 -8.6161424e-05 0.00034532812 0.0005694886 -0.0004868228
0.000342093 0.00028886972 0.0007060812 -0.0005629284 0.00037300398 0.00011805856 0.0012613846 4.9943195e-05
-6.772158e-05 0.00042019202 -0.0007239398 -0.00080277486 0.001719605 -0.001066774 -0.00078858936 2.2567527e-07
-0.0008980544 0.0005082332 -0.00033889714 -0.00038711858 0.0005449145 0.0014262319 0.00028068046 -0.00023532826
0.0006892822 0.00020684136 -9.703386e-05 0.0001405382 -6.4531337e-06 -9.854225e-05 0.00065561297 0.0017430879
-3.1823794e-05 -0.0019071832 0.00018441796 0.00042980534 -0.00040853547 0.0012113623 0.0004189119 -0.00033066343
-0.00036496192 0.000778957 -0.0007812418 -0.0005638826 0.0009238806 -0.0022091907 0.00023200645 -0.0006683075
0.0005580147 -0.0008393469 -0.00023546281 -0.0007730727 5.067494e-05 0.0009821838 0.0002258124 8.086317e-06
-5.9682563e-05 -0.00037129855 0.00040470334 1.3930789e-05 -2.189891e-05 -7.857414e-06 -8.296864e-05 -0.00028253163
0.0002014041 0.00018594216 -9.869428e-05 -0.00057712325 0.00087511336 0.0011845729 0.00017773545 0.00042115842
9.578925e-06 1.8880322e-05 -0.00027540213 0.0004022152 -0.00060572795 -0.0007110666 0.0005326373 -0.000211374
-0.00047811633 0.00011596197 -5.4257904e-05 0.0007535544 -0.0003654727 0.00057003193 -0.0006035813 -0.0011797319

exp_avg_sq f4 [128]
00000000: b1cc 8935 3cd6 7f35 f2bd d837 c649 cd36
00000010: 36ee 6b38 d105 8137 c7f6 b935 bfb8 9737
00000020: 4656 8236 094e 7736 f9bc 9235 60c4 9d37
00000030: 1f8b 8d36 6adb fe36 eae9 5237 42ff ce37
00000040: 5998 1a36 361c 9736 b7eb 1137 0f89 c037
00000050: d94d 0936 f40d 9136 2eca 0b38 9736 a036
00000060: 914f 8737 ab42 c336 5ed1 6f36 6ba1 7137
00000070: e750 6f37 49a4 2137 5b29 c436 386c f035
00000080: 5875 8b36 cdf4 3837 224f 4b37 a38b da36
00000090: 5c69 cd36 6d44 3e37 643b 7036 ca56 8a36
000000a0: 70e5 f036 8de8 4d37 8204 db37 fb68 a937
000000b0: e1ea c337 33d3 7e35 6cf0 0638 0143 8d36
000000c0: 2273 6c36 0cba f636 43ba 0538 8732 7637
000000d0: 1e40 d037 ef9a 4a38 3637 6437 ab82 4036
000000e0: 074a 7938 5e04 f136 4d75 6c37 2774 bb36
000000f0: efe7 2237 5b5d 1338 1216 3338 041c 0037
00000100: 53e5 1737 e57d 7a36 c8a5 0c37 2ad0 0838
00000110: cbac ee35 16c7 6137 e9f8 0838 4702 8437
00000120: 4ed8 0237 17a3 e737 60b4 c037 ad37 d037
00000130: 4b69 8936 e7b6 5437 e292 3537 7396 6837
00000140: 778e 1d37 5b25 7837 a122 2337 9a6a 6e37
00000150: 7020 f337 2ee3 2f38 27d0 d635 601a 2037
00000160: 79aa 6d37 eb31 c137 aeae f435 8061 1737
00000170: 7c50 3436 3d99 a136 a871 8437 81c2 1337
00000180: 1d50 fe35 14d1 1437 f649 0637 d9bf 8f37
00000190: d065 5b36 9710 2037 2730 d136 70bf 5f36
000001a0: 5e41 9d37 b7b7 e435 1a2e 9c37 512a 8036
000001b0: 4303 2438 9ae0 a537 704a 0b37 8e66 b436
000001c0: 8af2 dc36 e66a c436 c603 b737 312e 3d36
000001d0: d21a 3137 0915 b437 b74c 9937 5273 2438
000001e0: 7370 a537 44ba 2137 0470 2836 137d 4e37
000001f0: a5c4 a536 742a 3937 9e22 f236 246e 5737
1.0266868e-06 9.5306655e-07 2.5837657e-05 6.1180644e-06 5.6250217e-05 1.5380707e-05 1.3855396e-06 1.8086632e-05
3.8843455e-06 3.685129e-06 1.0932846e-06 1.8807303e-05 4.2183233e-06 7.595333e-06 1.2571438e-05 2.4675977e-05
2.3036466e-06 4.503435e-06 8.697555e-06 2.2952006e-05 2.0459904e-06 4.322961e-06 3.3328477e-05 4.7747267e-06
1.6130305e-05 5.819214e-06 3.5735643e-06 1.4402302e-05 1.4264347e-05 9.634598e-06 5.8460696e-06 1.7912889e-06
4.1561834e-06 1.1024252e-05 1.2118167e-05 6.513162e-06 6.1217415e-06 1.1340814e-05 3.5797357e-06 4.122824e-06
7.1792674e-06 1.2273097e-05 2.6108934e-05 2.0195255e-05 2.3355185e-05 9.492971e-07 3.2172e-05 4.2099277e-06
3.5233757e-06 7.35303e-06 3.188314e-05 1.4674507e-05 2.482539e-05 4.8304846e-05 1.3602714e-05 2.8686288e-06
5.943517e-05 7.182868e-06 1.4094007e-05 5.586556e-06 9.709954e-06 3.5134475e-05 4.269748e-05 7.635917e-06
9.053695e-06 3.7326183e-06 8.383249e-06 3.2618795e-05 1.7782671e-06 1.3457398e-05 3.2656742e-05 1.5736687e-05
7.798966e-06 2.761329e-05 2.2972177e-05 2.4821458e-05 4.095176e-06 1.267877e-05 1.08226395e-05 1.3863307e-05
9.391099e-06 1.4790649e-05 9.72362e-06 1.4210726e-05 2.8982962e-05 4.193483e-05 1.6004823e-06 9.542884e-06
1.4165992e-05 2.3030638e-05 1.8230255e-06 9.023002e-06 2.6868938e-06 4.816013e-06 1.5788552e-05 8.807169e-06
1.8947791e-06 8.870167e-06 8.004243e-06 1.7136264e-05 3.2692806e-06 9.540606e-06 6.234291e-06 3.334102e-06
1.8746297e-05 1.7040792e-06 1.8618117e-05 3.8196235e-06 3.9103685e-05 1.9774121e-05 8.302377e-06 5.376357e-06
6.584746e-06 5.8537e-06 2.1817057e-05 2.8190082e-06 1.0556267e-05 2.1467467e-05 1.8274744e-05 3.9208047e-05
1.9721896e-05 9.639716e-06 2.5099152e-06 1.2307678e-05 4.9402756e-06 1.1036744e-05 7.216192e-06 1.2840643e-05
