results/RollerAgent/RollerAgent/RollerAgent-1075.onnx (onnx, 75401 bytes, 8 tensors)

action_model._continuous_distribution.log_sigma f4 [1, 2]
0	0xbb134458	-0.0022471156
1	0xbc010f38	-0.007877164

action_model._continuous_distribution.mu.bias f4 [2]
0	0xbae58a64	-0.0017512557
1	0x3a3431a3	0.00068738515

action_model._continuous_distribution.mu.weight f4 [2, 128]
0	0xbceee176	-0.029160243
1	0x3c330baf	0.010928079
2	0xb9c4115a	-0.0003739696
3	0x3d0fe6c4	0.035132185
4	0x3b6f4952	0.0036512208
5	0x3bb0f929	0.005400796
6	0x3c78d18c	0.015186679
7	0x3c53a1f7	0.012917033
8	0x3c91320b	0.017724058
9	0xbc2fb59b	-0.01072445
10	0xbaf70670	-0.0018846523
11	0x3d22aaac	0.039713547
12	0xbcc828af	-0.024433462
13	0x3c5624ba	0.01307028
14	0xbc86323d	-0.016381377
15	0x3b343ec0	0.0027503222
16	0xbd26f941	-0.04076505
17	0x3d34be49	0.044126783
18	0x3c9396d2	0.018016253
19	0xbc85fef4	-0.016356923
20	0xbb2d1ad4	-0.0026413696
21	0xbbdc5abd	-0.006724684
22	0x3b8175f2	0.0039508278
23	0xbd5c279f	-0.053748723
24	0xbc3e33e5	-0.011609052
25	0xbc86251d	-0.016375119
26	0xbcb21a5e	-0.021741088
27	0xbcbdc19d	-0.023163611
28	0x3c831f1f	0.01600605
29	0x3c3dfdea	0.011596182
30	0xbc90566a	-0.01761933
31	0xba3d0038	-0.00072098104
32	0xbc2350b0	-0.009967968
33	0x3c7110f2	0.014713513
34	0xbc0c6120	-0.008568078
35	0xbbae8278	-0.0053256117
36	0x3a9ee2d6	0.0012122046
37	0x3ca78fff	0.020454405
38	0x3c262b44	0.010142151
39	0xbc600b94	-0.013674635
40	0x3c776fbb	0.015102322
41	0x3c6dca74	0.014513601
42	0xbd0882a7	-0.033327725
43	0xbb02005d	-0.0019836642
44	0x3cd1297a	0.025532473
45	0x3cbf13b9	0.023324834
46	0xbc6bf4c2	-0.0144016165
47	0x3cf89232	0.030343149
48	0x3c1ddd31	0.009635256
49	0xbcc5ba47	-0.024136676
50	0xbcd7d123	-0.026344841
51	0xbb5d9820	-0.0033812597
52	0x3c21b65c	0.009870138
53	0x3cae1647	0.021250857
54	0x3bf61dca	0.0075108754
55	0xbbff9018	-0.0077991597
56	0x3ba03c93	0.0048900335
57	0xbc46ecb7	-0.012141398
58	0xbcbb9dbe	-0.022902366
59	0xbcec914d	-0.028877879
60	0x3c8358b2	0.016033504
61	0xbaf7a4e7	-0.0018893749
62	0xbca08a00	-0.019597054
63	0xbc127bfa	-0.008940691
64	0x3c02ebb8	0.00799077
65	0x3cb1afd6	0.02169029
66	0x3c37a8d2	0.0112096835
67	0xbc3e5543	-0.011617008
68	0xbbe12c13	-0.006871709
69	0x3c61ad19	0.01377418
70	0x3c8a760a	0.016901989
71	0xbcad3e67	-0.02114792
72	0x3b71ed9e	0.0036915313
73	0xbc9435b5	-0.018092016
74	0xbacdad6f	-0.0015691946
75	0xb90bad13	-0.00013320548
76	0xbd22385a	-0.039604522
77	0xbc373404	-0.011181835
78	0x3bfe6c23	0.0077643557
79	0xbbbf178a	-0.0058316635
80	0x3d076bd0	0.033061802
81	0x3b6e1115	0.00363261
82	0xbb0a5e2b	-0.0021113257
83	0xbc427b2e	-0.011870189
84	0x3c9b05e2	0.018923704
85	0xbcdd6961	-0.027027788
86	0xbcbc76c4	-0.02300585
87	0xbb3ae2f5	-0.0028516625
88	0xbc340782	-0.010988118
89	0x3cb5cd3f	0.022192596
90	0xbc798dd5	-0.015231569
91	0xbc2e2382	-0.010628583
92	0x3c053ed3	0.008132654
93	0xbb6141d2	-0.0034371507
94	0x3bf73e35	0.0075452575
95	0x3c50aabf	0.012736022
96	0x3a73c8f6	0.000929966
97	0x3d11bc57	0.035580005
98	0xbc9a405e	-0.01882952
99	0xbd0d6fd6	-0.034530483
100	0x3d02940b	0.031879466
101	0xbc1bcfc2	-0.009509983
102	0x3cf0e7af	0.02940735
103	0x3acf9392	0.0015836826
104	0x3bc46e25	0.0059945756
105	0xbc625932	-0.013815211
106	0x3d0e0b76	0.0346789
107	0x3c4f2126	0.012642181
108	0x3cc7ea89	0.024403827
109	0x3c2f0693	0.01068272
110	0xbc70077d	-0.014650223
111	0x3c0c6648	0.008569308
112	0xbcb25beb	-0.021772346
113	0x3d0105d6	0.031499706
114	0xbc3a791a	-0.011381412
115	0x3cdcb392	0.026941095
116	0x3cee270e	0.029071357
117	0xbca89026	-0.020576548
118	0x3cb5a352	0.022172604
119	0x3cdd1c5e	0.026991066
120	0xbc16f336	-0.009213259
121	0x3a57c57f	0.00082310283
122	0xbcdb4534	-0.026766397
123	0xbc826090	-0.015915185
124	0x3b1f8b1d	0.0024344393
125	0x3ca436c7	0.020045651
126	0xbc5d0d36	-0.013491919
127	0x3c80a3ee	0.015703168
128	0xbd321242	-0.043474443
129	0xbb2772b5	-0.0025550548
130	0x3b8f998a	0.004382317
131	0xbc2ee6d0	-0.010675147
132	0xbc9dab0c	-0.0192466
133	0x3b27af58	0.002558669
134	0xbc96dc5b	-0.01841562
135	0xbce7b5a3	-0.028284853
136	0xbc228692	-0.009919779
137	0xbc81ce7e	-0.015845533
138	0x3ce3e889	0.027820842
139	0xbcb350ca	-0.02188911
140	0x3cebc465	0.028780172
141	0xbcf3440b	-0.029695531
142	0xb9aef836	-0.00033372798
143	0xba0c43a3	-0.0005350655
144	0xbc5cbe6a	-0.013473133
145	0xbcc86708	-0.024463192
146	0xbcc41d07	-0.023939623
147	0x3bd6dd7f	0.006557166
148	0xba93afa9	-0.0011267561
149	0x3b6d1a57	0.003617903
150	0x3c892942	0.016743306
151	0xbd36e2a7	-0.044649746
152	0xbc9a6627	-0.018847538
153	0x3d6e76ac	0.058218643
154	0x3ab6e7f4	0.0013954625
155	0x399c3e0e	0.00029800873
156	0x3cae7454	0.021295704
157	0xbbfb22d4	-0.007664064
158	0xbc967757	-0.018367453
159	0x3c4d74c8	0.01254005
160	0xbd1224ec	-0.035679743
161	0x3c01863c	0.007905539
162	0xbc94d4ce	-0.01816788
163	0x3d4d48ca	0.050118245
164	0x3a32b4c7	0.0006817099
165	0xbca96375	-0.020677308
166	0x3a87ddb3	0.0010365754
167	0x3c2c72b7	0.010525397
168	0x3c650bde	0.01397988
169	0x3cbd620a	0.023118038
170	0x3cd73cf5	0.026274184
171	0xbc72f99f	-0.014830022
172	0x3c9d6162	0.019211475
173	0x3ca97d58	0.020689651
174	0x3b390072	0.0028229025
175	0xbc3aef2b	-0.011409561
176	0xbc537eea	-0.012908677
177	0x3cb0c8d6	0.021580141
178	0x3bb6ea81	0.0055821543
179	0xbb9919f2	-0.0046722824
180	0xbb69dfb8	-0.0035686325
181	0x3c4d66b0	0.01253669
182	0xbc50176d	-0.012700898
183	0x3a86fdc3	0.0010299016
184	0x3d5a6f45	0.05332877
185	0x3b94bc20	0.004539028
186	0x3d7023ea	0.058628
187	0x3c2054bb	0.009785826
188	0x3c8bbb3d	0.017057056
189	0x3c412a1a	0.011789823
190	0xbc93ec7f	-0.018057106
191	0x3cbc724c	0.02300372
192	0xbc7637ee	-0.015027983
193	0xbd339877	-0.043846574
194	0x3d45d0ea	0.04829494
195	0x3cf45058	0.029823467
196	0x3ceb488f	0.028721122
197	0xbc059a06	-0.008154398
198	0xb985071f	-0.00025373042
199	0xbcb20369	-0.021730142
200	0x3cb82e6d	0.022483075
201	0xbcdaf3e4	-0.026727624
202	0x3cac8b37	0.021062477
203	0x3c88df34	0.016707994
204	0xbd3f20dc	-0.046662197
205	0x3c5adce2	0.013358327
206	0xbcc5f5e1	-0.024165096
207	0x3d1826dd	0.037146438
208	0xbd245f67	-0.040130045
209	0xbb68217d	-0.0035420351
210	0xbc4418ac	-0.011968773
211	0x3aa3196d	0.001244349
212	0xbd44bf02	-0.04803372
213	0xbbf63ab7	-0.0075143236
214	0xbc25d29f	-0.010121017
215	0xbcaff7ca	-0.02148046
216	0xbd0c9efd	-0.03433131
217	0x39518b4f	0.0001998369
218	0x3cd74723	0.026279038
219	0x3c3fcae2	0.011706086
220	0x3d0eb18e	0.034837298
221	0x3c53b62d	0.012921852
222	0xbcc4f5e7	-0.024043037
223	0xbcc215de	-0.023692068
224	0x3bbffb59	0.0058588204
225	0xbc785ea8	-0.015159287
226	0x3c68ad8b	0.014201532
227	0x3abf85ac	0.0014611981
228	0xbc87f4e3	-0.016596263
229	0xbbe4e163	-0.006984876
230	0xba50a65b	-0.0007959359
231	0xba30659f	-0.000672901
232	0xbbbb783c	-0.00572112
233	0x3c6372eb	0.013882379
234	0xbced3061	-0.028953733
235	0x3ad0f76e	0.001594288
236	0xbc7de889	-0.015497335
237	0x3cd34f75	0.025794724
238	0xbc307b63	-0.010771605
239	0x3caeda31	0.021344276
240	0x3bbd3b86	0.005774918
241	0x3c419aa2	0.0118166525
242	0xbd017884	-0.031609073
243	0xbcb3f13a	-0.021965612
244	0xbc89fe65	-0.016844938
245	0x3c0e389d	0.00868049
246	0x3c254d3e	0.010089217
247	0x3d43fdbd	0.047849406
248	0xbbda6e14	-0.0066659544
249	0x3c14816a	0.009064058
250	0xbbba4d69	-0.0056854975
251	0xbcc737bf	-0.024318574
252	0x3cc87279	0.024468647
253	0x3b5e7ddb	0.0033949527
254	0xbc9a7172	-0.018852923
255	0x3af89e7d	0.0018968132

action_model._discrete_distribution.branches.0.weight f4 [1, 128]
0	0x3bcdc9e7	0.006280172
1	0x3aac8263	0.0013161417
2	0x3badd51b	0.005304945
3	0x3aab89a6	0.0013087287
4	0x3c527f2f	0.012847706
5	0x3bd67cf7	0.0065456587
6	0x3bc17c17	0.0059046852
7	0xbc15ff13	-0.009155053
8	0xbb399171	-0.002831545
9	0x3b9a9ac0	0.0047181547
10	0x3b8d7669	0.004317094
11	0x3b96f23c	0.0046065133
12	0x3c3c0308	0.011475332
13	0xbc4cb470	-0.0124941915
14	0x3c6e04af	0.014527484
15	0xbbe75970	-0.0070602223
16	0x3b4ccd0d	0.003125015
17	0xbc222f6e	-0.009899003
18	0x3c32720e	0.010891451
19	0xbba481b7	-0.005020346
20	0xbb9bfe6e	-0.004760555
21	0x3aeb39c0	0.0017946288
22	0xbafec8af	-0.001943847
23	0xbc6269d5	-0.013819178
24	0x3b36a74c	0.0027870713
25	0x3c339f32	0.010963248
26	0x3b863949	0.0040961844
27	0x3bef56c5	0.007304045
28	0x3baec0fa	0.005333063
29	0xbc52ca0a	-0.012865553
30	0xbbc5f89f	-0.006041601
31	0x3bf78047	0.0075531336
32	0xbb014cbd	-0.0019729577
33	0x3c3af876	0.011411777
34	0x3b03ae5e	0.0020092945
35	0x3ca5c60a	0.020236034
36	0xbb0df45e	-0.0021660547
37	0x3bc94c0b	0.006143098
38	0xbc426a8f	-0.011866226
39	0x3c8c5e24	0.017134733
40	0x3adc07cd	0.0016786993
41	0xbb6bf8ba	-0.0036006407
42	0xbafe2ea2	-0.001939256
43	0x3c0ae96d	0.008478505
44	0x3b256ec8	0.0025243033
45	0x3c4588ed	0.012056571
46	0x3b878dab	0.004136761
47	0xbb4da907	-0.0031381266
48	0x3c88c56b	0.016695699
49	0x3c49b3f9	0.012310975
50	0xbc2672b7	-0.010159186
51	0xbc8a44bf	-0.016878484
52	0x3bb1864d	0.005417621
53	0xbb434c3d	-0.002980008
54	0xbc16c34e	-0.009201838
55	0xbba57e13	-0.0050504296
56	0xbc391365	-0.011296128
57	0x3c575220	0.013142139
58	0x3bc919c7	0.006137106
59	0xbaf67472	-0.0018803014
60	0x3c438a80	0.011934876
61	0x3b267f21	0.0025405365
62	0x3c4d6053	0.0125351725
63	0xbaad629b	-0.0013228239
64	0xbc9dfc2d	-0.019285286
65	0x3bb4827b	0.0055087185
66	0xbb0dcf3e	-0.0021638419
67	0x3bb4f395	0.0055222013
68	0x3b2c371b	0.0026277963
69	0xbc8f86ab	-0.01752027
70	0x3be49cef	0.0069767158
71	0x3bca95a9	0.0061823917
72	0x3aec88a3	0.0018046092
73	0xbbce66d7	-0.0062988806
74	0x3c6edeb2	0.014579462
75	0xbc88fdd3	-0.016722595
76	0xbaa4d08c	-0.0012574359
77	0x38e0dc8d	0.00010722233
78	0x3ad7297f	0.0016415565
79	0xbb87e9ef	-0.00414776
80	0x3b213759	0.002459964
81	0xbbb7be86	-0.005607429
82	0x3c2237a3	0.00990096
83	0x3c72075a	0.014772261
84	0xbbcf1a8d	-0.006320304
85	0x3aed8472	0.0018121137
86	0xbbaede8b	-0.005336588
87	0xbb2ef284	-0.0026694844
88	0x3b13d4a9	0.0022557175
89	0x3b8669a2	0.004101948
90	0x3c00f560	0.007871002
91	0x3946cabf	0.0001895828
92	0xbbb80a5b	-0.005616469
93	0x3bf3c6c7	0.0074394676
94	0x3b027086	0.0019903495
95	0x3954fe42	0.00020312614
96	0x3c2307b8	0.009950571
97	0xbc569303	-0.013096574
98	0xbc0999b8	-0.008398466
99	0x3b83f6c7	0.004027221
100	0xbc01912f	-0.00790815
101	0xba89a5ef	-0.0010501723
102	0x3bf3e8aa	0.007443507
103	0x3c346aeb	0.011011819
104	0x3cb094cd	0.021555329
105	0x3ba33e41	0.0049817865
106	0x3c18b5db	0.0093207015
107	0xba90fde4	-0.0011061993
108	0x3bbdca45	0.0057919347
109	0x3bcb1714	0.0061978195
110	0xbad00057	-0.0015869242
111	0x3c228877	0.009920231
112	0x3c466fe2	0.012111636
113	0xbc03d301	-0.008045913
114	0xbbaf599e	-0.0053512594
115	0xba25fd6a	-0.0006332012
116	0xbc73533d	-0.0148513885
117	0x3b8c1322	0.0042747417
118	0x3bdf12df	0.0068076695
119	0xbc08e312	-0.008354919
120	0x3c0dc4c5	0.008652871
121	0x3c6b3b37	0.01435738
122	0x392e36e7	0.00016614386
123	0xbbb72118	-0.005588662
124	0x398bea23	0.0002668659
125	0x3c371646	0.011174744
126	0x3c0b9fe6	0.0085220095
127	0xbbf90f6d	-0.007600716

network_body._body_endoder.seq_layers.0.bias f4 [128]
0	0x3b27f86e	0.0025630253
1	0x3c47fed2	0.01220675
2	0xbb3bd4e6	-0.0028660833
3	0xbbc24eca	-0.0059298025
4	0xba856e2e	-0.0010179931
5	0x388d4072	6.735408e-05
6	0x3c5ef43a	0.013608033
7	0xbacedd37	-0.001578248
8	0x3a9dd08f	0.0012040305
9	0xbbbc854a	-0.005753194
10	0xba0992a9	-0.00052479893
11	0x3c06eee4	0.008235667
12	0xbae97639	-0.0017811722
13	0xba6b39d3	-0.0008973155
14	0x3b6c221c	0.0036031073
15	0x3b1afa17	0.00236476
16	0x3bc87ed8	0.0061186366
17	0xbbe65578	-0.0070292316
18	0x3bbe3d62	0.0058056572
19	0xbb8b4e0f	-0.0042512487
20	0x3b80bc60	0.003928706
21	0x3c2c6982	0.010523202
22	0xb982c8c9	-0.0002494513
23	0x3b77a5bc	0.0037787994
24	0x3b93809c	0.0045014154
25	0xbb64cf9e	-0.0034913789
26	0x3be665aa	0.0070311623
27	0xbb2190a1	-0.0024652856
28	0x3b20884b	0.00244953
29	0xbae40b8a	-0.0017398458
30	0x3be9c1cd	0.0071336986
31	0xbb0b5f0a	-0.0021266364
32	0x3c2388d6	0.009981355
33	0x396653a1	0.00021965663
34	0x3bef06d4	0.007294515
35	0x3bac3417	0.005255233
36	0x3ab74eb3	0.0013985246
37	0xbb3f7b6b	-0.002921785
38	0x3a8de9bd	0.0010827106
39	0xbbc821c7	-0.006107542
40	0x3bf1aaaf	0.0073750834
41	0xb9ff2033	-0.0004866138
42	0x3b8da423	0.004322545
43	0xbc71bdf4	-0.014754761
44	0xb7a0cc0e	-1.9168507e-05
45	0x3bb83b27	0.005622286
46	0x3b1a173b	0.0023512382
47	0xbc17c94f	-0.009264304
48	0xbc4092e2	-0.01175377
49	0xba8b3093	-0.0010619335
50	0x3bba6849	0.0056887013
51	0xbb57206a	-0.0032825717
52	0xbb2a0029	-0.0025940037
53	0xbc70af90	-0.014690295
54	0x3adb99af	0.0016754175
55	0x3afad642	0.001913734
56	0xb8ce00e3	-9.8230106e-05
57	0x3bd3f37f	0.006468236
58	0xbb0e2c29	-0.0021693802
59	0xbb9e9c24	-0.0048403908
60	0xbba1721c	-0.004926933
61	0x3c331a6f	0.010931595
62	0xbc58c693	-0.0132309375
63	0x3af9597c	0.0019023861
64	0xba9540a8	-0.0011387067
65	0xbbd245e0	-0.006417021
66	0xbbce64e2	-0.0062986473
67	0x3a5011fc	0.000793725
68	0xbbbf9acf	-0.005847312
69	0x395f03d2	0.0002126836
70	0xbbc03a83	-0.00586635
71	0xbb30ff8c	-0.0027007787
72	0x3b0c7018	0.0021429118
73	0xbb950c30	-0.004548572
74	0x3c28933f	0.010289012
75	0x3b3f03f5	0.0029146646
76	0xbaf23ef1	-0.0018481893
77	0xbbece8da	-0.0072299065
78	0xbc02193c	-0.007940587
79	0x3bbb3e76	0.005714233
80	0xbbf3e8b0	-0.00744351
81	0xb9dbc08b	-0.0004191439
82	0xbbb8bf92	-0.0056380713
83	0xbaef6928	-0.0018265592
84	0x3b229cae	0.0024812627
85	0xbc4212d0	-0.011845306
86	0x3bc4d25d	0.0060065226
87	0xbc312f78	-0.01081454
88	0x3b215369	0.0024616367
89	0x3a7344be	0.0009279958
90	0x3b2b49dc	0.0026136553
91	0x3b92ec26	0.0044837175
92	0xbb38e906	-0.0028215065
93	0x3b4e128d	0.0031444163
94	0xbc74b7e9	-0.014936426
95	0x3aace69e	0.0013191288
96	0xbc0e9cbe	-0.008704362
97	0xba80b1fa	-0.0009818666
98	0xbb650ca1	-0.0034950154
99	0xbbcb72ad	-0.006208739
100	0x3981f949	0.0002479053
101	0xb8a21069	-7.7278186e-05
102	0x3b635496	0.0034687868
103	0xbc082a26	-0.00831083
104	0x3bd92544	0.006626757
105	0x3b3b72a2	0.0028602262
106	0x3bdf89f3	0.0068218648
107	0xbb9e86c5	-0.004837843
108	0xbb3b4fd3	-0.0028581514
109	0x3a64b762	0.0008724836
110	0x3b544af7	0.0032393315
111	0x3c1a14ff	0.00940442
112	0xbc1abafd	-0.009443996
113	0xbbbe5220	-0.00580813
114	0xbb0ebf0c	-0.0021781353
115	0xbb7e5d0a	-0.003881278
116	0xbbc7ad87	-0.006093684
117	0x3bfa0296	0.007629703
118	0x3ba5f0cf	0.005064107
119	0x3b6438e9	0.003482396
120	0xbaedcbe4	-0.0018142429
121	0xbc153159	-0.009106004
122	0xbb046abe	-0.0020205225
123	0x3b2b0fd1	0.0026101957
124	0xbba59f30	-0.005054377
125	0x3a87b070	0.0010352265
126	0x39daaede	0.00041710486
127	0x3b16bc52	0.0023000431

network_body._body_endoder.seq_layers.0.weight f4 [128, 8]
0	0xbeee0ede	-0.46495718
1	0x3e400ddc	0.18755287
2	0x3ef5ff20	0.48046207
3	0x3d3a521d	0.045488466
4	0x3d2fc688	0.042913944
5	0xbc93f708	-0.01806213
6	0xbc7549bf	-0.014971196
7	0x3e559477	0.20857416
8	0x3c9d26b9	0.019183503
9	0xbcec9d85	-0.028883705
10	0x3eaebcf3	0.34128532
11	0xbf1dd055	-0.61646014
12	0x3c89b64e	0.016810562
13	0x3ddfdc0d	0.10930643
14	0x3e36d034	0.1785286
15	0x3e93ff77	0.28905842
16	0x3f141c5d	0.5785578
17	0xbe31cb9b	-0.17362826
18	0xbd823afa	-0.06358905
19	0x3e37a74d	0.17934914
20	0x3e91dd7d	0.28489295
21	0x3ea6f9a6	0.32612342
22	0x3e1a2463	0.15052943
23	0xbe83c95d	-0.25739565
24	0x3e71f154	0.23627216
25	0x3e8a04d3	0.26956806
26	0x3dcb199c	0.09916994
27	0x3ed99212	0.42494255
28	0xbe178ae4	-0.14799076
29	0xbe354cca	-0.17705074
30	0x3f0ab97d	0.5418928
31	0xbf15a6de	-0.58457744
32	0x3e0643af	0.13111757
33	0x3bc95f81	0.006145418
34	0xbd6454a6	-0.05574479
35	0xbee3e01f	-0.44506928
36	0x3daba307	0.083807044
37	0xbe48a652	-0.19594696
38	0xbea70087	-0.3261759
39	0xbe23b51b	-0.15987055
40	0x3ea85ef1	0.32884935
41	0x3e86dc49	0.2633994
42	0x3e9aef3b	0.30260643
43	0xbf6aff8e	-0.91796196
44	0xbd07e34d	-0.033175755
45	0x3e74d4ac	0.23909253
46	0xbe5bf8f2	-0.21481684
47	0x3e990b47	0.29891416
48	0xbee8c5f6	-0.45463532
49	0x3db93df6	0.09045021
50	0x3da91b5f	0.08257174
51	0xbebd6d6b	-0.36997542
52	0xbde85f63	-0.113463186
53	0xbda1cd53	-0.079004906
54	0x3dd48233	0.10376396
55	0xbeaf978f	-0.34295318
56	0x3ed92e29	0.4241803
57	0x3e5976da	0.21236745
58	0xbe97537c	-0.2955588
59	0xbd1666a8	-0.036718994
60	0x3da94ffc	0.08267209
61	0x3e8179dc	0.25288284
62	0xbdada1c1	-0.08478118
63	0x3e1288af	0.14309953
64	0xbe85cef7	-0.26134464
65	0x3ed8d199	0.4234741
66	0xbe8a808e	-0.27051204
67	0x3df700f3	0.12060728
68	0xbdbe6421	-0.09296442
69	0x3e5f4b01	0.21805955
70	0x3e152969	0.14566578
71	0x3edc4183	0.4301873
72	0x3f16eaab	0.58951825
73	0x3f3cc0f3	0.7373192
74	0x3ead714c	0.338755
75	0x3e3a32db	0.18183462
76	0x3df9d2f7	0.121984415
77	0x3ec0707c	0.3758582
78	0x3ec015de	0.37516683
79	0xbe934572	-0.2876392
80	0xbee923c4	-0.455351
81	0xbdc93507	-0.09824567
82	0x3f56d5b5	0.8391984
83	0xbe456079	-0.19275083
84	0xbeabbe85	-0.33543792
85	0xbda3d8c7	-0.08000331
86	0xbeecb884	-0.46234524
87	0x3ecb34b1	0.39688638
88	0xbf4172ee	-0.75565994
89	0x3e234061	0.15942527
90	0x3f72a577	0.9478373
91	0xbeed82cb	-0.4638885
92	0xbe9f99b2	-0.31171948
93	0xbe61d7b8	-0.22054946
94	0x3ef96858	0.4871242
95	0x3f01c1c2	0.50686276
96	0xbf48afd3	-0.78393286
97	0xbdffe901	-0.12495614
98	0x3ec85768	0.39129186
99	0xbd1ec26d	-0.038759638
100	0x3cae1b6a	0.021253306
101	0xbed9781c	-0.4247445
102	0xbeeaaa82	-0.45833212
103	0x3ed10779	0.40826014
104	0xbf66a5e5	-0.90096885
105	0x3e902bbe	0.28158373
106	0xbdd5af26	-0.104337975
107	0x3ec9fd94	0.39451277
108	0xbea5189a	-0.32245332
109	0x3edf9f42	0.43676192
110	0x3b20fb5d	0.0024563887
111	0x3dc4631d	0.09589217
112	0xbe15cf06	-0.14629754
113	0xbc5fd33d	-0.013661203
114	0x3d7208a1	0.05909026
115	0x3c148cca	0.00906677
116	0x3d3ae294	0.045626238
117	0x3e2316f1	0.1592672
118	0x3e0a1e42	0.13488105
119	0xbdea9a57	-0.11455219
120	0xbe10a209	-0.14124312
121	0xbed13196	-0.40858144
122	0x3f3e19e1	0.7425824
123	0x3ec32e92	0.38121468
124	0x3d3d3911	0.046197
125	0xbdf5d518	-0.12003535
126	0x3eba5b8b	0.36397967
127	0x3f0beaab	0.5465495
128	0xbec5e55b	-0.38651547
129	0x3bb437e5	0.005499827
130	0x3d2d8963	0.04236735
131	0xbeff563f	-0.49870488
132	0x3ea5311a	0.32264024
133	0x3cd7c6ef	0.026339976
134	0xbe634857	-0.22195564
135	0xbeaeb942	-0.34125715
136	0x3f0e9339	0.55693394
137	0xbd0e1557	-0.03468832
138	0x3f136513	0.575761
139	0x3e080663	0.13283686
140	0xbe77e679	-0.24209012
141	0xbedb7473	-0.4286228
142	0xbed65013	-0.41857967
143	0xbf40d1ec	-0.75320315
144	0xbd36f23d	-0.04466461
145	0xbe7b4430	-0.2453773
146	0x3d88af0a	0.06674011
147	0xbe96feb1	-0.2949119
148	0xbe6ef040	-0.23333836
149	0x3f1468a3	0.5797216
150	0x3ec423d5	0.38308588
151	0xbdae66f5	-0.08515731
152	0x3e97aba2	0.29623133
153	0x3e1e28dd	0.15445276
154	0x3f12be70	0.57321835
155	0xbeaa5ab9	-0.3327234
156	0x3d76ce94	0.060255602
157	0xbf4cbe2d	-0.79977685
158	0x3ec3507b	0.3814734
159	0x3e746b4a	0.23869053
160	0xbed50ab9	-0.41609743
161	0xbe29403c	-0.1652841
162	0x3eaefd2d	0.34177533
163	0x3ec88577	0.39164326
164	0x3eec1dbc	0.46116436
165	0xbd6903ce	-0.056888394
166	0x3ba5e597	0.0050627696
167	0xbe9db207	-0.30799887
168	0xbf33deea	-0.70262015
169	0xbd90899b	-0.07057496
170	0xbd8e829e	-0.06958507
171	0xbdbd56f0	-0.09245098
172	0x3ebd5cd4	0.36984885
173	0xbe497a73	-0.19675617
174	0x3f08d633	0.5345184
175	0x3eb77e60	0.35838604
176	0xbe805fa8	-0.2507298
177	0x3e895273	0.26820716
178	0xbedc5a74	-0.4303776
179	0x3ed98c0d	0.42489663
180	0x3f7ccd8b	0.98751134
181	0xbf02e56c	-0.5113132
182	0xbf03c6ad	-0.5147503
183	0x3e6c36f9	0.23067845
184	0x3d8acc8a	0.06777294
185	0xbd2d661b	-0.042333703
186	0x3dad9535	0.084757246
187	0xbf3a697e	-0.7281722
188	0x3f0fb086	0.5612873
189	0xbee196ee	-0.44060463
190	0xbeaffa99	-0.34370878
191	0xbef915fe	-0.4864959
192	0x3e9a19ac	0.3009771
193	0x3f3578c0	0.70887375
194	0xbdba9652	-0.091107026
195	0x3ee2a820	0.44268894
196	0x3ea2a019	0.3176277
197	0xbdd73869	-0.10508806
198	0xbe117aa6	-0.14206943
199	0x3e8ac22c	0.27101266
200	0x3db32e61	0.087490804
201	0xbf54aca4	-0.8307593
202	0xbe21f277	-0.15815149
203	0x3dc2c8ff	0.09510993
204	0xbf2047c3	-0.626095
205	0x3e93551b	0.28775868
206	0xbd553b56	-0.05205854
207	0xbef14c92	-0.4712873
208	0xbe8ed2d6	-0.2789523
209	0x3dc38759	0.095473
210	0xbde66d8f	-0.112513654
211	0xbe667542	-0.22505668
212	0x3f5782e0	0.84184074
213	0x3f0fe48c	0.5620811
214	0xbf38c146	-0.7216991
215	0xbf342ed2	-0.7038394
216	0x3e1652c1	0.14680006
217	0x3edcaf1d	0.4310235
218	0xbc74f22d	-0.014950317
219	0xbe9f1174	-0.31068003
220	0x3e8c74f5	0.2743298
221	0xbee14d90	-0.44004488
222	0xbf10df1e	-0.5659045
223	0xbde7182e	-0.11283909
224	0x3d8d4056	0.06897037
225	0xbe6bcaf5	-0.2302664
226	0x3d9e53a8	0.077308
227	0xbf0a7260	-0.5408077
228	0x3ecfddb5	0.40598837
229	0xbe57efed	-0.21087618
230	0xbda34fe0	-0.07974219
231	0xbe9b7cbf	-0.3036861
232	0x3eb2c684	0.3491708
233	0xbe7b7db1	-0.24559666
234	0xbe986850	-0.29767084
235	0xbe08b286	-0.13349351
236	0x3e08cd8f	0.13359664
237	0xbd86cf99	-0.06582565
238	0xbf34c538	-0.7061343
239	0xbdfe4415	-0.12415329
240	0xbd5a5e5b	-0.05331264
241	0xbe0dc346	-0.13844022
242	0x3f148956	0.5802206
243	0x3cb600dc	0.022217207
244	0xbe347157	-0.1762136
245	0x3e615a00	0.22006989
246	0x3f242374	0.641166
247	0x3e0c621c	0.13709301
248	0xbec202a0	-0.37892628
249	0x3e4d0c88	0.20024312
250	0x3f354920	0.70814705
251	0x3eb2d6dc	0.3492955
252	0xbf6377bf	-0.88854593
253	0x3efeca01	0.49763492
254	0xbed489df	-0.41511437
255	0x3e46f869	0.19430698

network_body._body_endoder.seq_layers.2.bias f4 [128]
0	0x3c028ddf	0.007968395
1	0xbc2944e8	-0.01033137
2	0xbb661f17	-0.0035113746
3	0x3a8429bc	0.0010083239
4	0xbb1ae1cf	-0.0023633128
5	0xbbfebfec	-0.0077743437
6	0xbb6a3683	-0.0035738058
7	0xbb410f58	-0.0029458608
8	0xb703c75f	-7.854628e-06
9	0x3b4ee0df	0.003156714
10	0x3be0bd09	0.0068584722
11	0xbb3a3f5a	-0.0028419108
12	0x3c4cc0ac	0.012497108
13	0xbacd84eb	-0.0015679871
14	0xbb20399e	-0.0024448405
15	0xbc359d95	-0.011084934
16	0x3a68293d	0.00088562426
17	0x3b2ac010	0.002605442
18	0x3ae3b89a	0.0017373741
19	0x3b138cb9	0.0022514297
20	0xbbf303d1	-0.0074162264
21	0xbb5e5d2c	-0.0033930046
22	0xbb9c063b	-0.004761485
23	0x3b6d5301	0.0036212804
24	0x3ae58942	0.001751222
25	0x3c1cef43	0.009578529
26	0x3ad45736	0.0016200307
27	0xb91c44c0	-0.0001490293
28	0x3bf65c7f	0.0075183506
29	0xbbe31f69	-0.0069312346
30	0x3bc2807d	0.005935727
31	0xba8bb0c6	-0.0010657541
32	0x3b56bf5d	0.003276787
33	0xbabd1a68	-0.0014427425
34	0xbb99f3d5	-0.0046982565
35	0x3ac381c5	0.0014915994
36	0xbb0c9d9c	-0.0021456247
37	0x3b058522	0.0020373543
38	0xbbc0a261	-0.005878732
39	0x3bce28bd	0.0062914775
40	0xbbb380e7	-0.005478013
41	0xbb40e136	-0.0029431111
42	0x3c1749c8	0.009233899
43	0x3b1e05f7	0.0024112442
44	0xbb2684df	-0.0025408787
45	0xba9f339a	-0.0012146116
46	0xbaab45e0	-0.0013067089
47	0x3a5f17e3	0.00085103343
48	0xbb77edf9	-0.0037831052
49	0x3c17ca45	0.009264533
50	0x3b83f78c	0.0040273126
51	0x3b4ac2a1	0.0030938762
52	0xbba7117e	-0.005098521
53	0x3b3db8c7	0.0028949247
54	0xbbc31c35	-0.0059542903
55	0xba1862b3	-0.0005813047
56	0x3bae0431	0.0053105582
57	0x3b1e08da	0.0024114163
58	0xb9340007	-0.00017166148
59	0x3a6a04ce	0.00089271076
60	0x3acfb1c1	0.0015845821
61	0x3bb70f6b	0.0055865548
62	0xb85ab1cf	-5.2140847e-05
63	0x3b1e30e6	0.0024138032
64	0xbb9c7b7c	-0.0047754627
65	0xba1c3d14	-0.0005960029
66	0xbb3d57e9	-0.002889151
67	0x3b6a3f58	0.0035743322
68	0x3ab4519f	0.0013757235
69	0x3a86c680	0.0010282546
70	0xbbbaa286	-0.005695644
71	0x3aeab366	0.0017906248
72	0xb9addf41	-0.00033163468
73	0x3af76ee5	0.0018877654
74	0x3b172b76	0.0023066676
75	0xba58192b	-0.00082434964
76	0x3beb5770	0.007182054
77	0x3bdd266f	0.0067489664
78	0xbb4ae12e	-0.0030956971
79	0x3bc8d98d	0.0061294497
80	0xb5905c9b	-1.0755788e-06
81	0xbba5eeaa	-0.0050638514
82	0xba7c1d13	-0.00096173695
83	0x39f681ad	0.00047017392
84	0xb9e935b9	-0.0004448125
85	0x3b8c0595	0.0042731264
86	0x3b99fd40	0.004699379
87	0x3b2f96c6	0.0026792749
88	0x3a8210f1	0.0009923262
89	0xb9b99cdd	-0.00035402822
90	0x3c06d02d	0.008228344
91	0xbb0509be	-0.0020299996
92	0x3b985223	0.0046484633
93	0xb91154b7	-0.00013859836
94	0x3a40094c	0.0007325604
95	0x3a8b9327	0.0010648713
96	0xbbc3b584	-0.005972566
97	0x3b621329	0.0034496284
98	0x38de5aae	0.00010602675
99	0x3bb0ed24	0.005399363
100	0xbb193b02	-0.0023381119
101	0x3a7cd5ff	0.0009644925
102	0x3a193e2b	0.00058457506
103	0xbb4a94b3	-0.0030911386
104	0x3b7a4988	0.00381908
105	0x3b960138	0.004577782
106	0x3b86eaa2	0.004117326
107	0xbaf2fcf4	-0.0018538521
108	0xbb8c5495	-0.004282544
109	0x3bfc7129	0.0077039194
110	0x3a8c074e	0.0010683329
111	0xba1146e0	-0.0005541872
112	0x3ab8f6c7	0.0014111631
113	0xbb1bb753	-0.0023760393
114	0xba9157f9	-0.001108884
115	0xbbff5827	-0.007792491
116	0xba7c82dc	-0.00096325367
117	0xbb049f87	-0.0020236687
118	0xbaa2f908	-0.0012433836
119	0xba34a70f	-0.0006891349
120	0xbb5e0a82	-0.0033880775
121	0xb8ac11ee	-8.204939e-05
122	0x3b345a08	0.0027519483
123	0x3b5deffe	0.003386497
124	0xbbbdfaf6	-0.005797739
125	0xbb303f2c	-0.0026893122
126	0xbb7c4ab5	-0.0038496677
127	0xba9c2d25	-0.001191531

network_body._body_endoder.seq_layers.2.weight f4 [128, 128]
0	0x3d71a884	0.0589986
1	0xbd3716cf	-0.044699486
2	0x3df7824a	0.120853975
3	0x3dba555e	0.09098314
4	0xbd8270da	-0.06369181
5	0x3e28e165	0.16492231
6	0x3dabe643	0.08393528
7	0xbd52c137	-0.051453795
8	0xbd25e011	-0.04049689
9	0xbddf44ea	-0.10901816
10	0x3d993d0a	0.074823454
11	0xbb04eb9b	-0.0020282033
12	0xbba159b3	-0.004924023
13	0x3e91a760	0.2844801
14	0x3dd3d8d7	0.10344093
15	0xbd08d237	-0.0334036
16	0x3e26edd1	0.16301657
17	0xbe276f29	-0.16350998
18	0x3d214854	0.039375618
19	0xbde130bd	-0.10995624
20	0xbb922631	-0.004460119
21	0xbdc592d2	-0.096471444
22	0xbe5f1f37	-0.21789251
23	0xbc67a8a4	-0.014139328
24	0x3d872f9a	0.06600876
25	0x3c284225	0.010269676
26	0x3c288128	0.0102846995
27	0xbe302d21	-0.17204715
28	0x3e089df5	0.13341506
29	0x3e3348a9	0.17508186
30	0x3de5fca7	0.1122983
31	0xbd05f18b	-0.032701056
32	0x3d4ae5da	0.04953561
33	0xbcae4d79	-0.021277176
34	0xbd51696e	-0.051125936
35	0x3cd1e5b5	0.025622228
36	0x3cbaa0d1	0.022781761
37	0xbc82eaa8	-0.015981033
38	0x3df1341e	0.11777519
39	0x3d6f8ad5	0.05848201
40	0xbdebe648	-0.11518532
41	0x3cf00933	0.029301262
42	0x3dc66e56	0.09689014
43	0xb9b20c71	-0.00033960075
44	0x3d320498	0.043461412
45	0x3d9b58d9	0.07585306
46	0xbb202454	-0.0024435716
47	0x3e07aee7	0.13250314
48	0xbd8b9b1c	-0.06816694
49	0x3e29a415	0.16566499
50	0xbe0ce041	-0.13757421
51	0x3b412f87	0.0029477791
52	0x3dee653d	0.116404034
53	0xbdc124ae	-0.09430824
54	0xbda2ee50	-0.07955611
55	0x3cccdf01	0.02500868
56	0xbd5b653b	-0.053563338
57	0x3c646bd4	0.013941724
58	0xbb523b2a	-0.0032078722
59	0xbd5c2d38	-0.05375406
60	0xbd2ec009	-0.042663608
61	0x3e19cfed	0.15020724
62	0x3ccf8cc8	0.025335684
63	0xbd5f40e8	-0.05450526
64	0x3dc7acb3	0.09749737
65	0xbcf5234d	-0.02992406
66	0xbc44f532	-0.01202135
67	0xbde6e586	-0.11274247
68	0x3d903c85	0.07042793
69	0x3d4223a0	0.047397256
70	0xbc9c3886	-0.019069921
71	0x3dca49ba	0.098773435
72	0xbdc10129	-0.094240494
73	0xbd891179	-0.06692786
74	0xbd2dad12	-0.04240138
75	0x3b44d364	0.0030033225
76	0x3d3a9ec0	0.045561552
77	0xbda39259	-0.07986898
78	0xbd960afb	-0.07326313
79	0x3dd5ba4c	0.10435924
80	0xbd0de1c0	-0.03463912
81	0xbdd9d45f	-0.1063621
82	0x3d752b7a	0.059855916
83	0x3aeddb47	0.0018147015
84	0xbc3c8fbe	-0.01150888
85	0x3beda606	0.0072524576
86	0x3e04d7dc	0.12972969
87	0xbde036af	-0.1094793
88	0xbcbac24a	-0.022797722
89	0xbc536f73	-0.0129049895
90	0xbd17dd07	-0.037076022
91	0xbba383eb	-0.004990091
92	0xbcaac66e	-0.020846572
93	0x3bc3286e	0.0059557473
94	0xbdbb7057	-0.091522865
95	0xbcb07514	-0.021540202
96	0xbe367f32	-0.17821959
97	0x3d7e0b0d	0.062022258
98	0x3d917c62	0.07103802
99	0xbe5409f1	-0.20706917
100	0x3c0c86c2	0.008577051
101	0x3db6b25e	0.089207396
102	0xbbc2e3f3	-0.005947584
103	0xbe1a6077	-0.15075861
104	0x3d4e63d1	0.05038816
105	0x3d3573cf	0.044299897
106	0x3e000ea1	0.1250558
107	0xbdcefb62	-0.10106541
108	0xbd979fb6	-0.07403509
109	0xbd289178	-0.041154355
110	0xbd3677bc	-0.04454778
111	0x3dc828d0	0.09773409
112	0x3a7e492f	0.0009700236
113	0xbd317b3d	-0.04333042
114	0x3db305c4	0.08741334
115	0xbe508a08	-0.20365155
116	0xbdb7a4e8	-0.08967
117	0x3d85a6af	0.06525933
118	0xbd1f2df8	-0.0388622
119	0xbd63af16	-0.055586897
120	0xbd554353	-0.05206616
121	0xbdddd032	-0.10830726
122	0x3de505ed	0.11182771
123	0xbe2d6ff5	-0.1693724
124	0x3da8e4a9	0.082467385
125	0xbcb22651	-0.021746786
126	0xbd45e205	-0.048311252
127	0xbdf4e4ce	-0.119577035
128	0x3d7afa32	0.06127376
129	0x3e0bd639	0.13655938
130	0xbdd30e53	-0.103054665
131	0xbe3bd61c	-0.18343395
132	0x3d596b0d	0.053080607
133	0xbe23e335	-0.16004641
134	0x3d31f553	0.04344685
135	0xbdb699a8	-0.08916026
136	0xbcc420dc	-0.02394145
137	0x3e045e48	0.1292659
138	0xbdfe87b0	-0.12428224
139	0xbe1908d8	-0.1494478
140	0x3da62574	0.08112612
141	0x3d20322b	0.039110344
142	0xbb95b00e	-0.0045681065
143	0xbe2caed2	-0.16863564
144	0xbe434321	-0.19068576
145	0x3c82904d	0.015937949
146	0xbd412ff5	-0.047164876
147	0x3c884639	0.016635047
148	0x3ddc4f50	0.10757315
149	0xbdbfb72b	-0.093611084
150	0x3e1a4065	0.15063627
151	0xbe2981cc	-0.1655342
152	0x3d498c9f	0.049206372
153	0x3d17b585	0.037038345
154	0x3cdbdafd	0.02683782
155	0x3d6422f4	0.055697396
156	0x3dae1435	0.08499948
157	0x3da7dd71	0.081965335
158	0x3d94bf53	0.07263055
159	0xbdaa6175	-0.0831937
160	0xbd39d5d3	-0.045369934
161	0xbcd7edbe	-0.026358481
162	0xbd85e9d5	-0.065387405
163	0x3de5e76d	0.112257816
164	0x3dfc1e9a	0.12310524
165	0xbd38329d	-0.044970144
166	0xbca3d472	-0.019998763
167	0xbde1fd3d	-0.110346295
168	0xbd939116	-0.07205407
169	0xbc2ac7fd	-0.0104236575
170	0x3e0c282f	0.13687204
171	0x3d501adc	0.050806865
172	0x3c69a024	0.014259372
173	0x3dbc2762	0.09187199
174	0x3c8e7aef	0.017392604
175	0xbe2b3400	-0.16719055
176	0x3c6bea43	0.014399114
177	0xbb282fa4	-0.0025663162
178	0x3d436aa4	0.047709122
179	0x3ca0b4c1	0.01961744
180	0xbe000bff	-0.12504576
181	0xbbd931de	-0.006628259
182	0x3c98df4e	0.018661167
183	0xbb90c55e	-0.0044180593
184	0xbdec5b04	-0.11540797
185	0xbd1dfb30	-0.03856963
186	0x3cb74cef	0.022375552
187	0x3d943021	0.07235742
188	0xbd02f8f7	-0.031975713
189	0xbd67de7e	-0.05660867
190	0xbe0a9092	-0.13531712
191	0x3d5b1240	0.0534842
192	0xbd1d6f0f	-0.03843599
193	0x3c1711da	0.009220565
194	0x3c940f39	0.018073665
195	0xbcbe33e7	-0.023218108
196	0xba91bd1b	-0.001111898
197	0xbd801ac0	-0.06255102
198	0x3b106fab	0.0022039216
199	0x3df2207d	0.11822603
200	0xbe65f7c7	-0.22457801
201	0xbd30a747	-0.043128278
202	0x3c4ee8d6	0.012628755
203	0xbd14a41f	-0.03628933
204	0x3e117e1d	0.14208265
205	0xbd96e309	-0.07367522
206	0xbccae917	-0.024769349
207	0x3dc3338d	0.09531317
208	0xbc724d2e	-0.014788909
209	0xbdc49f2d	-0.09600673
210	0x3da49aaf	0.08037316
211	0x3d222275	0.039583642
212	0xbcbf91e7	-0.023385001
213	0xbc9a6fc8	-0.01885213
214	0x3d134079	0.035950158
215	0x3d76f643	0.060293447
216	0x3d6d941c	0.058002576
217	0xbd998fd3	-0.074981354
218	0xbde3e40c	-0.11127481
219	0x3d8f2ae0	0.069906
220	0xbe82446c	-0.25442827
221	0xbd9de986	-0.07710557
222	0x3d8724a8	0.065987885
223	0xbd56c846	-0.05243709
224	0xbd9261fd	-0.07147596
225	0x3a9c04ba	0.0011903264
226	0xbde63eeb	-0.112424694
227	0xbcf8c40e	-0.030366924
228	0xbd9eab46	-0.077475116
229	0xbd391497	-0.04518565
230	0xbd1b7fdb	-0.03796373
231	0xbdcd8b25	-0.10036305
232	0x3e23d6df	0.15999936
233	0x3d2176a2	0.039419778
234	0x3e2656ad	0.16244002
235	0xbd389264	-0.045061484
236	0x3e21d36e	0.1580331
237	0xbd56250e	-0.05228143
238	0xbddb9a28	-0.10722762
239	0xbd6c4038	-0.05767843
240	0xba7a8a7c	-0.0009557379
241	0x3de3d882	0.1112528
242	0xbda79d2d	-0.08184276
243	0xbd1f799b	-0.03893433
244	0xbc53ae92	-0.012920039
245	0xbc1c1dba	-0.009528572
246	0xbc15c8a8	-0.009142078
247	0xbdb36775	-0.08759967
248	0xbd8667d9	-0.06562776
249	0x3d5703cb	0.05249385
250	0x3e55d944	0.20883662
251	0xbdb7c167	-0.089724354
252	0xbc7d56cb	-0.015462588
253	0x3d7164dc	0.058934078
254	0x3d022248	0.031770974
255	0x3ce1a90f	0.027546434
