ML-Agent_EconomicModel/results/Economic-1/Economic.onnx (onnx, 76961 bytes, 8 tensors)

action_model._continuous_distribution.log_sigma f4 [1, 5]
0.015022442 0.011426691 0.012374576 0.0029112203 -0.0018163471
00000000: b020 763c 0437 3b3c bcbe 4a3c 2cca 3e3b
00000010: 7f12 eeba

action_model._continuous_distribution.mu.bias f4 [5]
0.0008680228 -0.00057274435 0.0010583205 0.00087399274 -0.0016988893
00000000: 068c 633a 3924 16ba 58b7 8a3a a91c 653a
00000010: 44ad deba

action_model._continuous_distribution.mu.weight f4 [5, 128]
0.014999709 -0.004901367 0.058070175 -0.027432736 -0.030826977 0.04149041 0.012183225 0.041116875
-0.029616702 0.01057074 -0.03339837 0.019296834 0.007821335 0.0015479638 -0.040197074 -0.028881412
0.0033285613 0.00898329 0.025379676 -0.023150202 -0.014951698 -0.003936843 0.0015932798 0.0012736245
0.00072590983 0.0214048 0.03471956 -0.030773794 -0.018012566 0.022616193 -0.0032313582 0.011767983
0.024504136 -0.052388765 0.023396939 0.012519307 -0.007212 -0.021292776 -0.0121381385 -0.002355423
0.009066348 -0.014430261 0.0010490959 0.021309877 0.013892769 0.005313469 -0.045523807 0.018809794
0.012219072 0.014416266 -0.014134265 0.0015961912 -0.04671393 0.011612645 -0.0012322377 0.0070392922
0.0042534117 0.0029872688 0.028395763 0.018893471 -0.03179567 0.01642214 -0.0010192418 0.03570353
-0.009762219 -0.021076253 -0.020749593 -0.0015281326 0.0049483594 0.008318818 -0.013505906 -0.012835815
0.008386292 0.0026142467 -0.0037658422 0.02028205 -0.01936761 -0.01676544 0.025873445 -8.091725e-05
0.004322471 -0.003990213 0.0033565569 -0.015148196 0.00660841 0.01760298 0.016358983 -0.012618422
0.030314252 -0.019465854 0.0005577559 -0.030509079 0.01852792 0.021303719 -0.00958985 0.011007911
0.0062209354 -0.009837084 -0.027117532 -0.017476406 0.030949542 0.009298172 0.0025897545 0.0070367726
-0.024140617 0.010130195 -0.012736234 0.012135267 0.0042505166 0.012998326 -0.028880818 0.04052206
-0.046403877 0.014879463 -0.02278342 -0.012514736 -0.0059965276 0.034542475 -0.002814019 -0.04229634
-0.0461134 0.011317835 0.00046999037 -0.008557021 0.010278161 -0.003327664 0.0068472656 -0.02696675
0.0013181643 -0.022285841 -0.029305523 0.0082675265 -0.0076544513 -0.017566787 0.008818112 0.016453369
-0.013645641 0.016856583 0.0058350703 -0.011540305 0.022464866 -0.0035734873 0.0065894467 -0.019569354
0.011754657 -0.032655377 -0.017874954 -0.017554058 0.00024381245 0.037702333 -0.028542131 -0.01366449
0.020822814 -0.012336324 -0.023622265 0.01575956 0.010418483 0.0024322679 -0.008260391 0.0022428755
0.015412564 -0.010719133 0.021106333 -0.0013515411 -0.001067131 0.006535323 -0.004496198 0.015965233
-0.008613629 -0.021257436 0.01802913 -0.017866693 -0.009268576 -0.0069234204 0.021188632 0.002890076
0.035917994 0.014458423 -0.017969104 0.012270603 0.015135605 -0.012779784 0.010784779 0.006297665
-0.026336184 -9.476263e-05 -0.027240802 0.018069245 0.0049840827 -0.011226355 0.021090673 0.0059089237
0.035371948 0.027805293 -0.018678077 0.007529236 0.022607077 0.020053644 -0.009162126 0.010382956
-0.008674226 -0.0027994362 0.015050974 -0.021389944 -0.013940598 0.009468286 -0.007104205 0.017714575
0.006403021 -0.010631082 -0.006629525 0.008805488 0.0066441707 0.015842285 -0.008364724 -0.006905101
0.009262432 -0.005378376 0.0020304366 0.030483408 0.021625994 0.028339485 -0.002215321 0.006635808
0.027928147 -0.0011886504 -0.005078407 0.012296391 -0.014721162 -0.00067039655 -0.008873284 -0.01798843
-0.021716166 -0.026763625 -0.016118595 -0.006090543 -0.003211945 0.031080157 -0.02400629 0.0001403721
0.012780423 -0.043502588 -0.0023134218 0.02769437 -0.011530591 0.03190925 -0.0046673035 -0.008056006
-0.009418581 -0.007800034 0.007094895 0.015317565 0.0065476527 -0.046476003 0.02686216 0.0013992244
00000000: 57c1 753c a59b a0bb feda 6d3d 9eba e0bc
00000010: db88 fcbc d9f1 293d 269c 473c 2b6a 283d
00000020: ba9e f2bc e630 2d3c bbcc 08bd 6514 9e3c
00000030: 0f25 003c 0ce5 ca3a b0a5 24bd b698 ecbc
00000040: fe23 5a3b a62e 133c 0ae9 cf3c 7ea5 bdbc
00000050: f7f7 74bc a200 81bb 99d5 d03a bfef a63a
00000060: fc4a 3e3a 1e59 af3c 1936 0e3d 5319 fcbc
00000070: 178f 93bc 9845 b93c 32c5 53bb 80ce 403c
00000080: e6bc c83c 9a95 56bd f0aa bf3c c81d 4d3c
00000090: a452 ecbb 306e aebc 0bdf 46bc 715d 1abb
000000a0: 058b 143c e76c 6cbc d181 893a 0d92 ae3c
000000b0: 7f9e 633c 9c1c ae3b 2c77 3abd ff16 9a3c
000000c0: 8132 483c 3432 6c3c 6793 67bc 4a37 d13a
000000d0: 1b57 3fbd f742 3e3c 0983 a1ba dda9 e63b
000000e0: 3460 8b3b 0ec6 433b 3b9e e83c 7bc6 9a3c
000000f0: 2d3c 02bd b987 863c 1498 85ba dd3d 123d
00000100: b7f1 1fbc 1ba8 acbc 0dfb a9bc 9f4b c8ba
00000110: d925 a23b a74b 083c e047 5dbc 4f4d 52bc
00000120: a866 093c c853 2b3b 59cc 76bb 8b26 a63c
00000130: d2a8 9ebc ad57 89bc 8cf4 d33c 1eb2 a9b8
00000140: 84a3 8d3b 55c0 82bb aef9 5b3b 2430 78bc
00000150: 5c8b d83b 2034 903c 4603 863c 7fbd 4ebc
00000160: 9855 f83c db76 9fbc 5d36 123a 2dee f9bc
00000170: ddc7 973c 2385 ae3c bf1e 1dbc 865a 343c
00000180: fdd8 cb3b b92b 21bc 9625 debc ae2a 8fbc
00000190: e589 fd3c 5c57 183c dfb8 293b ba94 e63b
000001a0: 8bc2 c5bc 1ef9 253c a3ab 50bc 00d3 463c
000001b0: eb47 8b3b eef6 543c 7797 ecbc 76fa 253d
000001c0: fe11 3ebd fec8 733c 4ba4 babc 9b0a 4dbc
000001d0: 857e c4bb 697c 0d3d 686b 38bb ed3e 2dbd
000001e0: 68e1 3cbd 716e 393c 0a69 f639 bf32 0cbc
000001f0: bb65 283c f014 5abb 075f e03b 60e9 dcbc
00000200: 41c6 ac3a cc90 b6bc 2312 f0bc 8574 073c
00000210: 31d2 fabb 39e8 8fbc d879 103c 37c9 863c
00000220: f791 5fbc d116 8a3c 1e34 bf3b 8c13 3dbc
00000230: 3d08 b83c 2b31 6abb 49ec d73b e94f a0bc
00000240: 9b96 403c a5c1 05bd 7f6e 92bc 87cd 8fbc
00000250: e8a7 7f39 c36d 1a3d 30d1 e9bc 06e1 5fbc
00000260: 9b94 aa3c 4b1e 4abc 7b83 c1bc 311a 813c
00000270: 49b2 2a3c af66 1f3b 9756 07bc 35fd 123b
00000280: fb84 7c3c 4d9f 2fbc 30e7 ac3c 3226 b1ba
00000290: f9de 8bba 4326 d63b d854 93bb 85c9 823c
000002a0: 2e20 0dbc 1324 aebc d3b1 933c 2c5d 92bc
000002b0: 3adb 17bc dcdd e2bb c893 ad3c 6e67 3d3b
000002c0: bf1e 133d 05e3 6c3c f133 93bc a40a 493c
000002d0: 54fb 773c 4d62 51bc a4b2 303c a55c ce3b
000002e0: fbbe d7bc 4dbb c6b8 1a28 dfbc f405 943c
000002f0: 8451 a33b bfee 37bc 59c6 ac3c a59f c13b
00000300: 2de2 103d edc7 e33c c402 99bc cfb7 f63b
00000310: 7a32 b93c 8a47 a43c be1c 16bc 461d 2a3c
00000320: 571e 0ebc bf76 37bb 5c98 763c f739 afbc
00000330: 1b67 64bc df20 1b3c 64ca e8bb 281e 913c
00000340: 6fd0 d13b fd2d 2ebc 7d3c d9bb e544 103c
00000350: 58b7 d93b aec7 813c 320c 09bc 2f44 e2bb
00000360: 75c1 173c 173d b0bb 1311 053b 57b8 f93c
00000370: ff28 b13c 3528 e83c eb2e 11bb 3171 d93b
00000380: 92c9 e43c 7dcc 9bba c468 a6bb cd76 493c
00000390: 0731 71bc 8dbd 2fba 4061 11bc 795c 93bc
000003a0: 1ae6 b1bc 643f dbbc 250b 84bc 2d93 c7bb
000003b0: 7f7f 52bb d09b fe3c d7a8 c4bc d930 1339
000003c0: fb64 513c c52f 32bd c79c 17bb 4edf e23c
000003d0: ceea 3cbc 46b3 023d 2ef0 98bb 57fd 03bc
000003e0: 6450 1abc 6d97 ffbb 4b7c e83b 86f6 7a3c
000003f0: b18d d63b 9f5d 3ebd 080e dc3c 2e66 b73a

action_model._discrete_distribution.branches.0.weight f4 [1, 128]
-0.0055612926 -0.006354121 -0.0022955684 0.0045167487 0.0057403524 -0.015635775 -0.011115766 0.000209984
-0.015703967 0.012771792 0.0026447705 -0.0023695875 -0.003735238 -0.02082795 -0.004943134 0.0057144943
0.0062459786 0.0014541739 -0.0021843412 0.00039400012 0.0013723174 -0.009421538 0.005617206 -0.007473983
-0.007034631 0.00081281894 -0.003992557 -0.013177621 -0.009350568 -0.009986256 0.0003765408 0.011278948
-0.0034670234 -0.018780239 -0.008183871 0.018484227 0.00886445 -0.011322187 -0.003983312 0.008814918
0.015763817 0.013184154 -0.0052999165 0.006543261 -0.005540073 0.0074610314 0.014475825 -0.0041782055
-0.008525124 -0.015191187 0.00029783012 0.00019521153 -0.014982729 -0.011590203 0.001055378 0.00074506755
-0.0085261 -0.015419954 -0.0076746205 0.00804038 -0.010676417 -0.0005216591 0.00637004 0.005807383
-0.0036219105 -0.0127051845 -0.0046780384 -0.019299759 -0.002136016 -0.0019598461 -0.006541421 0.00404271
-0.006328568 -0.0065022144 -0.013259485 0.008295854 0.0022404874 -0.011350041 0.009664732 0.01183661
-0.0033964738 0.00075698097 0.006166717 0.019416377 -0.0011792388 -0.01755371 -0.004681744 0.0071027875
0.001933041 0.008195264 -0.007386534 -0.0043376875 -0.014146 0.0017194288 -0.00020199745 -0.0077176676
-0.00790316 -0.0020179595 0.012821804 -0.00872103 0.0010418029 0.016560886 0.007043821 -0.014817702
-0.0071168705 0.013213475 -0.0032542367 -0.0032111865 0.0037640363 -0.0005713561 -0.010904329 -0.0011007111
-0.024425345 0.004385929 -0.021485178 -0.008228243 -0.0049964725 0.007873285 -0.0042234915 0.009260659
0.00044970945 -0.00352933 0.0026360108 0.005799351 -0.0036522995 -0.006186932 -0.0026753815 0.00050112745
00000000: 813b b6bb 3b36 d0bb 3f71 16bb 3c01 943b
00000010: 9119 bc3b 9916 80bc e71e 36bc 272f 5c39
00000020: 9ba5 80bc c740 513c e353 2d3b 154b 1bbb
00000030: e5ca 74bb 619f aabc 03fa a1bb a740 bb3b
00000040: 11ab cc3b fb99 be3a 2a27 0fbb cd91 ce39
00000050: 55df b33a cb5c 1abc 8a10 b83b 50e8 f4bb
00000060: c382 e6bb 5b13 553a ffd3 82bb f3e6 57bc
00000070: 2033 19bc 659d 23bc 736a c539 56cb 383c
00000080: 0037 63bb 04d9 99bc a515 06bc 3c6c 973c
00000090: 333c 113c b280 39bc 7186 82bb 726c 103c
000000a0: 1f23 813c 5a02 583c ecaa adbb da68 d63b
000000b0: 8089 b5bb ab7b f43b 032c 6d3c 54e9 88bb
000000c0: f6ac 0bbc 75e4 78bc 1526 9c39 b2b1 4c39
000000d0: 1f7a 75bc d6e4 3dbc 9c54 8a3a a350 433a
000000e0: 0eb1 0bbc faa3 7cbc 627b fbbb ccbb 033c
000000f0: 23ec 2ebc f3bf 08ba c5bb d03b dc4b be3b
00000100: 935d 6dbb 6829 50bc 3b4a 99bb 871a 9ebc
00000110: 67fc 0bbb c370 00bb 6b59 d6bb b678 843b
00000120: e05f cfbb 8710 d5bb 503e 59bc 55eb 073c
00000130: 24d5 123b 86f5 39bc d358 1e3c 57ee 413c
00000140: 6097 5ebb 2270 463a 2c12 ca3b 180f 9f3c
00000150: b090 9aba cccc 8fbc 5169 99bb 80be e83b
00000160: 185e fd3a 6e45 063c bd0a f2bb 2923 8ebb
00000170: a0c4 67bc 755e e13a 47cf 53b9 7de4 fcbb
00000180: 417c 01bc be3f 04bb 8b12 523c a7e2 0ebc
00000190: 1b8d 883a b2aa 873c dacf e63b f2c5 72bc
000001a0: a334 e9bb 557d 583c 0845 55bb c572 52bb
000001b0: 0dae 763b 0fc7 15ba 12a8 32bc bc45 90ba
000001c0: a917 c8bc d7b7 8f3b af01 b0bc c1cf 06bc
000001d0: 73b9 a3bb f3fe 003c 3765 8abb 05ba 173c
000001e0: fbc6 eb39 554c 67bb ecc0 2c3b 7b08 be3b
000001f0: 6b5b 6fbb bfbb cabb 7455 2fbb 185e 033a

network_body._body_endoder.seq_layers.0.bias f4 [128]
-0.00039760955 -0.0022344484 -0.000733595 0.004924044 0.0019425288 8.894243e-05 0.005683842 -0.0013846583
-0.000649872 0.002642928 0.0006844485 0.0058085322 -0.00012069524 0.00066801085 -0.00071754603 -0.0016197144
-0.0010674439 -0.00071551953 -0.0037652312 0.0023942129 0.005148953 -0.0049241423 0.0016353343 -0.0009295135
0.00029312356 -0.0053030406 0.0034058455 -0.0017258765 -0.00033631866 0.0026224048 -0.0013397596 0.00035773878
-0.0020760589 -0.0021924889 -0.0010985434 -0.0010530442 -9.156952e-05 5.2445772e-05 -0.0018252317 0.0028898083
-0.00026007975 -0.00038817257 -0.0018351458 -0.0010908797 0.0041326433 -0.00045424592 -0.00025862313 -0.0010018464
-0.0009776345 -0.00239597 -0.0001296716 -0.0018969749 0.0018111493 -0.00244329 0.00027696844 0.0025047888
0.0011968809 -0.00011965279 0.00020064088 -0.0017064555 -0.0024159926 0.0003231232 -0.0015625927 -0.0061251023
-0.003955159 0.00487964 -0.0026735752 -0.00053806853 -0.002360227 -0.0011516929 0.00020043453 -0.0003768139
0.0015401513 0.00066734204 -0.004824723 -0.00035540573 0.00037329787 0.0026533476 -0.0022942894 0.0024721646
-0.0002552603 -0.00039602455 -0.00022681222 0.005438741 0.000616733 -9.813288e-05 -0.0010312384 -7.6047395e-06
0.0026017183 -0.000282711 0.0027647074 -0.00028342564 -0.00019066084 -0.0005274637 -0.0036346128 -0.0013754853
0.00574467 0.0045834715 0.002157204 0.004373913 0.0019266913 -0.0016937256 -5.957067e-05 0.0056261434
0.005057998 -0.0019153988 -0.00034602138 -0.00033543239 -0.0015275832 1.8908004e-05 -0.0010940917 -0.0010928601
-0.00096086523 0.00010387018 -0.00016601048 -0.001017178 -0.0013655295 -0.000445191 -0.00075512694 -0.001118382
-0.00071964023 -0.0005434256 -0.00058615534 -0.00059367204 -0.0005578438 0.0008649745 0.00031440126 -0.0006469331
00000000: 4076 d0b9 d36f 12bb ba4e 40ba e059 a13b
00000010: 739c fe3a 9a86 ba38 863f ba3b 6c7d b5ba
00000020: 2c5c 2aba f934 2d3b 906c 333a 8055 be3b
00000030: c31d fdb8 731d 2f3a b319 3cba 994c d4ba
00000040: 79e9 8bba b491 3bba 19c2 76bb 3ae8 1c3b
00000050: 8cb8 a83b b35a a1bb b758 d63a 98aa 73ba
00000060: 61ae 9939 21c5 adbb 9b34 5f3b ce36 e2ba
00000070: ed53 b0b9 a7dc 2b3b df9a afba e38e bb39
00000080: 7d0e 08bb dcaf 0fbb 00fd 8fba 4d06 8aba
00000090: 0309 c0b8 38f9 5b38 9d3c efba f062 3d3b
000000a0: 505b 88b9 a483 cbb9 4689 f0ba d9fb 8eba
000000b0: 206b 873b db27 eeb9 cf97 87b9 6350 83ba
000000c0: f823 80ba b505 1dbb 74f8 07b9 eaa3 f8ba
000000d0: 1664 ed3a 9b1f 20bb 1336 9139 6227 243b
000000e0: a9e0 9c3a 1aee fab8 2063 5239 25ab dfba
000000f0: a155 1ebb dd68 a939 e9cf ccba 15b5 c8bb
00000100: 479a 81bb 63e5 9f3b 2637 2fbb 2b0d 0dba
00000110: 0aae 1abb 67f4 96ba bc2b 5239 1b8f c5b9
00000120: e7de c93a 91f0 2e3a b618 9ebb c055 bab9
00000130: 31b7 c339 c9e3 2d3b ca5b 16bb 0a04 223b
00000140: 75d4 85b9 84a1 cfb9 71d4 6db9 7737 b23b
00000150: 40ac 213a b0cc cdb8 9e2a 87ba 372c ffb6
00000160: 9781 2a3b d438 94b9 1830 353b bf98 94b9
00000170: 21ec 47b9 7d45 0aba af32 6ebb a149 b4ba
00000180: c93d bc3b f230 963b e15f 0d3b 0b53 8f3b
00000190: 0889 fc3a 0000 deba 85db 79b8 835b b83b
000001a0: 90bd a53b 1e0e fbba 346a b5b9 f9dc afb9
000001b0: 3039 c8ba a19c 9e37 a067 8fba 4d3e 8fba
000001c0: 93e2 7bba e1d4 d938 1913 2eb9 d452 85ba
000001d0: 91fb b2ba 8668 e9b9 b6f3 45ba ac96 92ba
000001e0: 3da6 3cba ad74 0eba 38a8 19ba a8a0 1bba
000001f0: 443c 12ba 75bf 623a 39d6 a439 f296 29ba

network_body._body_endoder.seq_layers.0.weight f4 [128, 8]
-0.22582014 -0.4029135 -0.5435836 -0.022092015 -0.7509346 -0.14879717 0.047255136 -0.14801836
0.29462713 0.3950818 -0.20166261 -0.065292425 -0.20101069 -0.29596186 -0.29837424 0.77725095
-0.20808204 0.20081657 -0.34403625 0.04450456 -0.44417703 -0.14997134 -0.37332535 0.39352134
0.21396635 0.43079966 0.13476329 -0.35892445 0.32871246 -0.33985078 0.30438584 -0.47268608
-0.45492536 -0.13136752 -0.38493052 -0.34760937 0.06099623 0.1387062 0.55709016 -0.69760424
0.13223614 -0.14318825 0.04287851 0.27484718 -0.050339364 -0.5793198 0.22196372 -0.09297368
0.37225363 0.05230778 -0.20966576 -0.38675794 0.20471202 -0.62042266 -0.30763835 0.1006274
0.32178724 0.39059496 0.020557936 -0.22839934 0.207334 -0.7782401 0.14456116 -0.3818622
-0.0884218 -0.07797879 -0.5916064 0.11681156 -0.5692742 0.6382853 -0.3089327 -0.00938008
0.19854459 -0.23070103 0.24317014 -0.5213043 0.20616737 -0.009030977 0.3003039 0.21095346
0.32495067 0.50516146 -0.43852207 -0.090443626 0.29270568 0.13982004 -0.032451376 0.6311677
-0.36749282 -0.41769847 0.09754048 -0.23935822 0.39879578 -0.08437258 0.43163395 -0.044828262
0.18165739 -0.6081927 0.13022016 0.22747517 0.013064826 -0.46445325 -0.0764166 -0.1314269
0.68503666 0.12632073 -0.14028125 0.18372785 -0.19179355 0.05551803 -0.06941629 0.48932967
0.10484115 0.042249143 0.050890632 0.36258522 -0.48333237 0.3404107 0.165781 0.17289308
-0.5455099 -0.23967601 0.33819443 0.2591202 -0.2213727 -0.3098737 0.03514247 0.20542975
0.08767188 -0.056447014 0.49988118 0.48854744 0.39487734 0.007878145 -0.52740574 -0.40457463
0.618091 -0.69348 0.21929999 0.5091793 0.40059748 0.0039547305 -0.34861103 0.16481285
0.18531784 -0.18510367 -0.11348851 -0.113594 0.5051638 -0.36725262 0.2727726 0.37263343
0.042931728 0.518025 -0.08553279 -0.64218307 -0.37197694 0.04699255 0.1361687 0.05581762
0.24691235 -0.25118518 0.51967907 -0.4587185 0.3895416 -0.18099195 0.3203648 0.12292804
0.069935635 0.24484237 0.28133804 -0.71764725 0.09049811 -0.7486019 0.18028186 -0.48458186
-0.033766195 0.18943617 -0.25688532 -0.5026023 -0.39321753 0.18619588 -0.087119676 -0.11304582
-0.25175187 0.6814318 -0.052378304 0.21736073 -0.116243 0.40197924 0.163929 0.46548155
-0.13405532 -0.32168114 -0.15920313 0.06518302 -0.4327072 0.82990086 -0.23895071 -0.14173333
-0.6183563 0.083511375 0.17266929 -0.18795496 -0.22873127 -0.13500617 0.10358596 0.06558034
0.105270304 -0.3086971 0.47993594 -0.69751126 -0.1467127 0.33714977 0.7705155 0.05715477
1.1321658 -0.010743277 0.22788666 0.3752379 -0.5161664 -0.23859704 -0.015300577 0.58354366
0.20684049 0.0045922897 -0.32790664 0.072292805 0.4568838 -0.13024157 -0.30434674 -0.14613734
-0.5418022 -0.07681299 0.2838708 -0.22537853 0.25179076 0.29092044 0.36837542 0.22490165
0.06282013 -0.15313569 0.2712041 -0.015005749 0.3547387 -0.13112032 -0.020957917 0.14256607
-0.5972498 0.59069633 0.15879297 -0.16616191 -0.6429989 0.19896623 0.039607376 -0.053527277
00000000: 653d 67be ae4a cebe 4b28 0bbf 50fa b4bc
00000010: 403d 40bf 495e 18be 9a8e 413d 2092 17be
00000020: 5ed9 963e 2948 ca3e a580 4ebe 09b8 85bd
00000030: bfd5 4dbe 5088 97be 82c4 98be ebf9 463f
00000040: 7513 55be dca2 4d3e 8525 b0be 6a4a 363d
00000050: 2c6b e3be 1692 19be 8024 bfbe a17b c93e
00000060: ff19 5b3e c691 dc3e 63ff 093e f2c4 b7be
00000070: 004d a83e ec00 aebe 76d8 9b3e e903 f2be
00000080: faeb e8be 3585 06be 9d15 c5be dbf9 b1be
00000090: 2fd7 793d 0009 0e3e 769d 0e3f 3196 32bf
000000a0: e968 073e f19f 12be 60a1 2f3d c5b8 8c3e
000000b0: a630 4ebd 4d4e 14bf 754a 633e fc68 bebd
000000c0: 0798 be3e af40 563d 9fb2 56be 2305 c6be
000000d0: 07a0 513e 05d4 1ebf c682 9dbe bd15 ce3d
000000e0: 4cc1 a43e 10fc c73e 1e69 a83c 84e1 69be
000000f0: 5d4f 543e be3a 47bf d707 143e 7183 c3be
00000100: 7d16 b5bd 58b3 9fbd 8473 17bf e63a ef3d
00000110: f4bb 11bf aa66 233f 6d2c 9ebe e8ae 19bc
00000120: 464f 4b3e e43c 6cbe 9801 793e 3374 05bf
00000130: 8a1d 533e aaf6 13bc 6fc1 993e 2f04 583e
00000140: ef5f a63e 4352 013f f785 e0be 823a b9bd
00000150: 85dd 953e fc2c 0f3e bceb 04bd 3594 213f
00000160: 0528 bcbe 93dc d5be 4ec3 c73d 521a 75be
00000170: f62e cc3e 88cb acbd 20ff dc3e d79d 37bd
00000180: 6504 3a3e 84b2 1bbf 6f58 053e 40ef 683e
00000190: da0d 563c d1cc edbe 4e80 9cbd c694 06be
000001a0: 905e 2f3f 395a 013e e3a5 0fbe 2723 3c3e
000001b0: 8765 44be e066 633d 212a 8ebd 6b89 fa3e
000001c0: f5b6 d63d 700d 2d3d b272 503d c5a4 b93e
000001d0: 5777 f7be 504a ae3e 7fc2 293e e20a 313e
000001e0: 89a6 0bbf a16d 75be d227 ad3e 67ab 843e
000001f0: 86af 62be c4a7 9ebe 8df1 0f3d 2d5c 523e
00000200: 518d b33d fc34 67bd 6df0 ff3e e422 fa3e
00000210: 5d2d ca3e 5613 013c 1004 07bf 6824 cfbe
00000220: 363b 1e3f e887 31bf 2d90 603e 9359 023f
00000230: 1d1b cd3e af96 813b 257d b2be b3c4 283e
00000240: f6c3 3d3e d18b 3dbe aa6c e8bd f9a3 e8bd
00000250: 6a52 013f 8908 bcbe daa8 8b3e cfc9 be3e
00000260: 2ed9 2f3d 499d 043f d12b afbd 1c66 24bf
00000270: c373 bebe 437b 403d cf6f 0b3e 04a1 643d
00000280: 97d6 7c3e 589b 80be b009 053f 27dd eabe
00000290: ff71 c73e f455 39be db06 a43e b2c1 fb3d
000002a0: 6a3a 8f3d f5b7 7a3e 8a0b 903e bbb7 37bf
000002b0: 1357 b93d 60a4 3fbf cf9b 383e 1d1b f8be
000002c0: 6c4e 0abd 8efb 413e 7986 83be 8baa 00bf
000002d0: cf53 c9be 22aa 3e3e cd6b b2bd 9184 e7bd
000002e0: 9fe5 80be 5072 2e3f a28a 56bd d093 5e3e
000002f0: cf10 eebd 39d0 cd3e 01dd 273e 9953 ee3e
00000300: cc45 09be 64b3 a4be 2506 23be ad7e 853d
00000310: cc8b ddbe 6274 543f 7faf 74be 8b22 11be
00000320: 994c 1ebf 0308 ab3d 38d0 303e 4477 40be
00000330: 8838 6abe 0f3f 0abe e024 d43d fc4e 863d
00000340: f597 d73d 8c0d 9ebe 2aba f53e 1990 32bf
00000350: db3b 16be e59e ac3e 8140 453f 1f1b 6a3d
00000360: cfea 903f 9204 30bc 1f5b 693e 2f1f c03e
00000370: 7b23 04bf c852 74be 45af 7abc 1e63 153f
00000380: fecd 533e eb7a 963b 61e3 a7be 400e 943d
00000390: acec e93e 0c5e 05be 56d3 9bbe 07a5 15be
000003a0: 8db3 0abf 2150 9dbd 8357 913e a1c9 66be
000003b0: b8ea 803e 86f3 943e b49b bc3e 9e4c 663e
000003c0: d7a7 803d 9acf 1cbe 44db 8a3e acda 75bc
000003d0: 50a0 b53e 6844 06be f0af abbc d7fc 113e
000003e0: 5de5 18bf e037 173f a09a 223e 5926 2abe
000003f0: 939b 24bf cebd 4b3e 583b 223d 6b3f 5bbd

network_body._body_endoder.seq_layers.2.bias f4 [128]
0.0038304867 -0.00017358009 0.003507205 -0.0004270576 0.00011428406 0.004864226 -0.0034879735 -1.2887867e-05
0.0005213216 6.574191e-05 -0.0016193702 -0.00066837313 -0.0014129293 -0.0050792326 -0.004386879 -0.00043195742
0.0008078943 0.0028209966 0.00042902984 -0.0005246591 -0.0014011605 -0.00023678955 0.0023038068 -0.000343263
-0.00022209855 -0.0015879502 -0.0010354483 -0.003076248 -0.0041315905 0.0024919936 0.00046002548 -0.00024243844
0.0007221935 -0.0004394143 -0.00046400947 -0.0014496542 -0.0012523928 -0.0009468552 -0.0019995451 -0.00042201352
-0.0010298967 -0.0023197085 -0.0014853596 0.00051492814 6.855567e-05 0.0005598727 2.631262e-05 -0.0010226269
0.0006768949 3.899001e-06 -8.518755e-05 -0.00094741554 -0.0035609566 -0.00028834713 0.0014239862 -0.0024433564
0.0008629959 -0.0020923335 0.0004557306 -0.0007502542 -0.00033293953 0.0057419003 -0.0015248433 0.00054489286
0.00072273106 -0.0036882202 -0.0011464538 0.0011493487 -0.00049350585 0.00016462486 -0.00021840898 -0.0053430945
0.0037433174 0.0010196037 -0.0012825413 0.002177539 -0.0006682594 -0.0014169508 0.0020086262 -0.003019584
-0.00052739354 0.0025656056 -0.0012908711 -0.0038984786 -0.0036720056 -0.0011054 -0.00021432762 -0.0008279462
-0.0008237501 0.0006234607 -0.0015723415 -0.000119879005 0.0006304358 0.0007136654 -0.00070512143 0.0010565376
-0.00012107142 -0.0004117287 -0.0026961672 -0.00463987 -0.00015542454 -0.0008076504 -0.0037194286 0.0009189532
-0.00064517197 -0.00046861888 0.0005004519 0.00071013026 -0.00035702533 -0.002376021 -0.00014393959 0.004580882
-0.0011056005 0.0011498843 0.0024589156 -7.158968e-05 -0.00047737738 0.0005257293 -0.0006175353 -0.0008989742
-0.0010707545 -0.0021174098 -0.00011840283 -0.00070851855 -0.00041164365 0.00026943596 -0.0010542077 -0.00058659323
00000000: e708 7b3b 0d03 36b9 23d9 653b b3e6 dfb9
00000010: caab ef38 1664 9f3b 7c96 64bb f838 58b7
00000020: 4da9 083a ebde 8938 0c41 d4ba c335 2fba
00000030: 0a32 b9ba b16f a6bb cfbf 8fbb 5878 e2b9
00000040: dec8 533a 78e0 383b 69ef e039 4789 09ba
00000050: 25a7 b7ba b64a 78b9 77fb 163b fbf7 b3b9
00000060: 20e3 68b9 c422 d0ba e1b7 87ba e19a 49bb
00000070: 4b62 87bb b750 233b 932f f139 1337 7eb9
00000080: 9651 3d3a 3061 e6b9 4c46 f3b9 5302 beba
00000090: 5427 a4ba 6036 78ba cd0a 03bb b241 ddb9
000000a0: 99fd 86ba 4006 18bb 66b0 c2ba 3efc 063a
000000b0: 8cc5 8f38 6cc4 123a ecb9 dc37 aa09 86ba
000000c0: a671 313a 2ad4 8236 b8a6 b2b8 fb5b 78ba
000000d0: f05e 69bb 4c2d 97b9 0ca5 ba3a b820 20bb
000000e0: ad3a 623a 881f 09bb 20ef ee39 b5ac 44ba
000000f0: 638e aeb9 8d26 bc3b 40dd c7ba 24d7 0e3a
00000100: a975 3d3a 11b6 71bb 9b44 96ba bea5 963a
00000110: 9e5e 01ba 269f 2c39 b704 65b9 2015 afbb
00000120: 7252 753b 39a4 853a f21a a8ba 0bb5 0e3b
00000130: 212e 2fba fbb8 b9ba 28a3 033b 37e4 45bb
00000140: c840 0aba b823 283b 7232 a9ba 9e7d 7fbb
00000150: 08a6 70bb 12e3 90ba 22bd 60b9 870a 59ba
00000160: eff0 57ba bd6f 233a 0717 ceba 8d67 fbb8
00000170: d543 253a 4615 3b3a e6d7 38ba 857b 8a3a
00000180: b9e7 fdb8 4add d7b9 2eb2 30bb 0d0a 98bb
00000190: 75f9 22b9 80b8 53ba a8c1 73bb e8e5 703a
000001a0: c220 29ba f6b0 f5b9 c230 033a 0928 3a3a
000001b0: 212f bbb9 04b7 1bbb 7dee 16b9 391b 963b
000001c0: cce9 90ba b7b7 963a c225 213b 6b22 96b8
000001d0: 8248 fab9 19d1 093a 18e2 21ba 23a9 6bba
000001e0: 8f58 8cba 3ec4 0abb 094f f8b8 e0bb 39ba
000001f0: e0d1 d7b9 1543 8d39 572d 8aba 9bc5 19ba

network_body._body_endoder.seq_layers.2.weight f4 [128, 128]
-0.14014402 0.04938515 -0.061723027 0.038121864 -0.018709477 0.020880813 -0.056797404 0.10844729
0.122170314 0.09455198 0.07454025 0.0065353247 0.13390213 -0.01852422 -0.006887987 0.20522982
-0.017926205 -0.005585839 -0.018290818 -0.06917742 -0.015122943 0.030483184 -0.00039040582 0.038655132
-0.007851222 -0.17626925 0.035888426 -0.014486976 0.14993238 0.020783192 0.0868232 -0.0029974463
-0.09923756 0.033730414 0.09579941 0.20967665 0.08310439 0.0976839 0.067699425 -0.028646128
0.060266927 -0.12309627 -0.05150514 -0.038597208 -0.014663331 0.043773275 0.024634289 0.1351547
0.02739922 -0.029950896 0.050836846 -0.20892501 -0.12847294 -0.10166217 -0.08175758 -0.0523606
0.005333753 -0.065604344 -0.020805426 -0.008810708 0.13792677 -0.08364981 -0.058556426 -0.018186219
-0.15596788 -0.09431653 -0.05051607 -0.0392159 -0.1877446 0.071385264 0.03298176 -0.10751913
-0.03309706 -0.04459855 -0.020928012 -0.023434415 0.045245264 0.078316495 0.21373037 0.049939297
-0.011409955 -0.046570696 0.06810654 0.12272248 0.06445259 -0.059357226 -0.03466304 0.007819075
0.013951012 0.15493952 0.04674313 -0.04125832 -0.12840377 0.05248994 0.056953184 0.056954924
0.0842622 0.037386652 -0.09221341 -0.15332931 -0.03766178 -0.017650394 -0.08243927 0.09817104
0.06539499 -0.007955247 0.02851191 0.0928205 -0.10660674 0.040469825 0.011130631 0.19488256
-0.0466419 0.08911579 -0.021350687 -0.096997954 -0.18710719 0.025336994 -0.04763337 -0.23582077
0.20093216 -0.051873337 -0.15481816 0.11267373 0.036619987 0.090872385 -0.01980295 -0.03560095
0.053964425 0.112179935 0.08295956 0.07985518 -0.15890157 0.050341316 -0.12069598 0.037764132
-0.040112875 0.21393563 0.12615329 -0.019506916 -0.0044605928 0.12846623 -0.05708158 -0.21192837
0.064059876 -0.049672507 -0.045396037 -0.051415287 0.096474834 -0.018812297 -0.06802237 -0.09052368
0.018328756 0.023235653 0.048316397 0.02689439 0.014607981 0.09943271 -0.07212487 -0.07089935
0.17624499 0.082347624 0.039908364 -0.15642022 0.038640205 0.10697069 -0.07227191 -0.16310413
0.029660441 0.021314673 -0.045337033 -0.03831096 0.027558947 0.10491188 -0.05590399 -0.045588754
0.034829576 -0.00021190231 -0.03509757 -0.056101143 0.027263073 0.083877586 0.00024316164 -0.013954779
-0.018317046 0.038963635 -0.040722147 0.013195983 -0.12778556 0.09867951 -0.050613843 0.019943772
0.24907856 0.12463122 0.016469814 -0.019929567 -0.08126641 0.17374498 0.013347196 0.12339568
-0.07791415 -0.021965649 0.087376334 -0.1128531 -0.110761754 -0.058494173 0.17427833 -0.07192261
-0.022624848 -0.12578681 -0.029822221 -0.017929891 -0.10115501 -0.07907649 -0.041539066 -0.14023437
-0.018682018 0.23497058 0.1731992 0.17342955 -0.04782659 -0.13785802 -0.013683323 -0.022559548
-0.11038195 0.1019921 -0.050130863 0.08678809 -0.015298738 -0.057494145 -0.06099155 -0.014637627
-0.06261596 0.0051764157 0.050486684 0.12438363 0.08990208 -0.15527576 0.0634699 0.08807248
0.11226138 -0.084072195 0.036992826 -0.09111384 -0.030290611 0.14804365 -0.23455353 -0.075064965
-0.06450724 0.0020069224 -0.014799367 0.046845984 -0.11727443 -0.09783984 -0.054421164 0.19465266
00000000: ea81 0fbe 1548 4a3d 49d1 7cbd ac25 1c3d
00000010: 9e44 99bc 3d0e ab3c 65a4 68bd 9d19 de3d
00000020: 6e34 fa3d 78a4 c13d 8fa8 983d 4726 d63b
00000030: a41d 093e 1bc0 97bc 9fb4 e1bb c427 523e
00000040: fad9 92bc 6a09 b7bb a0d6 95bc e4ac 8dbd
00000050: 38c6 77bc dfb7 f93c 62af ccb9 d854 1e3d
00000060: 69a2 00bc ed7f 34be beff 123d c85a 6dbc
00000070: e087 193e 8341 aa3c 5dd0 b13d ce70 44bb
00000080: 103d cbbd e728 0a3d 7b32 c43d 7ab5 563e
00000090: a232 aa3d 7f0e c83d ffa5 8a3d 49ab eabc
000000a0: 74da 763d e619 fcbd 0ef7 52bd 1b18 1ebd
000000b0: 783e 70bc 9b4b 333d d9cd c93c fe65 0a3e
000000c0: 5474 e03c 955b f5bc 4c3a 503d 70f0 55be
000000d0: 698e 03be 4134 d0bd 8570 a7bd 1278 56bd
000000e0: c3c6 ae3b 925b 86bd 2470 aabc ca5a 10bc
000000f0: ad3c 0d3e 9750 abbd ddd8 6fbd 44fb 94bc
00000100: 0bb6 1fbe 0629 c1bd f0e9 4ebd daa0 20bd
00000110: 1f40 40be 7032 923d e217 073d fd32 dcbd
00000120: c890 07bd f8ac 36bd 3971 abbc 88f9 bfbc
00000130: 1953 393d 6664 a03d 22dc 5a3e 268d 4c3d
00000140: d2f0 3abc eac0 3ebd 717b 8b3d ec55 fb3d
00000150: b8ff 833d 9020 73bd d5fa 0dbd 941b 003c
00000160: c992 643c 77a8 1e3e b975 3f3d 7cfe 28bd
00000170: 477c 03be b1ff 563d be47 693d 9149 693d
00000180: a991 ac3d bf22 193d 62da bcbd 5c02 1dbe
00000190: 3d43 1abd 8f97 90bc ecd5 a8bd e60d c93d
000001a0: cfed 853d b956 02bc cf91 e93c ad18 be3d
000001b0: a254 dabd b0c3 253d 405d 363c 4b8f 473e
000001c0: 940b 3fbd 5782 b63d a3e7 aebc dda6 c6bd
000001d0: 0799 3fbe 878f cf3c 351b 43bd 007b 71be
000001e0: 29c1 4d3e 2379 54bd a788 1ebe 7cc1 e63d
000001f0: d7fe 153d 4d1b ba3d cc39 a2bc 4dd2 11bd
00000200: cd09 5d3d 98be e53d b4e6 a93d 1d8b a33d
00000210: 18b7 22be b232 4e3d 742f f7bd 90ae 1a3d
00000220: 664d 24bd f111 5b3e 542e 013e f8cc 9fbc
00000230: 2a2a 92bb a78c 033e 60ce 69bd c003 59be
00000240: d331 833d 6675 4bbd 32f1 39bd d698 52bd
00000250: 9994 c53d 3f1c 9abc 504f 8bbd 7b64 b9bd
00000260: 3026 963c b258 be3c 6ae7 453d a051 dc3c
00000270: 5056 6f3c 60a3 cb3d 34b6 93bd ae33 91bd
00000280: 9179 343e dfa5 a83d f476 233d 9f2c 20be
00000290: 3145 1e3d 7313 db3d 4c03 94bd c504 27be
000002a0: 74fa f23c 1c9c ae3c 53b3 39bd f4eb 1cbd
000002b0: 4dc3 e13c 0adc d63d 95fb 64bd 46bb 3abd
000002c0: 75a9 0e3d 1832 5eb9 78c2 0fbd 50ca 65bd
000002d0: cf56 df3c 03c8 ab3d 35f9 7e39 96a2 64bc
000002e0: a10d 96bc 5598 1f3d 44cc 26bd f733 583c
000002f0: 38da 02be 7c18 ca3d 7650 4fbd 1f61 a33c
00000300: 730e 7f3e a73e ff3d b4eb 863c 5543 a3bc
00000310: 016f a6bd 34ea 313e 33ae 5a3c e0b6 fc3d
00000320: 7491 9fbd 4ef1 b3bc 5df2 b23d 871f e7bd
00000330: 0fd7 e2bd 9697 6fbd 0576 323e 294c 93bd
00000340: bf57 b9bc 42ce 00be bb4d f4bc b5e1 92bc
00000350: 5c2a cfbd dbf2 a1bd de24 2abd 9999 0fbe
00000360: 080b 99bc 219c 703e 225b 313e 8497 313e
00000370: d0e5 43bd a72a 0dbe 0430 60bc cdce b8bc
00000380: ef0f e2bd 3ce1 d03d 0556 4dbd f4bd b13d
00000390: 8fa7 7abc fb7e 6bbd 47d2 79bd a8d2 6fbc
000003a0: cc3c 80bd ec9e a93b 20cb 4e3d d8bc fe3d
000003b0: 951e b83d 9c00 1fbe 82fc 813d 585f b43d
000003c0: 4be9 e53d 0b2e acbd ca85 173d e599 babd
000003d0: 0424 f8bc c198 173e cd2e 70be a9bb 99bd
000003e0: 5f1c 84bd 9286 033b 0b79 72bc 93e1 3f3d
000003f0: 942d f0bd 4160 c8bd bae8 5ebd 0753 473e
